output/out_models/dqn_models/basic/add_141.pth (torch, 9887 bytes, 3 tensors)

fc1.weight f4 [32, 64]
000000 fd 5e c7 bd f6 42 c6 3d ac 57 06 3e 79 0f 75 3d
       -0.097349145 0.096807405 0.13119382 0.05982921
000010 af d6 15 bd 63 bc 0d bd ea 83 c6 3c d4 b2 f4 3d
       -0.03658169 -0.034603488 0.024232823 0.11948171
000020 70 d8 ef 3b a3 81 bd bd d5 fa c0 bd ad 43 07 3e
       0.0073195025 -0.09253242 -0.094228424 0.1320941
000030 e3 cd 4e 3d d9 23 64 3d d2 56 3c bd c8 9b 20 bd
       0.050489318 0.05569825 -0.045981236 -0.039211065
000040 b0 27 7d 3c 42 c7 f2 3c 75 f6 a1 bd 8d bc 04 3e
       0.015451357 0.02963603 -0.07908336 0.12962551
000050 5b 95 d3 bd 62 ef 2f 3d b7 fd be 3d 57 3c 7d 3a
       -0.10331222 0.042952903 0.09325736 0.00096601754
000060 8a bc f3 3d ae a8 9a 3d e9 8d 22 bc 02 b1 d5 3d
       0.11901195 0.07551704 -0.009921529 0.10434152
000070 0f 97 4f b9 33 52 4f bd f6 06 cc bd 03 21 0c 3e
       -0.00019797332 -0.0506155 -0.09962265 0.13684468
000080 08 1e 65 3c 35 5e e2 3d 18 83 8e bd 81 69 23 3d
       0.013984211 0.11053125 -0.06958598 0.03989554
000090 99 60 fd 3d 33 94 29 3c a9 61 8d bd 32 d2 34 3d
       0.1237194 0.010350275 -0.06903393 0.04414577
0000a0 6c eb 6b 3d 4d aa 9e 3d 6e d2 57 bd 56 7c 02 bd
       0.057597563 0.07747326 -0.052690916 -0.031856857
0000b0 02 c6 3c 3d 2e 98 ea 3c 9f ee a5 3d a6 e0 2e bd
       0.046087272 0.028637018 0.08102154 -0.04269471
0000c0 e2 9b bc bd 3a 48 1f 3d 64 e1 d6 3d ae fd fe bc
       -0.0920942 0.03888724 0.104922086 -0.031126823
0000d0 43 90 ae 3d 9c d9 51 3a 90 5f a1 3c 95 f2 98 bd
       0.085236095 0.00080051436 0.019698888 -0.07468144
0000e0 b7 b7 74 bd 6e d8 89 3d ab 63 f1 3b d9 ff c8 3d
       -0.059745517 0.06730734 0.0073666177 0.09814424
0000f0 ae 0c 85 bc cf 1a a2 3d 0c a5 46 bd dd 6c fc bc
       -0.016241398 0.079152696 -0.048497245 -0.030813629
000100 86 f2 c3 3d d4 b2 d9 3d 70 c5 73 3c 4a df 81 3d
       0.09567742 0.10629812 0.014878616 0.06341417
000110 fe 12 9d 3d 2c 5a 66 3d c4 ee ae bd 00 87 94 3c
       0.07669638 0.05623834 -0.08541635 0.01813078
000120 ec 9c 02 3d b2 90 82 3d 16 5c c0 3d 00 d7 63 3a
       0.031887934 0.06375255 0.09392564 0.00086914
000130 8c 0f c2 3d 6e 01 d2 bd 28 50 7d 3d 2e a6 d7 3d
       0.094756216 -0.10254179 0.06184402 0.10529743
000140 f8 7d d0 bd c0 b4 d2 3c 80 5c ab 3d 00 cb b3 bc
       -0.10180277 0.025720954 0.08367252 -0.021947384
000150 a8 e1 c2 bc e0 96 be 3d 20 72 b1 bc b2 90 c2 3d
       -0.023789242 0.09306121 -0.021660864 0.09500255
000160 a8 8c 2a 3d 00 8b 1e 3a d2 45 a5 3d dc 3e e5 bd
       0.041638047 0.00060479343 0.08069958 -0.1119363
000170 5e fd fd 3d 08 3e a7 bc c0 f7 15 bd ae ad f8 bd
       0.124018416 -0.020415321 -0.036613226 -0.12142502
000180 72 99 a2 bd 60 5e d5 3d 16 80 e9 bd 58 87 83 bd
       -0.079394236 0.10418391 -0.114013836 -0.06422299
000190 50 82 d9 3c e4 ba ba 3d 84 5e 28 3d 50 d9 48 bd
       0.026551396 0.09117678 0.041105762 -0.04903537
0001a0 24 7e e6 3d ea 55 be bd 6c 4b 0b bd 84 83 15 3d
       0.11254528 -0.092937306 -0.034007475 0.036502376
0001b0 cc 94 ea bd 20 85 7b bc c4 57 92 bd d8 64 a8 bd
       -0.11454162 -0.015351564 -0.07145646 -0.082223594
0001c0 5c 33 64 bd 28 f6 99 3c 20 4d f7 3b 40 23 51 3d
       -0.055713043 0.018794134 0.007547036 0.051059008
0001d0 8c 99 0e bd 08 3f 3a 3d e8 d1 54 bd 8a a5 90 bd
       -0.034814402 0.045470268 -0.051957995 -0.07062824
0001e0 a0 42 f4 bb b6 6c d8 3d bc 05 f0 bd 7a 06 ec 3d
       -0.0074542314 0.1056761 -0.11719844 0.11524673
0001f0 1c 9f f7 bd 24 75 c1 bd d6 00 ec bd 2c 90 90 3d
       -0.120908946 -0.09446171 -0.11523597 0.070587486
000200 d3 c0 d4 3d dd a4 e3 3d f1 e1 52 3c 34 a5 0e 3e
       0.10388341 0.111154296 0.012871251 0.13930207
000210 e5 b1 36 bd cd 34 d0 bd 51 34 89 3d 2c 05 05 3e
       -0.044603247 -0.10166321 0.06699432 0.12990254
000220 ed 29 05 3e b4 92 d2 bc 84 39 b8 3c a4 4b 7c 3d
       0.13004275 -0.02570472 0.022488363 0.061595574
000230 f8 92 aa 3d 52 4d 54 bd 59 c3 99 bc 00 ad 2b bd
       0.08328813 -0.05183155 -0.018769907 -0.041913033
000240 a0 b6 59 bd 48 3a 96 3c 05 60 d3 3c 37 90 e4 bc
       -0.05315268 0.018338338 0.025802622 -0.027900798
000250 a8 85 f5 bb e6 8d c8 3d 25 38 ca bc 2b 9f 34 3d
       -0.0074927397 0.0979269 -0.024684975 0.044097107
000260 9c 4c 9f 3c df 12 0d bc 98 36 13 bd be 4e 86 bd
       0.01944571 -0.008610456 -0.035940737 -0.06557988
000270 d6 e7 12 3e 77 58 1e bd dd 9c 53 bd cc fd e3 3d
       0.14346251 -0.038658585 -0.05166327 0.11132392
000280 c7 13 82 3d 0f ac d9 3c 63 71 b1 3c 58 9f eb 3d
       0.063514285 0.026571302 0.021660512 0.11505002
000290 d1 84 8e 3d 8e df 9d 3d 78 70 c9 bd 72 98 c1 3d
       0.069589265 0.07708655 -0.09835905 0.09452905
0002a0 16 90 19 bd 35 fd 42 3d 4c 4b 65 bd b8 6d 07 3d
       -0.037490927 0.04760476 -0.05598001 0.03306362
0002b0 af ee dc bd 7f a8 81 3d 8f 55 96 bd 32 d9 01 bd
       -0.10787713 0.06330966 -0.07340538 -0.031701274
0002c0 e0 11 1b 3d 92 86 65 bc 4e 6f 08 3d 66 59 2d bd
       0.037858844 -0.014009135 0.033309273 -0.042321585
0002d0 5b 66 32 3d b2 4e 51 3d a4 8a c4 3d 45 a9 8a bd
       0.043554645 0.05110044 0.09596756 -0.06770567
0002e0 a5 3b 1e 3c 96 ee 22 bd 93 7a 5f bd 28 42 02 3d
       0.009657775 -0.039778315 -0.054560255 0.031801373
0002f0 93 67 94 bd 06 8c 46 bd 20 de d5 3d 61 e3 3b bc
       -0.07246318 -0.04847338 0.104427576 -0.011467786
000300 60 32 4f 3c cc 53 97 bd 78 a9 cc 3d 00 88 ac ba
       0.012646288 -0.0738903 0.09993261 -0.001316309
000310 68 8d b6 3d 4c c0 63 bd 70 ec d0 bc e0 5c 83 3b
       0.0891369 -0.05560331 -0.025503367 0.0040088743
000320 4c ff b6 bd 30 11 d6 3d 68 06 0e 3d 90 92 4d 3d
       -0.08935413 0.10452497 0.03467408 0.0501886
000330 b8 b4 9d 3c d8 93 79 bd 4e 4f e9 bd 96 97 8a 3d
       0.019251212 -0.06093201 -0.11392079 0.06767194
000340 6c 43 84 bd c0 69 20 bc 14 6c 48 3d f8 ae 9c bc
       -0.06458172 -0.009790838 0.048931196 -0.0191264
000350 a4 8d 60 3d 80 8f e0 bd b6 76 c9 3d aa 5b c7 bd
       0.05482258 -0.109648705 0.098370954 -0.097342804
000360 00 7a ca 3d 28 8d f7 bd 10 22 6d 3c 36 3a a6 bd
       0.09886551 -0.1208747 0.014473453 -0.081165716
000370 a0 10 02 3d 62 83 86 bd c4 11 dc bd 40 c6 c5 bb
       0.031754136 -0.06568028 -0.10745576 -0.006035596
000380 b0 e1 c6 3d 30 40 eb 3c 56 58 bd bd 20 5e d1 bd
       0.09711015 0.02871713 -0.09245364 -0.10223031
000390 84 26 3f bd 5e c2 d7 bd 0a a2 f2 bd 70 30 ee bc
       -0.04666759 -0.105351195 -0.11847313 -0.029075831
0003a0 e8 0b ad 3d a8 73 bf bc c0 04 c7 bc 60 84 08 bd
       0.084495366 -0.023370579 -0.024294257 -0.033329368
0003b0 08 59 b8 bc 70 c1 c7 bc 06 0d 97 bd 6a 7a e5 3d
       -0.02250339 -0.02438423 -0.07375531 0.11204989
0003c0 6e 04 e3 3d 08 20 a3 3d 50 b4 03 bc c4 27 3c 3d
       0.11084829 0.07965094 -0.008038595 0.04593636
0003d0 c0 ae 73 3d 0e 63 fc bd 1c a9 82 3d fc 88 8a bd
       0.059492826 -0.12323581 0.06379911 -0.06764409
0003e0 e0 33 1c 3d a0 4d 29 3d 28 16 10 3d 34 d9 49 3d
       0.03813541 0.041333795 0.03517738 0.049279407
0003f0 c0 07 1b bb c0 c8 78 3b 3c d3 02 3d 12 73 9e 3d
       -0.0023655742 0.0037961453 0.03193973 0.07736792

fc1.bias f4 [32]
000000 8c 4a 11 bd 22 0a ea bd d5 14 a2 bd 70 66 ee 3d
       -0.035471484 -0.11427714 -0.0791413 0.11640632
000010 bc 46 6f bd 2a 7e 9e bd 6d 0e 68 3d 3d b8 6c bc
       -0.058417067 -0.07738908 0.056654382 -0.014448223
000020 26 66 09 bd a2 be 82 3d f2 b3 fe bd 45 6d 31 bd
       -0.033544682 0.063840166 -0.124366656 -0.0433171
000030 60 a8 2e 3c c0 55 6b bd b5 b0 11 3d 1e 9e d0 3c
       0.010660261 -0.057454824 0.03556891 0.025466021
000040 ab 0e 32 bd b2 07 dc 3d e0 68 e6 bd 20 9e 7e bd
       -0.04347102 0.10743655 -0.11250472 -0.06216252
000050 29 a7 1f 3d 97 ca 28 bd ea 65 cc 3d 24 ac 0e bd
       0.038977776 -0.04120883 0.09980376 -0.034832135
000060 d0 58 66 3c 6a d0 a3 bd 65 13 84 bd 3a d7 12 bd
       0.0140592605 -0.07998736 -0.06449012 -0.035849787
000070 ae bb 13 bd e4 2b 57 bd 60 30 88 3c aa 9c 8f 3d
       -0.036067657 -0.05253209 0.01662463 0.07012303

fc2.weight f4 [1, 32]
000000 c7 8b 4e bd e4 42 9f 3c fa 61 ba bd 98 ba 33 3e
       -0.05042627 0.019441076 -0.09100719 0.17551649
000010 ca 20 81 3d c9 20 86 bd 32 67 d4 3b 32 ff eb bc
       0.06305082 -0.06549222 0.0064820284 -0.02880821
000020 f5 51 1b 3e 7e 83 b6 ba c5 f1 62 bd 26 17 a0 3d
       0.15167983 -0.0013924686 -0.05540635 0.07816915
000030 db c7 02 3e bf 24 09 bd 74 79 c2 3d c8 73 05 be
       0.12771551 -0.03348231 0.094958216 -0.13032448
000040 26 1c db 3d d1 73 9d 3d 8a c7 95 3d 3f fe a5 bc
       0.10698728 0.07688106 0.0731345 -0.020262836
000050 f8 0d 2c 3b 24 5e 02 be 0a 1c be 3d 47 06 d6 3d
       0.0026253443 -0.12731224 0.09282692 0.10450416
000060 68 7a d0 3d 65 aa 1e be 0e 1f bc 3b d9 5d f8 bd
       0.10179597 -0.15494688 0.0057410067 -0.12127275
000070 5b d2 5c bd 42 14 00 be 71 ec 95 3d f3 05 4d bd
       -0.053911548 -0.12507728 0.07320488 -0.0500545
