output/out_models/dqn_models/basic/add_34.pth (torch, 9887 bytes, 3 tensors)

fc1.weight f4 [32, 64]
00000000: 842e 263d 68ac e03c c06b 9abc 8800 cf3d
00000010: fc88 d8bd 006c 5bbc e81b 9d3d 1c53 d8bd
00000020: a000 b43c e0e2 7a3d 302f c33d 742f 343d
00000030: ba1b f6bd 3c0a 873d 8c03 853d d29a de3d
00000040: 404f 733d a6fc b33d c666 a43d 268c ee3d
00000050: da2b a4bd 508f 163d 705a 633d d0d1 ca3c
00000060: 2a6d cb3d 8c4b 7c3d b4d2 b8bd 78bf 9cbd
00000070: 3080 003d 6070 bf3b 107b f13d 4031 133c
00000080: 00cf 163c dc46 86bd 10b4 f5bc e686 8abd
00000090: 8875 383d 80a8 743b d448 81bd 8041 a83d
000000a0: b4aa a0bd 3c80 2f3d 244f 953d d4cc 69bd
000000b0: 8811 b33c 7c36 8dbd c071 7a3b 7e27 febd
000000c0: 28a5 2dbd da03 893d f099 513d 124c f3bd
000000d0: c08f 3ebb 92dd eabd 40d3 f13c be6c adbd
000000e0: 00c9 72ba 529a 83bd 06a9 cb3d 542f d83d
000000f0: 5814 b23d 6433 393d e0e1 823b 38dd babc
00000100: 8a0a d9bd 78b5 cc3c 9c4d c5bd 8085 063d
00000110: 223f ca3d e808 d5bc 62d8 be3d d28f d3bd
00000120: 088e a3bc d403 273d 3819 0abd 7a1a e3bd
00000130: 1648 f5bd 6806 793d 1c3e 653d 94b7 a83d
00000140: e81c 123d a2d5 c83d 28ee ec3d 106f ea3c
00000150: 5e10 b23d 16da ac3d e6c4 dbbd e2e7 c63d
00000160: c07a 70bb a0d2 683d 766c f03d f4fd b93d
00000170: dced 31bd ec31 c03d 400c b0bb 2442 483d
00000180: 5020 203c f07c 4a3c 6898 cf3c 3c64 41bd
00000190: a402 d7bd 82ca fcbd a092 a33c 60d6 81bb
000001a0: 66fe 883d 48ed b9bd cce8 19bd 34e6 143d
000001b0: 68da dcbd 4094 013c 02e3 d2bd 80d9 5ebd
000001c0: 6c94 e6bd f005 323c 505d 14bd 8e47 debd
000001d0: b0d3 ae3d b86a 78bd 1c39 d73d 7c5b 2dbd
000001e0: d45d 87bd c8bd a3bd 5808 213d e82e bbbd
000001f0: 78ac fabc 1028 253d e481 f93d ac2a 05bd
00000200: 6651 16bd 602d 123d 6652 96bd 8089 26bc
00000210: f746 38bd 54ef a33d b9d2 4f3d dad0 993d
00000220: 0122 0c3e 4052 cf3d 15b1 b63d d186 ecbc
00000230: 22a2 76bd 5ae3 8d3d 736b c2ba 2b08 933d
00000240: 98f8 8b3d eaa7 0c3e 458d e53d 7121 f93d
00000250: c8d6 bbbc fd83 fc3d c174 f43d d5ff 44bc
00000260: 0c90 033d ae7a 34bd 7a8c 0ebc 1461 aebd
00000270: 2b7a 4d3c 0e5d e2bc 0d0f b03d f948 253a
00000280: 99fc c4bd 76cc 88bd e5f0 d5bd 0eae e33d
00000290: b909 c43d 0e58 fd3d d8c5 503c 1b13 a93d
000002a0: cc98 b9ba d5cc a0bd 91b6 1f3b 32ec dc3b
000002b0: a117 033e 4ffc fc3d 082d 8cbd c6ad 713d
000002c0: e283 fcbd 98cd ba3b b620 fb3d c922 e7bd
000002d0: 2942 5dbd eca4 c1bc 8297 b2bd aad6 003c
000002e0: 5ae5 83bd aa89 3b3d e766 023c 5606 453d
000002f0: 21e6 f03d ca6e fc3d 90d6 90bc 1f7e a0bd
00000300: 219c 073d fce5 50bd c36d 883b 69ca a4bc
00000310: b2be 9d3b 4f6e 073e 2cf0 8fbc c3d6 dabd
00000320: e4da 11bd 876e 1cbd 5cef ef3c 8ece c2bb
00000330: 060b 083e ff19 81bd fdba b8bc 664e 553c
00000340: 08d0 8ebc ac1b e13d 085d 013e e637 243d
00000350: d821 513c 8c7c 63bd e925 a63d e3da 333d
00000360: 19d8 4cbc 979f 0e3e 5af6 443d 876f 833d
00000370: 6861 bc3c 8e81 80bd 5c10 713d d562 0bbd
00000380: 0a41 d23d 2018 c93d 0174 773c a83d ce3d
00000390: 0154 d9bd 291f 9d3d 70d9 82bd c5b0 ea3d
000003a0: 50d5 ef3d 2eae 14bd 6006 a03d b564 edbd
000003b0: c163 513d 92fd 91bd 02a8 153d e263 22bd
000003c0: 04a7 3fbd bb02 193c 3c46 883d 6c31 0abd
000003d0: be94 9f3d bf1e 1a3d 5331 2dbd 89e4 fe3d
000003e0: 9c74 da3c 38d0 5d3c 65cf a6bc 303b acbd
000003f0: 11d7 90bd 1c14 a1bc f0cf d6bb e1a4 813d
0.040571705 0.02742596 -0.018850207 0.10107523 -0.10573003 -0.013392448 0.07671338 -0.10562727
0.021972954 0.06125152 0.09530485 0.043990567 -0.12017007 0.06593749 0.06494817 0.108693734
0.05940175 0.08788423 0.08027415 0.11647825 -0.080161765 0.036757767 0.05550617 0.02475825
0.09932931 0.061595485 -0.090245634 -0.07653707 0.03137225 0.0058422536 0.117910504 0.00898391
0.009204626 -0.06556484 -0.029993087 -0.06764011 0.04503396 0.003733188 -0.06312719 0.08215618
-0.07845059 0.042846903 0.072904855 -0.057080105 0.021858945 -0.06895158 0.0038214773 -0.12409876
-0.042393833 0.06690188 0.051172197 -0.11879744 -0.002907738 -0.114680424 0.029519677 -0.084680066
-0.0009261519 -0.06425919 0.09944348 0.10555902 0.086952865 0.045215026 0.0039942116 -0.022810563
-0.10597713 0.024988875 -0.096339434 0.03284216 0.09875323 -0.026005223 0.093186155 -0.10330166
-0.019965187 0.040775135 -0.033715457 -0.110890344 -0.1197664 0.060797125 0.055967435 0.0823814
0.0356721 0.09806372 0.11568862 0.028617412 0.08694528 0.08440034 -0.10730915 0.09712197
-0.0036694258 0.056841493 0.11739437 0.09081641 -0.04343973 0.09384522 -0.005372554 0.0488912
0.009773329 0.012358889 0.025341228 -0.04721473 -0.104985505 -0.12343313 0.019967377 -0.003962323
0.06689148 -0.09078461 -0.037575528 0.03635235 -0.10783845 0.007908881 -0.102972046 -0.054406643
-0.11258778 0.010865673 -0.036221802 -0.10853492 0.0853647 -0.06064865 0.105089396 -0.042323574
-0.06609693 -0.07995182 0.039314598 -0.09139806 -0.030599818 0.04032141 0.12182978 -0.0325114
-0.03669872 0.035687804 -0.07339935 -0.0101646185 -0.044989552 0.080046326 0.05073807 0.075105384
0.13684846 0.1012311 0.089204945 -0.02887288 -0.060213216 0.069281295 -0.0014833048 0.07179292
0.06834525 0.13735929 0.11208586 0.121645816 -0.022929564 0.12329862 0.119363315 -0.012023886
0.032119796 -0.04406231 -0.008700484 -0.0851461 0.012541334 -0.027632263 0.08596621 0.0006305124
-0.09618492 -0.06679623 -0.104463376 0.11117183 0.09572167 0.12370311 0.012742482 0.08255597
-0.0014159917 -0.078515686 0.0024370293 0.006742024 0.12801982 0.123528115 -0.068445265 0.059003614
-0.12329842 0.005700778 0.122620985 -0.112859316 -0.054018173 -0.023638211 -0.08720304 0.00786368
-0.0644023 0.045785584 0.007959104 0.048101746 0.117626436 0.12325819 -0.017680436 -0.07836556
0.03310788 -0.05100058 0.0041634752 -0.020116048 0.0048139924 0.13225673 -0.017570578 -0.10685494
-0.03560914 -0.038191345 0.02928894 -0.0059450334 0.13285455 -0.063037865 -0.0225501 0.01301918
-0.017433181 0.10991606 0.12633145 0.04009237 0.012764417 -0.0555387 0.081126995 0.04390992
-0.012502694 0.13928066 0.0480865 0.064177565 0.022995666 -0.062747106 0.058853492 -0.0340298
0.102663115 0.098190546 0.015103341 0.10070354 -0.106117256 0.07671959 -0.06389129 0.11459497
0.11710608 -0.036298923 0.07813716 -0.11591474 0.051120523 -0.07128443 0.036537178 -0.039646037
-0.046790138 0.00933903 0.06654021 -0.03373854 0.07792042 0.037626978 -0.042283367 0.12445933
0.026666932 0.013538413 -0.020362565 -0.084097266 -0.07072271 -0.01966291 -0.00655555 0.06330276

fc1.bias f4 [32]
00000000: fc9b adbd 80d1 213c b07e 0fbd a6fb 133d
00000010: 04ee e1bd 6048 05bd 97c5 173d 86ab c4bd
00000020: 141c 833d 1953 09be a0f9 323d 0f7a a5bd
00000030: 7c7a 983d 40d7 f73d f6b7 893d 228a a2bd
00000040: a044 b43d 1c22 073d 14cd acbd 1421 d1bd
00000050: b083 36bd e52b 663c 6315 1bbc 9c0b 1ebd
00000060: bfd7 263d 1e91 8b3d 871a fd3d 3d46 51bd
00000070: d14b e0bd fa79 47bd acf2 68bd f1c7 06be
-0.08477017 0.009876609 -0.035032928 0.036128663 -0.11031726 -0.032539725 0.03705367 -0.09603028
0.0640184 -0.13410605 0.043695092 -0.080799215 0.07445237 0.121016026 0.06724541 -0.07936503
0.08802152 0.032991514 -0.08437553 -0.10211387 -0.04455918 0.014048551 -0.009465548 -0.03858529
0.040733095 0.06814788 0.12358575 -0.051092375 -0.10951961 -0.04870031 -0.056872055 -0.13162209

fc2.weight f4 [1, 32]
00000000: 1f3c b43d c5e0 c83d 4706 f93d a8d0 dd3d
00000010: 0264 42bd af96 5e3d 9d63 0cbe f511 df3d
00000020: baf6 d4bc 6494 06be d941 313e 289d 9fbd
00000030: a063 1e3e 7ca6 b4bd 1821 18be e013 073e
00000040: 1b71 e23c fd1f 9d3d e179 a03d 5f81 19be
00000050: 409e 053e 6069 c4bd 6763 25be a81c d33d
00000060: b01b 2bbd 0ee0 95bd 8361 bf3d c395 323e
00000070: 856e 183e 4ab1 eabc b4c2 f3bc 94a1 ffbd
0.0880053 0.098084964 0.121594004 0.10830814 -0.047458656 0.05434292 -0.13709874 0.10892097
-0.025996555 -0.13142544 0.17310275 -0.07793647 0.15467691 -0.08820817 -0.14856374 0.13191175
0.027641824 0.07672117 0.078357466 -0.14990757 0.13048649 -0.09590411 -0.161512 0.103082
-0.04177445 -0.07318126 0.09344771 0.17439942 0.1488591 -0.028648991 -0.029755928 -0.124819905
