output/out_models/dqn_models/basic/add_288.pth (torch, 9887 bytes, 3 tensors)

fc1.weight f4 [32, 64]
000000 18 c6 29 bd 34 3c 35 3d a1 90 0b 3e 3a 78 b3 3c
       -0.041448683 0.044246867 0.1362939 0.021907914
000010 8c f2 a8 bc 9a 2e 0c 3e da 70 88 3b 4e 92 b9 3d
       -0.020623468 0.13689652 0.0041638436 0.090611085
000020 1d dd c0 3d a7 ee 2c 3d bd 3e 09 3e f4 ab 9a 3d
       0.09417174 0.042219784 0.13402839 0.07552329
000030 62 4b ac 3d ba b2 cb ba 69 dd 5a bc b4 6b 13 3d
       0.08412816 -0.0015540936 -0.013358452 0.035991386
000040 40 db 98 3d 66 02 23 bc 74 86 77 3c 8d 1b 3d bd
       0.074636936 -0.009949302 0.01510774 -0.046168853
000050 68 cf 85 bb 6e ef d2 bd 8a 5b 65 3d 0c be 48 bc
       -0.0040835626 -0.10299574 0.0559955 -0.012252342
000060 1c ee 6b bd a5 c0 0d 3d 3c 88 93 bc 1e 31 f7 3d
       -0.057600126 0.03460755 -0.018009298 0.12069915
000070 c8 2c d8 bd dd 58 57 3d 21 4f 53 3d 80 11 d8 3d
       -0.10555416 0.05257498 0.051589135 0.10550213
000080 5c 9b 47 bd f9 8f c1 bd ed 78 f1 bc 16 3d 01 3e
       -0.048732147 -0.09451289 -0.029476607 0.12620959
000090 1a f5 ca 3c 2c ef e2 3d d9 67 fe bc e1 69 cd 3c
       0.024775077 0.11080775 -0.031055378 0.025074901
0000a0 d3 86 6c bd 96 81 4d 3d 11 48 95 bd 90 26 3b 3d
       -0.057745766 0.05017241 -0.07289136 0.045691073
0000b0 aa 9e 1f 3c c3 20 33 3b e3 b0 f4 3d 75 76 b0 3d
       0.009742418 0.002733276 0.11947801 0.08616344
0000c0 e0 a0 85 3d f5 ac b0 3c ec b6 dd 3c 9f 9b 87 3d
       0.06524825 0.021566847 0.027064763 0.06621479
0000d0 32 53 8a 39 de 22 c5 bd 62 98 db bd ea c0 e5 3d
       0.00026383396 -0.09625791 -0.10722424 0.11218436
0000e0 3d 34 ca bd e5 14 82 3c 66 97 96 3d 5d 06 f5 bd
       -0.09873245 0.015879104 0.07353096 -0.11964104
0000f0 20 1c c2 3b 65 f8 8f bd 2f 8a ad 3c 63 79 a1 bc
       0.005923763 -0.07029799 0.021184055 -0.019711202
000100 ec cc e1 3d bc 55 0d 3d 3d 91 d4 3d 6a db ba 3d
       0.11025414 0.03450559 0.103792645 0.09123881
000110 23 ce 79 bd c0 ca 9c 3d c8 4f b9 3d 00 69 c2 3d
       -0.060987603 0.07655859 0.0904842 0.094926834
000120 05 15 a5 bd 1d f2 46 bd ea 6c ec 3b be ea 68 3d
       -0.0806065 -0.04857074 0.007215132 0.056864493
000130 22 0a 05 be b9 e0 e9 3d da 40 16 bd db 6c 4c 3d
       -0.12992147 0.114198156 -0.03668294 0.0499085
000140 44 96 45 3d 23 9d ce bd 35 c5 9b bd 7e 5c 04 3d
       0.048239008 -0.10088565 -0.07605974 0.03231477
000150 5b 9f dc bc 5e af e2 3d db e2 04 be 55 bc 9b 3d
       -0.026931455 0.11068605 -0.12977163 0.07604281
000160 2f 70 f9 bd 3f 72 d3 3d 23 33 01 ba d5 e4 03 bd
       -0.121796004 0.10324525 -0.00049285794 -0.032200653
000170 6a 93 9b bc a5 a9 b0 3d 45 20 28 3c f0 b3 3a 3d
       -0.018991191 0.08626107 0.0102616 0.045581758
000180 c1 ad c5 3d c2 ae 64 3d d6 b3 96 bd a9 71 9d bb
       0.096522816 0.055830725 -0.0735852 -0.004804809
000190 09 d4 b3 bc b4 9f f6 3c 8d 7b 6d bd 8d 3d ec 3c
       -0.021951692 0.03010545 -0.057979155 0.028837943
0001a0 9c 20 44 3c 43 b4 da 3d 2c f8 ec bd 4a 39 a4 bd
       0.011970665 0.106789134 -0.115707725 -0.080187395
0001b0 29 ee 6f bc e8 d0 e4 bd e8 73 2a 3c 23 f7 b3 3c
       -0.014644184 -0.11172658 0.010403611 0.02196843
0001c0 7c 1f ca bd e8 da 52 bd 4b 7f e0 bc e6 09 da 3d
       -0.098692864 -0.051478297 -0.027404448 0.10646419
0001d0 c6 48 0c 3d b3 4f c3 3d 27 86 8c bd f9 e5 75 3c
       0.03424909 0.09536686 -0.06861525 0.015008443
0001e0 cf fb 98 3c cd 66 28 bc ee e5 9d bd f2 06 36 bc
       0.01867476 -0.010278416 -0.07709871 -0.011110054
0001f0 55 d8 5e 3d e5 75 06 be 28 ea 8c bd d3 80 07 bb
       0.05440553 -0.1313091 -0.06880599 -0.002067615
000200 24 34 2c 3d d4 af f5 bd ec 42 a0 3d 9e 46 ee bd
       0.042041913 -0.11996427 0.07825264 -0.11634563
000210 0e 19 93 bd ce 31 f8 bd e0 57 4e bd 6c d2 1e bd
       -0.07182513 -0.121188745 -0.050376773 -0.038774893
000220 e8 0c b5 3d 1e df d9 bd 50 26 ec bc 3c ff 6e 3d
       0.08840352 -0.10638259 -0.028826863 0.05834888
000230 e0 8b 5c 3c 7e c1 96 3d 90 ec 0d 3c d0 c0 4f 3c
       0.013461083 0.073611245 0.008662358 0.012680247
000240 68 02 85 bd a0 bb e3 bb 34 d9 97 bd 20 3b 9b bb
       -0.064945996 -0.006949857 -0.07414475 -0.004737273
000250 6e e1 91 3d 94 0d 07 3d e4 2b bc bd 20 6a 0d 3d
       0.071230754 0.032971933 -0.09188059 0.034525037
000260 80 d7 4c bb 98 b0 fb bc bc 8f 46 bd 20 de da 3c
       -0.0031256378 -0.030723855 -0.04847692 0.026717246
000270 44 71 99 3d e6 d2 f4 3d 14 33 a3 bd 90 7c 1d bc
       0.07492307 0.11954288 -0.07968727 -0.009612218
000280 a0 0b d4 3b 3c ea b3 bd 40 12 1f bd 98 b4 a7 bd
       0.0064711124 -0.08784911 -0.038835764 -0.081887424
000290 66 56 98 3d 08 0f 86 3c d8 77 d3 bd 1a 60 96 bd
       0.07438354 0.01636459 -0.10325593 -0.07342549
0002a0 b0 a8 d7 3c 68 19 f6 3c 0e 27 b3 3d 54 02 19 bd
       0.026325554 0.030041412 0.087476835 -0.037355736
0002b0 5c 08 00 3d 18 ac 75 bd 40 d0 20 bb 54 5b e0 3d
       0.031257972 -0.059978575 -0.002453819 0.109549195
0002c0 b0 ca b9 bd 80 63 25 bd 16 b5 f1 3d 7e bb d8 3d
       -0.09071863 -0.040378094 0.118021175 0.10582636
0002d0 fc 10 f4 bd c4 e9 83 bd c0 06 d3 bb 12 06 f9 3d
       -0.11917302 -0.06441072 -0.0064400136 0.12159361
0002e0 c0 3d dc bb d0 81 e1 3c 84 b6 63 3d a8 85 99 bd
       -0.0067212284 0.02752772 0.055593982 -0.07496196
0002f0 58 35 3f bd d8 55 a4 3c f0 c2 30 3c 10 0b 15 3d
       -0.046681732 0.020060465 0.010788664 0.036387503
000300 79 22 b2 3d a9 f3 9a bd 37 c8 9b bc 38 fe d8 3d
       0.086979814 -0.07566006 -0.019016368 0.105953634
000310 96 61 62 bd 63 63 29 3d 06 a8 e4 3c e6 d1 e1 bd
       -0.055268846 0.04135455 0.027912151 -0.11026363
000320 10 ee 10 3d 6c 10 c0 bc 2f 28 4c 3c cd 50 70 3d
       0.035383284 -0.02344533 0.012460752 0.058670808
000330 c1 5e a2 bd 72 77 c5 bc b7 22 dd 3d a5 08 e5 3b
       -0.07928229 -0.024104808 0.10797637 0.006989556
000340 5a db e3 3d 36 4e 2a 3d 09 51 b3 3d a0 42 73 3d
       0.11125822 0.041578494 0.087556906 0.05938971
000350 76 b6 8e bd 99 87 0c bd b1 9e ad bd 3f 64 4b bd
       -0.069683954 -0.034309004 -0.084775336 -0.04965615
000360 cc a2 bd 3d d9 f1 aa 3d a5 ab 97 bd dd 86 a8 bd
       0.09259567 0.0834691 -0.074057855 -0.08228848
000370 8b 3b 80 3d fe 54 1b bc 14 5d 9a 3c 12 f3 d2 3d
       0.06261357 -0.009480713 0.018843211 0.10300268
000380 44 5f fd bc c0 8e c7 3d 9f 50 f3 bb 05 3c 33 bd
       -0.030929215 0.09744024 -0.0074253823 -0.04375841
000390 d0 33 af bd 51 69 e2 bd 85 49 c6 3d a0 dd 8c bd
       -0.08554804 -0.11055244 0.096819915 -0.06878209
0003a0 41 aa b0 bd 49 97 3e 3d e0 d7 df 3b a9 3e 48 bb
       -0.08626223 0.046530996 0.006831154 -0.0030554926
0003b0 9b ad 93 bd 64 ba ac 3d c4 ba cc 3d bb 3b f7 3d
       -0.07210847 0.08433989 0.0999656 0.120719396
0003c0 30 b0 a6 3c aa 16 8a bd 81 7c 67 bd 96 8c af 3d
       0.020347685 -0.06742604 -0.05651522 0.085717365
0003d0 53 fc b3 bd 81 c8 af 3d 67 a8 cd 3d 90 8c b8 bd
       -0.087883614 0.08583165 0.10041886 -0.09011185
0003e0 20 5c 92 3d ce 04 7b 3d 94 ea f9 3d 17 a6 83 3c
       0.07146478 0.06128388 0.12202945 0.016070409
0003f0 1a 15 82 3d a7 65 c8 bd ce 04 9d bc 16 54 16 3d
       0.06351681 -0.09785014 -0.01916733 0.036701284

fc1.bias f4 [32]
000000 69 27 f2 bc 85 ae d3 bd 00 e2 e2 b9 78 6e cf bd
       -0.029559808 -0.10336021 -0.00043274462 -0.10128492
000010 7d 10 0e 3e 22 36 a5 3d 40 ca 7b bd 5c e2 69 3d
       0.13873477 0.08066966 -0.061472178 0.05710064
000020 c0 70 d9 3b db 05 bb bd 44 c0 41 3d 31 8e c9 bd
       0.0066357553 -0.09131976 0.0473025 -0.09841574
000030 e2 2d 84 bd 18 5b fa bd 74 30 ff bd 0b e8 9a 3d
       -0.06454064 -0.12224406 -0.124604136 0.0756379
000040 bc 13 53 bd f0 5b 42 3c ba 9a f4 bd 90 6c 22 bd
       -0.051532492 0.01186274 -0.11943574 -0.039654315
000050 80 ec 2d bd b4 33 a9 3d 75 69 db bb 38 d7 67 3d
       -0.042461872 0.08261815 -0.006695921 0.056601733
000060 0e 4d b7 bd 47 60 76 3d a4 56 d7 3d 18 48 47 3c
       -0.08950244 0.06015041 0.10514572 0.012163185
000070 fb 2c 13 3d cc bc 3e bd 40 d5 f5 bd 66 bb 80 bd
       0.03593157 -0.04656677 -0.12003565 -0.062857434

fc2.weight f4 [1, 32]
000000 59 55 ff 3d b6 87 60 bd 74 f5 0d be 4c 57 4d bc
       0.12467451 -0.054816924 -0.13863164 -0.01253302
000010 57 e2 81 3d 45 c0 c7 bd ce 94 39 3d 81 13 68 bd
       0.06341999 -0.097534694 0.045307927 -0.056659225
000020 67 99 05 be 0b 81 11 3e f6 91 03 3e e6 22 d1 3d
       -0.130468 0.14209382 0.12848648 0.102117345
000030 e6 d2 b4 3d 97 fb ac 3d 40 04 25 be db a5 40 3d
       0.08829288 0.084464245 -0.16114902 0.047033172
000040 bd 66 9c bd a2 cc 8a 3d 9a d0 97 bd d4 a6 03 3e
       -0.07636783 0.06777312 -0.074128345 0.12856609
000050 65 6e 30 3e b6 6b f4 bd 3b 2c db 3d d6 98 a8 bd
       0.17229612 -0.11934607 0.10701796 -0.08232276
000060 a0 62 88 3d 1a e9 fe bd 0d c5 93 bd 83 d2 19 3e
       0.06659436 -0.12446804 -0.07215319 0.1502171
000070 b5 ad 2c 3d 23 96 21 be 69 17 43 bd 84 f6 5b bd
       0.042157847 -0.15779929 -0.047629748 -0.053701892
