output/out_models/dqn_models/basic/add_131.pth (torch, 9887 bytes, 3 tensors)

fc1.weight f4 [32, 64]
-0.008845194 0.047021404 0.1317373 0.107064344 0.03223656 0.14154041 0.026171891 0.105297185
0.11715965 -0.027565112 0.110847466 0.0045980983 0.14094344 -0.03467135 0.0691005 -0.10572024
-0.031227022 -0.08156147 -0.012557272 0.07937783 -0.084327266 -0.0062324177 -0.06468403 0.047748633
-0.028081177 0.04427958 -0.03030044 0.06762763 -0.00082790054 -0.03403463 0.001996932 0.023546154
0.059751753 0.1065053 0.0941335 0.07428464 -0.020853175 -0.10996116 -0.013465995 0.027283596
-0.10392922 -0.08218983 -0.06302437 0.035913367 -0.0050327196 0.07669142 0.13216643 0.06663952
-0.03418073 0.020093499 -0.05684079 -0.08124161 0.08376436 0.121838786 -0.024686929 0.122110814
0.04804312 0.09624574 -0.10647287 0.10751848 0.0030430045 0.11427367 0.111754864 0.05237591
0.11671537 -0.084680185 -0.124017 0.044415504 0.107620224 0.042866603 0.00936535 -0.098762974
-0.003508836 -0.11453059 -0.009836093 0.034028813 0.108427525 -0.012532979 0.117161125 0.042089567
0.058073238 -0.07047199 0.019041583 0.011368692 -0.11670318 0.0006120503 -0.040741876 0.08148454
-0.0769227 0.108317 0.06097445 0.09744257 0.011200935 0.062484056 -0.034697697 -0.032852203
-0.023354322 -0.09446296 0.017026544 -0.02312252 -0.0919406 -0.121264726 0.0318349 -0.0718794
-0.023502588 -0.06651828 0.052446246 0.01858446 -0.117967844 -0.114516556 0.08277896 0.0060867667
0.015715823 0.064315066 0.08281854 0.08378866 -0.09215732 -0.022943497 -0.028191447 -0.020137861
0.061435506 -0.026029155 -0.012132049 -0.094419405 0.07034825 -0.112218365 -0.10710372 0.026151597
0.014425144 -0.0481347 0.011565417 0.07886578 0.088425964 -0.080106005 -0.09883396 0.04350026
0.07863824 0.049202383 0.04877743 -0.010340437 0.06970441 -0.0374164 -0.037714586 0.023831248
-0.0160162 -0.1023916 0.095225975 -0.062019095 0.08612651 -0.07038835 -0.086559504 -0.116909415
0.10236584 0.026307136 0.11177191 0.024670273 -0.062229797 -0.07475649 -0.10825248 -0.0052976757
-0.019493923 0.07062809 -0.08081335 -0.061539114 -0.0242199 0.108539045 -0.0030392855 -0.036027
-0.016553596 -0.064688146 0.104820535 -0.041650936 -0.0806503 0.06585547 0.111462384 0.08954464
-0.057996944 0.07028587 -0.051327452 -0.018160969 -0.026875913 -0.11570799 -0.08536884 0.051087752
0.044821262 0.09519312 0.009473398 -0.11260226 -0.009443611 -0.0642619 -0.014330283 0.018461019
-0.027221456 -0.12312597 -0.030489072 0.11773008 -0.0725591 0.11889644 0.11289321 0.08803843
-0.083273426 -0.0043133646 0.08069624 -0.09670751 -0.09226839 -0.025467783 0.09002343 -0.10579564
0.116901174 0.03641294 0.07271168 0.043730855 -0.109529614 0.03980446 -0.03620085 -0.10583219
0.036254272 0.027866319 -0.003996104 0.075202286 -0.119605616 -0.03275174 0.10224822 -0.064963326
0.09249717 -0.051960662 -0.09742968 -0.09194295 -0.10019322 0.045853302 -0.0005941391 0.035255015
0.045899764 0.03897226 -0.04816918 0.077275634 -0.09263557 0.052146524 -0.019792557 -0.11732569
0.114841595 -0.01861839 -0.097995535 0.014045358 -0.05228193 0.085053876 -0.049593836 -0.12129249
-0.056379974 -0.068401694 0.008038625 0.033432752 0.04096873 0.081742436 0.02489841 0.03331396
00000000: 6feb 10bc 8499 403d 25e6 063e 8d44 db3d
00000010: 7c0a 043d f8ef 103e 6f66 d63c 0da6 d73d
00000020: 66f1 ef3d 3bd0 e1bc ff03 e33d a5ab 963b
00000030: 7a53 103e 8c03 0ebd 9084 8d3d da83 d8bd
00000040: d0cf ffbc b309 a7bd 04bd 4dbc d890 a23d
00000050: c6b3 acbd 4f39 ccbb 1079 84bd 1294 433d
00000060: 7f0a e6bc 815e 353d a138 f8bc 5b80 8a3d
00000070: 7707 59ba e567 0bbd f6de 023b dde3 c03c
00000080: 41be 743d 731f da3d 10c9 c03d 8c22 983d
00000090: 47d4 aabc 5133 e1bd 7aa0 5cbc d981 df3c
000000a0: d8d8 d4bd 2453 a8bd ec12 81bd e519 133d
000000b0: 83e9 a4bb 6410 9d3d a356 073e 4d7a 883d
000000c0: 1801 0cbd 1f9b a43c e3d1 68bd 0062 a6bd
000000d0: a68c ab3d 9d86 f93d 3e3c cabc 3c15 fa3d
000000e0: ddc8 443d 7d1c c53d 730e dabd a632 dc3d
000000f0: 256d 473b 5008 ea3d bcdf e43d 1f88 563d
00000100: 7808 ef3d ce6c adbd a0fc fdbd 08ed 353d
00000110: fe67 dc3d e494 2f3d 2071 193c 3e44 cabd
00000120: 80f4 65bb 048f eabd 9027 21bc cc61 0b3d
00000130: 400f de3d 2057 4dbc 2cf2 ef3d 1c66 2c3d
00000140: 34de 6d3d 9e53 90bd 18fd 9b3c c043 3a3c
00000150: 1402 efbd 0072 203a f4e0 26bd 5ee1 a63d
00000160: a689 9dbd 4ed5 dd3d 58c0 793d f88f c73d
00000170: 2084 373c 48ef 7f3d 2c1f 0ebd 0890 06bd
00000180: 9051 bfbc cc75 c1bd 407b 8b3c 706b bdbc
00000190: 5a4b bcbd a459 f8bd 5065 023d 8235 93bd
000001a0: 8088 c0bc bc3a 88bd e0d1 563d 703e 983c
000001b0: 2099 f1bd a887 eabd 0488 a93d 8073 c73b
000001c0: 78be 803c 9eb7 833d c49c a93d 6499 ab3d
000001d0: fabc bcbd 00f4 bbbc c0f1 e6bc 28f8 a4bc
000001e0: cca3 7b3d 183b d5bc 80c5 46bc f65e c1bd
000001f0: be12 903d bed2 e5bd 3259 dbbd e03b d63c
00000200: 7057 6c3c e428 45bd e07c 3d3c 6284 a13d
00000210: ac18 b53d 9e0e a4bd 7669 cabd 542d 323d
00000220: 160d a13d 7088 493d d8ca 473d f06a 29bc
00000230: 30c1 8e3d f041 19bd 9c7a 1abd c039 c33c
00000240: 6834 83bc b0b2 d1bd d605 c33d bc07 7ebd
00000250: 1863 b03d c427 90bd 1c46 b1bd 346e efbd
00000260: 2ea5 d13d 1082 d73c ace8 e43d 5019 ca3c
00000270: ace4 7ebd ee19 99bd 7ab3 ddbd 2098 adbb
00000280: b8b1 9fbc 76a5 903d 7881 a5bd 7010 7cbd
00000290: d068 c6bc b849 de3d c02e 47bb 0c91 13bd
000002a0: 689b 87bc 387b 84bd 26ac d63d 2c9a 2abd
000002b0: fc2b a5bd 3cdf 863d 6446 e43d 2e63 b73d
000002c0: 348e 6dbd 0af2 8f3d bc3c 52bd 50c6 94bc
000002d0: e02a dcbc 50f8 ecbd dcd5 aebd 6441 513d
000002e0: 8096 373d 9cf4 c23d 5036 1b3c 049c e6bd
000002f0: 60b9 1abc be9b 83bd 90c9 6abc 903b 973c
00000300: 88ff debc 7829 fcbd 38c4 f9bc 781c f13d
00000310: de99 94bd fa7f f33d 8e34 e73d 7e4d b43d
00000320: 428b aabd 2057 8dbb 1244 a53d 960e c6bd
00000330: 36f7 bcbd d0a1 d0bc 345e b83d 62ab d8bd
00000340: e269 ef3d bc25 153d dce9 943d 201f 333d
00000350: 1051 e0bd 000a 233d 5847 14bd 8cbe d8bd
00000360: 5c7f 143d e847 e43c c0f1 82bb a803 9a3d
00000370: caf3 f4bd b026 06bd 8467 d13d 7e0b 85bd
00000380: 286f bd3d b4d4 54bd 3689 c7bd 964c bcbd
00000390: 1a32 cdbd acd0 3b3d 00c0 1bba 9067 103d
000003a0: 6401 3c3d 60a1 1f3d 0c4d 45bd b042 9e3d
000003b0: b8b7 bdbd 9897 553d 0024 a2bc 7448 f0bd
000003c0: 1232 eb3d 9885 98bc e2b1 c8bd 801e 663c
000003d0: 9425 56bd ba30 ae3d e822 4bbd 3268 f8bd
000003e0: b0ee 66bd 3016 8cbd 70b4 033c c8f0 083d
000003f0: d4ce 273d 9468 a73d c0f7 cb3c 3874 083d

fc1.bias f4 [32]
0.04437597 -0.08987199 0.10728729 0.053105235 -0.12710366 -0.07328415 0.0025019944 -0.10920201
-0.028832229 0.0652021 0.10439506 0.008157417 -0.072323285 -0.12021377 0.08782364 0.0013989136
-0.054633595 0.066806346 0.07860082 -0.017041896 -0.039917894 0.0073951334 0.07380769 -0.072284326
0.03608118 -0.03254376 -0.10043956 -0.013320059 0.13785753 -0.09541119 -0.08889457 0.07353596
00000000: 94c3 353d ce0e b8bd 70b9 db3d e084 593d
00000010: 7627 02be 0016 96bd 80f8 233b 4ea5 dfbd
00000020: 9131 ecbc ae88 853d 14cd d53d b0a6 053c
00000030: 3b1e 94bd a332 f6bd e1dc b33d c05b b73a
00000040: 7ac7 5fbd c4d1 883d 77f9 a03d 729b 8bbc
00000050: f280 23bd e052 f23b 7c28 973d ce09 94bd
00000060: dcc9 133d 9b4c 05bd 42b3 cdbd 603c 5abc
00000070: 862a 0d3e f166 c3bd 5b0e b6bd 059a 963d

fc2.weight f4 [1, 32]
-0.06840635 0.022198133 0.076418094 0.009487319 0.110374995 -0.014154155 -0.1519478 -0.10780721
0.0077295816 0.04619519 0.055072498 -0.07212917 -0.15331115 0.14311285 0.031088727 -0.13530636
-0.09105552 -0.09031063 -0.09919727 0.1375348 -0.16268472 0.14652278 0.10176203 -0.11191202
-0.15232539 -0.16626278 -0.086335436 -0.1465572 -0.10506976 0.09222174 0.032895405 -0.06585922
00000000: a118 8cbd dcd8 b53c 1781 9c3d b370 1b3c
00000010: 490c e23d d4e6 67bc 3498 1bbe 07ca dcbd
00000020: 6e48 fd3b 2b37 3d3d b393 613d 75b8 93bd
00000030: 99fd 1cbe 2d8c 123e c9ad fe3c c08d 0abe
00000040: 517b babd c8f4 b8bd f027 cbbd ecd5 0c3e
00000050: d396 26be 110a 163e 9c68 d03d 2132 e5bd
00000060: 30fb 1bbe ca40 2abe a2d0 b0bd 1713 16be
00000070: d02e d7bd c0de bc3d 55bd 063d 33e1 86bd
