output/out_models/dqn_models/basic/add_132.pth (torch, 9887 bytes, 3 tensors)

fc1.weight f4 [32, 64]
0.081323385 -0.09704797 -0.02675794 -0.052881554 -0.04014191 -0.07113302 -0.04414375 0.045052603
0.117132485 0.074135974 0.06471343 0.10218559 -0.092867285 -0.009618148 -0.052311376 0.00845252
0.0722902 0.033515006 0.06958148 -0.12045118 0.086076275 -0.11201833 0.055569798 -0.029338881
-0.013936862 0.08032571 -0.077010304 0.020036384 0.11176063 0.026149094 0.10674514 -0.01238516
-0.10579646 -0.036574364 0.036940336 -0.08684516 -0.040311247 0.09544414 -0.07794036 0.08274835
0.000511691 0.12017408 -0.09113142 -0.08847527 -0.05942279 0.052510157 -0.11422564 -0.04123865
0.025935814 0.10527091 -0.052578673 -0.0827446 -0.037306026 0.023259744 0.074464545 -0.06614743
-0.03047894 -0.048046008 -0.026295543 0.10198349 0.109386444 -0.03630148 -0.08609675 -0.025556505
0.080229715 -0.0232589 0.08658375 -0.098761536 -0.099146895 0.10384671 -0.08669014 0.10454859
-0.114014275 -0.02961928 0.028157417 -0.078797705 0.0026080813 0.10725073 0.032979734 -0.02028489
0.034778103 -0.08791945 -0.07487666 -0.12764704 0.055298846 -0.083811335 0.016106619 -0.018146425
0.101887785 -0.05237538 0.03013752 0.09843658 -0.02647893 0.09709224 -0.09684138 -0.08372247
-0.019420272 -0.07121886 0.016111935 -0.09048123 0.09800041 0.052934144 -0.12216459 0.08812724
-0.036729116 -0.044460047 0.03961499 0.081832886 -0.06128009 0.03646297 -0.023924869 0.094543
0.11257854 0.035756677 0.10512005 0.078016125 0.017073002 0.07625469 -0.041445028 -0.10413075
0.06602166 0.03268204 -0.0992844 0.0278939 -0.12487175 0.02677499 0.045417223 -0.036793984
-0.06126915 -0.11618602 0.109642714 -0.11960772 0.11906996 0.009363905 -0.06623654 0.09836717
-0.03011769 -0.03165807 0.108800754 0.103018686 0.033222288 0.042554826 -0.036175087 0.117883325
0.11130154 0.01176095 0.007875189 0.10263194 -0.07561481 -0.11802846 -0.07535431 0.108463705
-0.07866521 -0.09158689 -0.0562564 0.08759369 -0.08706045 -0.09802401 0.11648178 -0.03179267
-0.04206218 0.06452437 -0.033892974 0.08016321 0.015372559 -0.068035826 -0.06837501 -0.060174808
0.03074184 -0.0128542185 -0.07495105 0.09985861 -0.064977795 -0.1090655 -0.09195691 0.08687049
-0.014117792 0.08324088 -0.034822956 -0.08931787 0.022393122 -0.051472634 0.10018486 -0.07683122
0.03366843 0.03381014 0.023414612 -0.048851028 -0.021811336 -0.04873967 -0.115186915 -0.11083649
0.097701326 0.0015045404 0.10626428 0.038309306 0.110323355 0.048239917 -0.098291054 0.022050276
0.05625853 -0.04993181 -0.063603476 -0.07871537 0.0059168935 -0.12028897 -0.007568553 -0.06372529
0.089531735 -0.08153671 -0.04328008 0.003980249 0.029750273 0.10215199 0.07903187 0.0013755858
0.020434693 0.117468685 -0.0767896 0.08042516 0.014118969 -0.05667521 0.04238756 -0.091867164
0.024049059 -0.08237544 0.074367 0.037262425 -0.09796551 -0.10253021 0.08574432 -0.01290524
0.04048209 0.03276679 0.08663751 -0.08589594 0.00977093 0.074479714 0.008447021 0.00094614923
0.081894875 0.023664787 -0.01765123 -0.0880952 0.064301014 0.015681729 0.08402988 -0.07421084
-0.059816018 -0.035255805 -0.0903413 -0.09383394 -0.10224655 0.06739803 0.042593017 0.06661789
00000000: e08c a63d 16c1 c6bd 7833 dbbc 549a 58bd
00000010: d86b 24bd 30ae 91bd 14d0 34bd 1489 383d
00000020: 28e3 ef3d 9ad4 973d 7a88 843d ae46 d13d
00000030: 3431 bebd 7095 1dbc 7444 56bd 707c 0a3c
00000040: e20c 943d 0847 093d bc80 8e3d 1caf f6bd
00000050: c248 b03d de69 e5bd 289d 633d 1858 f0bc
00000060: 7057 64bc ce81 a43d 94b7 9dbd 5823 a43c
00000070: c2e2 e43d a036 d63c 329d da3d 20eb 4abc
00000080: d0ab d8bd 00cf 15bd c04e 173d e0db b1bd
00000090: 681d 25bd 3878 c33d 329f 9fbd f877 a93d
000000a0: 0023 063a d41d f63d 1ca3 babd 8632 b5bd
000000b0: 5065 73bd e414 573d 22ef e9bd dce9 28bd
000000c0: 5877 d43c 4698 d73d bc5c 57bd 0076 a9bd
000000d0: 34ce 18bd 388b be3c de80 983d 4e78 87bd
000000e0: f8ae f9bc e4cb 44bd c069 d7bc b8dc d03d
000000f0: 0006 e03d dcb0 14bd 7e53 b0bd e05b d1bc
00000100: 7a4f a43d 7389 bebc d252 b13d 7d43 cabd
00000110: 870d cbbd 95ad d43d 9a8a b1bd 921d d63d
00000120: 5180 e9bd 22a4 f2bc 62aa e63c b160 a1bd
00000130: 58ec 2a3b 45a6 db3d c215 073d 7f2c a6bc
00000140: 7c73 0e3d 1d0f b4bd ef58 99bd e8b5 02be
00000150: 0b81 623d 47a5 abbd 07f2 833c d0a7 94bc
00000160: 8baa d03d 9187 56bd f6e2 f63c 1e99 c93d
00000170: 57ea d8bc 4cd8 c63d c654 c6bd b076 abbd
00000180: 4317 9fbc 32db 91bd 2dfd 833c 394e b9bd
00000190: 70b4 c83d 79d1 583d 6e31 fabd 0e7c b43d
000001a0: 4571 16bd bd1b 36bd 5443 223d 0098 a73d
000001b0: d500 7bbd 325a 153d 16fe c3bc c39f c13d
000001c0: 948f e63d 9875 123d 2e49 d73d ebc6 9f3d
000001d0: aedc 8b3c 6b2b 9c3d 43c2 29bd 8142 d5bd
000001e0: 5d36 873d 9add 053d 9f55 cbbd c081 e43c
000001f0: c3bc ffbd 3957 db3c 6907 3a3d 4ab5 16bd
00000200: 5cf5 7abd f0f2 edbd 5c8c e03d e4f4 f4bd
00000210: f4da f33d 106b 193c 06a7 87bd ba74 c93d
00000220: 60b9 f6bc e4ab 01bd eed2 de3d 76fb d23d
00000230: 1814 083d f84d 2e3d 542c 14bd d06c f13d
00000240: 10f2 e33d 00b1 403c f006 013c b230 d23d
00000250: f0db 9abd e8b8 f1bd 5c53 9abd 3822 de3d
00000260: 3a1b a1bd e891 bbbd 1c6d 66bd 5264 b33d
00000270: c04c b2bd d0c0 c8bd 008e ee3d 0839 02bd
00000280: 6449 2cbd 5a25 843d 5cd3 0abd 9c2c a43d
00000290: 30dd 7b3c 5e56 8bbd 3208 8cbd dc79 76bd
000002a0: 50d6 fb3c 809a 52bc f07f 99bd ac82 cc3d
000002b0: 1413 85bd bc5d dfbd e853 bcbd 28e9 b13d
000002c0: 504e 67bc 327a aa3d 84a2 0ebd 4aec b6bd
000002d0: c871 b73c f8d4 52bd b82d cd3d b059 9dbd
000002e0: e8e7 093d 807c 0a3d 00d0 bf3c 0418 48bd
000002f0: b0ad b2bc 40a3 47bd 1ee7 ebbd 3efe e2bd
00000300: a217 c83d 0034 c53a 16a1 d93d 38ea 1c3d
00000310: 36f1 e13d 3897 453d d24c c9bd c8a2 b43c
00000320: 586f 663d 4c85 4cbd 8a42 82bd 8635 a1bd
00000330: 80e2 c13b 105a f6bd a001 f8bb 6882 82bd
00000340: 6a5c b73d b8fc a6bd 7446 31bd c06c 823b
00000350: d8b6 f33c 1035 d13d 76db a13d 004d b43a
00000360: a866 a73c 6c93 f03d de43 9dbd f2b5 a43d
00000370: 4053 673c 4424 68bd 949e 2d3d da24 bcbd
00000380: 8802 c53c 74b4 a8bd ba4d 983d 7ca0 183d
00000390: 24a2 c8bd 5cfb d1bd b89a af3d 8070 53bc
000003a0: 8cd0 253d 7836 063d 026f b13d 36ea afbd
000003b0: 4016 203c d288 983d 6065 0a3c 0007 783a
000003c0: 80b8 a73d a8dc c13c 5099 90bc 426b b4bd
000003d0: 40b0 833d f876 803c dc17 ac3d dafb 97bd
000003e0: a401 75bd 6468 10bd dc04 b9bd 022c c0bd
000003f0: a466 d1bd fa07 8a3d 0476 2e3d f66e 883d

fc1.bias f4 [32]
-0.008467853 -0.079751596 -0.060886502 0.020797223 0.029315442 0.08570778 0.05363012 0.014382304
-0.07270571 -0.083391264 0.0027626455 -0.110454604 -0.0051790923 -0.124234304 -0.104491904 -0.023662195
-0.049396172 -0.1293422 -0.037807077 -0.08895601 -0.064533666 0.006308713 -0.034325883 0.04023841
-0.08283529 -0.0045100003 0.09542116 0.04475661 0.1388724 0.04693538 -0.03165535 -0.08064685
00000000: c0bc 0abc ce54 a3bd 2064 79bd f05e aa3c
00000010: f026 f03c 9087 af3d 42ab 5b3d c1a3 6b3c
00000020: bbe6 94bd 0ac9 aabd 800d 353b 0636 e2bd
00000030: 60b5 a9bb 8e6e febd daff d5bd 38d7 c1bc
00000040: a453 4abd 4872 04be 98db 1abd 922e b6bd
00000050: 3a2a 84bd 52b9 ce3b 4c99 0cbd 08d1 243d
00000060: 8ca5 a9bd a0c8 93bb 2b6c c33d b552 373d
00000070: 9134 0e3e 503f 403d 0aa9 01bd 2d2a a5bd

fc2.weight f4 [1, 32]
-0.11296177 0.10125714 -0.017444728 -0.02662155 -0.03554667 -0.15116878 -0.14148845 -0.01711612
0.006985376 -0.10563123 0.12002889 0.1512167 0.114929415 -0.14726888 0.05411948 -0.052257624
0.036133893 0.08917034 0.15991338 -0.070976414 -0.062582634 -0.16264898 -0.11049001 -0.14972869
-0.047829106 0.02691521 -0.010290678 -0.03394101 -0.17523335 0.09068204 0.06522836 -0.013352609
00000000: 8058 e7bd e75f cf3d 3fe8 8ebc 7015 dabc
00000010: 6399 11bd fdcb 1abe 59e2 10be 1b37 8cbc
00000020: 95e5 e43b 3055 d8bd b5d1 f53d 8dd8 1a3e
00000030: 1d60 eb3d a7cd 16be 63ac 5d3d 170c 56bd
00000040: 2201 143d f09e b63d 55c0 233e 155c 91bd
00000050: 532b 80bd 748d 26be 9648 e2bd 7a52 19be
00000060: 74e8 43bd 497d dc3c 3b9a 28bc ba05 0bbd
00000070: 5f70 33be 81b7 b93d 7296 853d e7c4 5abc
