output/out_models/dqn_models/basic/dlt_61.pth (torch, 9887 bytes, 3 tensors)

fc1.weight f4 [32, 64]
000000 14 ee 28 3d fc 66 85 3d 20 08 72 bd 40 b3 35 bc
       0.041242674 0.06513783 -0.05908978 -0.0110901
000010 d6 5f e3 bd 00 78 89 b8 18 f3 d0 3c da 28 dc 3d
       -0.11102264 -6.555021e-05 0.025506541 0.10749979
000020 4c 98 01 bd 3e 9a f5 3d ac 4c 26 3d 66 49 c2 bd
       -0.031639382 0.1199231 0.040600464 -0.09486656
000030 a8 58 68 3d e8 ad cd bc 18 e0 4a bd 46 b5 ad bd
       0.056725174 -0.025107339 -0.04953012 -0.08481841
000040 04 91 14 3d 3c a6 e3 bd 80 fb cd 3c a0 d4 31 bd
       0.03627111 -0.11115691 0.025144339 -0.043415666
000050 38 e9 e2 bc c0 68 26 3d 26 2d b8 bd e8 36 b8 3c
       -0.027699098 0.04062724 -0.089929864 0.022487119
000060 84 e1 4b bd 06 cd eb 3d de f1 8c bd b0 35 35 3c
       -0.049775615 0.115137145 -0.0688207 0.011060163
000070 76 26 89 3d ea 8f aa bd b8 e7 de bc 0c 4d 56 3d
       0.06696789 -0.08328231 -0.027210101 0.05231957
000080 2a 6d 96 bd 30 58 49 3c e0 51 ec 3b a2 7f bb bd
       -0.0734504 0.012289092 0.0072119087 -0.091552034
000090 62 84 f7 bd c0 37 29 3c 48 f2 34 bd 84 a6 cc bd
       -0.12085797 0.010328233 -0.04417637 -0.09992698
0000a0 ce 91 89 bd 58 32 d9 bd 44 09 45 3d 20 43 70 bd
       -0.06717263 -0.106053054 0.04810454 -0.058657765
0000b0 86 e1 f5 3d b8 bf b1 bd c0 13 ba 3d ee ed d5 bd
       0.12005906 -0.086791456 0.09085798 -0.10445772
0000c0 dc 57 3e 3d 50 41 91 3c 6e 88 ee bd c4 b6 f5 3d
       0.046470508 0.017731339 -0.11647116 0.119977504
0000d0 34 f9 c2 bd 78 31 03 bd 62 ea e0 bd 30 69 d4 3d
       -0.09520188 -0.0320296 -0.10982205 0.103716254
0000e0 30 f8 1c bd c0 8c d5 bb c4 2c 63 bd c0 ba 3d 3c
       -0.038322628 -0.006517023 -0.055462614 0.011580169
0000f0 00 3c 5d bb aa 86 a0 3d 38 79 f6 bd 40 6a 05 bb
       -0.0033757687 0.07838185 -0.120348394 -0.002035752
000100 2e b9 c3 bd 78 8d ad 3c 60 65 30 bc 46 fe c1 3d
       -0.095568046 0.021185622 -0.010766357 0.09472327
000110 34 99 b2 bd 1e dd 99 3d f8 d6 5b bd 74 de 88 3d
       -0.087206274 0.07512878 -0.053671807 0.066830546
000120 a0 10 32 3d ac 4b 0a 3d e8 40 c5 bc 06 0c fb bd
       0.043472886 0.033763573 -0.024078801 -0.12258153
000130 f0 ef 1d 3d 38 21 e8 bc c0 30 77 3b 68 21 e3 3d
       0.0385589 -0.028336152 0.0037718266 0.11090356
000140 22 0c a5 3d 4e 41 cd 3d e0 1b f6 3d 00 90 5f 3a
       0.08058955 0.100222215 0.120170355 0.00085282326
000150 a2 82 bd 3d 68 7b 4c bd 08 51 ed 3c 66 f3 89 3d
       0.09253432 -0.049922377 0.028969303 0.06735878
000160 50 3d 0f 3d 38 0b 8d bc 2c b8 2f bd 60 7d 25 bd
       0.03497058 -0.017217264 -0.04290025 -0.04040277
000170 e0 18 f2 3c 14 79 58 3d e0 fa 6b bd 5a 0a 9d 3d
       0.029552877 0.052849844 -0.0576123 0.0766799
000180 ea b3 bb bd 28 23 49 3d 88 80 1e bd b6 af a2 bd
       -0.09165175 0.049105793 -0.038696796 -0.079436705
000190 d8 f8 ba 3d 36 8a d4 bd fc cb bc 3d 4a 77 b6 3d
       0.091294944 -0.10377924 0.092185944 0.08909471
0001a0 e6 a2 b9 3d 32 75 c7 bd 2e 4f ec bd 64 84 f8 bd
       0.090642735 -0.0973915 -0.1153854 -0.121346265
0001b0 e8 33 fb bd a6 e2 af 3d 98 03 77 3d c2 bb bc bd
       -0.1226576 0.08588152 0.06030616 -0.092154995
0001c0 ee 50 99 3d 58 f4 ef bd 4e 52 af 3d f0 f5 67 3d
       0.07486139 -0.11716527 0.0856062 0.05663103
0001d0 e0 dc 1a 3c 4a e9 b8 bd f6 39 ec 3d 64 08 a2 bd
       0.009452075 -0.09028871 0.11534493 -0.07911757
0001e0 be f2 e2 bd 68 c2 da 3c 98 31 4b bd 28 1e 62 bd
       -0.11081456 0.026704028 -0.049607843 -0.05520454
0001f0 56 f1 b3 3d c0 19 6f bd c4 2f 36 3d de f2 eb 3d
       0.087862656 -0.058374166 0.044479147 0.115209326
000200 d8 a8 81 bd e0 59 77 bd d0 67 16 bc 36 d7 c2 3d
       -0.063310325 -0.060388446 -0.009180024 0.095137045
000210 4e 71 ea 3d 08 23 d6 3d 90 f6 78 bd 6e 5f f8 3d
       0.114473924 0.104559004 -0.060782015 0.12127577
000220 5e 16 f0 bd e8 d9 c7 3c 26 76 f0 3d 30 b0 3d 3c
       -0.11723016 0.024395898 0.11741285 0.011577651
000230 30 d8 4f bd a8 06 80 bd 5e fe fc bd dc 99 48 3d
       -0.05074328 -0.062512696 -0.12353204 0.048974857
000240 c4 c5 69 bd 04 ad 7c 3d e6 3f d7 bd 40 e8 c1 3b
       -0.05707337 0.061688438 -0.105102345 0.005917579
000250 5a 53 ff bd 20 3b 1e bd 46 f9 bc 3d a0 b4 bd 3b
       -0.1246707 -0.038630605 0.09227233 0.0057893544
000260 f8 b8 fb 3c a0 b7 c0 3b dc 76 96 bd 50 9b cc bc
       0.030727848 0.005881265 -0.073468894 -0.024976403
000270 5a 85 9b 3d 14 0b 28 3d c0 b4 5f 3c d4 c6 e7 3d
       0.07593794 0.04102619 0.013653934 0.1131722
000280 0c fb 28 3d 18 68 30 bd 10 6d 41 bd 4c 6f ef bd
       0.041255042 -0.04306802 -0.04722315 -0.1169115
000290 84 82 e1 3d 42 a8 e5 bd 44 2c 9d bd 12 19 b0 3d
       0.11011222 -0.11213733 -0.076744586 0.08598532
0002a0 cc b5 84 bd b0 4a 1d 3d c0 28 3b bd 22 a9 c4 bd
       -0.064799875 0.038401306 -0.04569316 -0.09602572
0002b0 20 b4 98 bd b4 1a 49 3d 80 74 eb 3b c0 76 cd 3b
       -0.07456231 0.04909773 0.0071855187 0.0062702596
0002c0 f4 a9 70 3d 54 ec 93 bd 9c 28 31 3d 1c e9 da 3d
       0.05875583 -0.072228104 0.04325162 0.10688993
0002d0 58 2c 96 bc 44 a0 5a 3d 5c 00 65 bd 60 8a e1 3b
       -0.018331692 0.053375497 -0.055908546 0.0068829507
0002e0 34 09 61 3d b0 66 84 bd 58 8a a7 bc 70 8a c3 bd
       0.054940417 -0.064648986 -0.02045171 -0.09547889
0002f0 c0 b9 38 3d 12 9f b3 bd c4 47 00 3d 2c 30 ee 3d
       0.04509902 -0.08770575 0.03131844 0.11630282
000300 3a d8 88 3d 70 79 fe bd 62 92 ed 3d 6c aa a4 bd
       0.06681867 -0.12425506 0.11600186 -0.08040318
000310 50 19 2f 3d 78 2c f0 bc ce 06 eb bd f4 bf 22 3d
       0.04274875 -0.02931808 -0.11475907 0.039733842
000320 c8 b4 97 bc 24 f0 66 3d 7c da 02 bd 26 b6 db bd
       -0.01851882 0.05638136 -0.031946644 -0.107281014
000330 70 fc ac bd a2 70 eb 3d 7c a5 58 3d 50 5b 06 3d
       -0.08446586 0.114960924 0.052892193 0.032801926
000340 00 3c 9f bc d6 7b ba 3d a4 77 81 3d cc d9 1b bd
       -0.01943779 0.09105651 0.06321648 -0.038049504
000350 60 7a 09 3c 8c ba 89 3d 02 0c a6 3d 3a 77 ae bd
       0.008390993 0.06725034 0.08107759 -0.085188344
000360 14 1f bd 3d 60 f5 3a 3c 64 00 11 bd dc 60 d1 bd
       0.09234443 0.011411041 -0.035400763 -0.102235526
000370 90 00 93 3d d8 ce 85 3c b4 73 c5 3d a0 34 04 3d
       0.07177842 0.016333982 0.09641209 0.03227675
000380 2c 08 aa bd cc 6b b7 bd 48 6e 31 3d b2 3b ce bd
       -0.0830234 -0.089561075 0.043318063 -0.1006998
000390 00 e7 85 bb 54 a5 e5 bd 58 a0 c2 3d 60 df 99 3d
       -0.0040863752 -0.112131745 0.095032394 0.075133085
0003a0 14 13 9e bd d0 87 cc 3c ac a4 af 3d 98 a9 9e bc
       -0.077184826 0.024967104 0.085763305 -0.019367978
0003b0 00 b0 58 b9 9c 6d d5 bd 80 87 da bc c8 5b a8 3d
       -0.0002066493 -0.10421297 -0.02667594 0.08220631
0003c0 ae d8 e4 bd 6a 6b 9f 3d 38 3f d5 3d e0 f4 7e bc
       -0.11174141 0.077841595 0.10412449 -0.015561312
0003d0 00 77 26 3c 50 0d 05 bd 20 28 33 3d a0 7d 0e 3c
       0.010160208 -0.0324834 0.043739438 0.0086969435
0003e0 28 d2 86 3d 28 bd e3 bd 40 80 9b 3d 2c 0e 02 bd
       0.06583053 -0.11120063 0.07592821 -0.031751797
0003f0 24 ac 81 3d 3c 86 4a 3d 98 1d 8b bc f6 ed e7 3d
       0.06331661 0.049444422 -0.016981885 0.11324684

fc1.bias f4 [32]
000000 14 04 07 bd a0 52 7a 3d 60 ff 48 bc 52 f9 f8 3d
       -0.032962874 0.061113954 -0.012267917 0.12156929
000010 d4 be 90 3d 90 1c 58 bc 80 b4 4b bc 04 2d 09 3d
       0.070676476 -0.013190404 -0.012433171 0.033490196
000020 22 2d 8f bd b6 aa a8 3d 30 c0 39 3c 58 18 b8 3d
       -0.0699103 0.082356855 0.011337325 0.08989018
000030 50 59 08 3d a8 f3 b5 3d 88 1b 27 bd b0 31 68 bd
       0.0332883 0.08884364 -0.04079774 -0.05668801
000040 68 7c 9e bd 34 0b 4f bd 08 8d f0 bd d6 d8 ca 3d
       -0.07738572 -0.050547794 -0.117456496 0.099046394
000050 10 10 7f 3c 6a 85 ac bd 92 51 90 bd 28 b5 95 bd
       0.015567794 -0.08423884 -0.07046808 -0.073099434
000060 10 56 0f 3d e0 ba ec bb e4 16 b2 bd 50 db 11 bd
       0.034994185 -0.0072244257 -0.08695772 -0.035609543
000070 16 cb fb bd fc df 25 3d 50 53 3b 3d 04 e5 f7 3d
       -0.12294595 0.04049681 0.04573375 0.12104228

fc2.weight f4 [1, 32]
000000 34 a4 13 be 24 29 36 3d d5 5b f5 3d 14 de 1d 3e
       -0.14418107 0.04447283 0.11980406 0.15416747
000010 bf 57 18 3e e1 7b 2d be 82 63 b8 3d 53 b1 14 3d
       0.14877222 -0.16941787 0.090033546 0.036301922
000020 b6 61 87 bd 20 c2 24 bc 84 95 b8 3c 07 b0 30 3e
       -0.06610434 -0.010056049 0.022532232 0.17254649
000030 5e 49 0e bd bd ef ad bd cd cc 8c 3d 74 b4 f9 bd
       -0.034737937 -0.08492992 0.06875 -0.12192622
000040 ff 49 84 bd a9 9b 2e 3e 45 09 80 bc 00 3e 85 3d
       -0.06459426 0.17051567 -0.01562942 0.06505966
000050 f9 4b 41 3d 87 63 10 be 99 07 a9 3d 5a 1f fd 3d
       0.047191594 -0.14100467 0.08253402 0.123594955
000060 61 85 02 bd d8 25 69 3d 1b fe 10 3e d5 78 1b bd
       -0.03186548 0.056920856 0.14159434 -0.03795703
000070 34 ae 18 3e 79 9c 05 be 20 6f c2 bd e5 ff 33 3e
       0.14910203 -0.13047971 -0.09493852 0.17578085
