output/out_models/dqn_models/basic/dlt_71.pth (torch, 9887 bytes, 3 tensors)

fc1.weight f4 [32, 64]
000000 c0 55 8e 3d d4 3d bc bd cc a2 71 3d 70 f9 74 3d
       0.06949949 -0.0919148 0.058993146 0.059808195
000010 20 7d d7 bc c0 8b 24 bd b4 77 92 bd 94 d1 20 3d
       -0.026304781 -0.04017234 -0.07151738 0.03926237
000020 6c cc e2 3d 38 c0 91 bc 1e 18 8b 3d 48 d6 ba bc
       0.11074147 -0.017791852 0.06791709 -0.022807255
000030 8c e7 de 3d 60 96 c2 3c d6 a9 98 bd b0 48 b1 bc
       0.10884008 0.023753345 -0.07454269 -0.021641105
000040 a4 69 aa 3d 6a 41 f2 bd d4 52 ec bd 5c de eb bd
       0.083209306 -0.11828883 -0.11539236 -0.11517021
000050 98 2b cd bc aa 09 89 bd 80 11 8c bd 0c 69 71 3d
       -0.025045201 -0.066912964 -0.06839275 0.05893807
000060 da b5 d9 3d 00 78 14 3b 68 03 2f 3d fe 02 c2 bd
       0.106303886 0.0022654533 0.042727858 -0.09473227
000070 f0 6d 3f 3c 22 70 e6 bd 78 cd f9 bc 78 d7 a8 bd
       0.011683926 -0.112518564 -0.030493483 -0.082442224
000080 62 9e f9 3d 44 05 bd bd 00 30 85 b9 ea 74 c3 bd
       0.12188412 -0.0922952 -0.000254035 -0.09543784
000090 e0 5d 1a bd 80 83 78 bc 54 93 5c bd ac fd 1b bd
       -0.037687182 -0.015168071 -0.05385144 -0.038083717
0000a0 20 d2 29 bc 80 d4 9f bd fe 7b 94 bd 00 88 6e bb
       -0.010365039 -0.07804203 -0.07250212 -0.003639698
0000b0 70 41 4a bc 18 b5 ca 3d 20 3b 03 3d e0 a9 0f bc
       -0.012344703 0.09897822 0.032038808 -0.008768529
0000c0 ca 9b c0 3d 00 58 b6 bc ee 62 ec 3d 88 c8 eb bd
       0.094047144 -0.022258759 0.11542307 -0.11512858
0000d0 cc aa 74 3d da 40 dd 3d 04 2f 1e bd d0 8a 8e 3d
       0.059733197 0.10803385 -0.038619056 0.0696007
0000e0 1c 04 21 3d f2 af f5 3d c8 5f c9 3c 42 a7 d3 3d
       0.03931056 0.119964495 0.024581805 0.10334636
0000f0 00 ff 03 3b 70 e1 f4 bd 14 a9 77 bd 4a c2 8e bd
       0.0020141006 -0.11957061 -0.06046398 -0.069706514
000100 ea d0 cc 3d 26 dc a3 3d 68 aa 89 3c ec 2a 66 3d
       0.10000785 0.08000974 0.016804889 0.056193277
000110 c4 77 9e bd 54 6d 9e bd 82 a3 b8 bd d8 b1 ae bc
       -0.07737687 -0.077356964 -0.09015562 -0.021325037
000120 20 92 69 bc ae 59 90 bd 70 36 a0 bc c4 de be 3d
       -0.01425603 -0.07048355 -0.019557208 0.09319833
000130 d2 d6 83 3d e0 4e 3e 3c 36 c2 85 bd 5e d2 cc bd
       0.06437458 0.011615485 -0.065311834 -0.10001062
000140 08 19 ed bc 1c c1 35 3d 42 07 b1 bd c0 e1 89 bd
       -0.0289426 0.044373617 -0.086439624 -0.067325115
000150 22 30 92 3d 3c b9 30 3d 30 23 29 bc d6 51 e7 bd
       0.07138087 0.043145403 -0.010323331 -0.11294906
000160 2a d8 c4 3d 30 11 4d bc 20 0f c6 bd 8a 96 90 bd
       0.096115425 -0.012516305 -0.096708536 -0.07059963
000170 40 d6 a9 3d da af e5 3d f4 20 df 3d 98 78 9a bc
       0.08292818 0.11215182 0.10894957 -0.018856332
000180 84 ae 34 bd 40 2b 67 3b 0c c1 02 3d 3a b3 b1 3d
       -0.044111744 0.0035273582 0.031922385 0.08676763
000190 f8 1c 91 3d 50 10 2e bd b8 36 52 3d 88 63 22 bd
       0.070856035 -0.042496026 0.051321715 -0.0396457
0001a0 d6 90 c6 bd 88 ed d1 3c 50 61 b6 bc 00 4a 44 bd
       -0.09695594 0.025625959 -0.0222632 -0.047922134
0001b0 28 a9 ed 3c f4 47 8e 3d 20 69 99 3b a4 35 24 3d
       0.029011324 0.06947318 0.0046817213 0.04009022
0001c0 ea 17 bd bd 28 7a 0e 3d 12 ad 95 3d 14 5e 65 3d
       -0.09233077 0.034784466 0.07308401 0.055997923
0001d0 a6 c9 c6 3d 80 ef 5f bc 00 02 f3 3a 70 73 66 bd
       0.0970643 -0.013667941 0.0018540025 -0.056262434
0001e0 c0 86 bb bb 4c 97 86 3d b8 64 f8 3d b0 4f b4 3c
       -0.0057228506 0.06571826 0.121285856 0.022010654
0001f0 28 3d c9 bd 16 e9 f1 bd 72 ea 94 bd 6e 18 97 3d
       -0.09826118 -0.11812036 -0.072712794 0.073777065
000200 e6 12 c4 bd 08 f4 a1 bd 64 50 aa 3d 20 5d 7a bd
       -0.09573917 -0.079078734 0.083161145 -0.061123967
000210 28 4e cf bc 00 ef f6 bb a4 80 49 3d 70 45 21 bd
       -0.025305822 -0.0075358152 0.049194947 -0.03937286
000220 80 ce 68 3d 92 be 87 bd 00 f2 02 3a 84 97 7f 3d
       0.05683756 -0.06628145 0.0004995167 0.062400356
000230 fe 63 98 bd e2 bb f5 3d e8 6b 28 bd 1a c8 bf bd
       -0.07440947 0.119987264 -0.041118532 -0.09364338
000240 5c 9e f6 3d b8 f3 32 bd 3a 01 e6 bd 6c b9 2f bd
       0.120419234 -0.04368946 -0.11230703 -0.04290144
000250 44 6a eb bd 70 24 e8 bc 60 9b 86 bd 14 7c 26 3d
       -0.11494878 -0.028337687 -0.06572604 0.040645674
000260 78 4c 9a bd 4a 58 94 bd 3e fc ae 3d 60 58 75 bc
       -0.075341165 -0.07243402 0.08544205 -0.0149746835
000270 a8 62 ba bd a4 c9 3b 3d a0 53 41 bc 08 cb ed bd
       -0.091008484 0.045846596 -0.011799723 -0.11610991
000280 f4 7a 13 bd 40 d7 06 bd 56 16 e5 3d 70 4e d7 3d
       -0.03600593 -0.032920122 0.11185901 0.10513008
000290 20 84 37 3c 10 31 d7 bd ce 59 db bd 2a ef 8b bd
       0.011200935 -0.10507405 -0.10710488 -0.06832726
0002a0 74 4a 48 3d d0 90 27 bd 3a 41 d4 bd 00 3d 69 3a
       0.04889913 -0.04090959 -0.103640035 0.00088973343
0002b0 c8 bc aa 3d 40 c0 02 bc ca 44 b5 bd b8 9c 51 3d
       0.083367884 -0.007980406 -0.08851011 0.05117485
0002c0 3c 74 86 bd be d5 e6 bd a8 d1 1c bd 7e 47 e9 bd
       -0.06565139 -0.11271237 -0.03828588 -0.11390589
0002d0 c8 e7 26 bd 80 b0 53 3b 10 5f 25 bc 16 e5 91 bd
       -0.040748388 0.0032301247 -0.010093465 -0.07123773
0002e0 fe 6e e1 bd 62 8d 88 bd dc 54 f1 3d d4 2b 6b bd
       -0.11007498 -0.06667592 0.11783764 -0.057414845
0002f0 00 10 4f bb f8 01 d6 3d d2 c5 9c 3d 9c 74 7b 3d
       -0.003159523 0.10449594 0.07654919 0.061390504
000300 c0 71 6d bc 04 8c 1a bd 9a 4b ab bd 28 65 ae 3c
       -0.014492452 -0.037731186 -0.08364029 0.02128847
000310 64 a5 45 bd 22 a5 ae 3d 7a 59 bd bd e0 fa 49 3c
       -0.048253432 0.0852759 -0.09245582 0.01232788
000320 f6 52 bb bd e0 50 31 3d 58 a3 a7 3c c0 bf ef bd
       -0.09146683 0.04329002 0.02046363 -0.11706495
000330 aa d4 97 3d 00 05 c2 3d e4 b6 e0 bd 90 cb 62 3c
       0.07413609 0.0947361 -0.109723836 0.013842478
000340 56 49 90 3d de ca aa bd 94 f8 29 bd 4a 8a a7 bd
       0.07045238 -0.08339475 -0.04149683 -0.081806734
000350 e4 06 12 3d 48 7b 8a 3d f0 d1 f6 3c 28 ac 8e bd
       0.035651103 0.06761795 0.030129403 -0.0696643
000360 70 eb ba 3c 18 fe e7 bc ac 81 84 bd d0 5e 71 bc
       0.022817343 -0.028319404 -0.064700454 -0.014732078
000370 0c 47 10 bd fe e2 9e 3d 68 13 b6 3d e0 9c 12 3d
       -0.035224006 0.07758139 0.0889042 0.03579414
000380 ce 94 e2 bd f6 79 8d 3d d0 1c cf 3d 8a 6c a4 bd
       -0.110635385 0.06908028 0.101129174 -0.08028515
000390 a0 13 90 bd d4 45 8c 3d 08 b6 cb bc d6 b0 fc bd
       -0.07034993 0.06849256 -0.024867073 -0.12338416
0003a0 48 d2 f6 bd 62 38 f2 bd d8 78 c2 bc 32 7d eb 3d
       -0.12051827 -0.118271604 -0.023739263 0.114984885
0003b0 6a f8 eb bd 3e 17 c7 bd 20 d4 34 3d ea 4a b2 3d
       -0.115219906 -0.0972123 0.04414761 0.08705695
0003c0 60 30 3b bd 00 77 28 3d 1e b1 b4 bd 40 bd b2 bc
       -0.04570043 0.041129112 -0.08822845 -0.021818757
0003d0 50 59 ba 3c 70 4b 86 3d 0c 88 2b 3d 68 61 a8 bd
       0.022747666 0.06557357 0.04187779 -0.08221704
0003e0 08 a4 ff bc 0c d1 ae 3d 40 50 3e bb e4 40 e8 3d
       -0.031206146 0.08535966 -0.0029039532 0.11340502
0003f0 00 21 27 bd d0 a5 33 bc 2e 62 88 3d 6e a6 f2 3d
       -0.040802956 -0.010964826 0.06659351 0.1184815

fc1.bias f4 [32]
000000 b0 cb eb bc 80 f9 a8 bd ac 8b f2 3d dc 9c cb 3d
       -0.02878365 -0.08250713 0.118430465 0.09942028
000010 dc 61 7a bd 2c c1 9d bd f0 2d 6c 3d 18 8c e4 bc
       -0.061128482 -0.0770286 0.057660997 -0.027898833
000020 40 71 3e 3c 50 69 04 bc a8 89 9f 3c 00 7d 22 3b
       0.011623681 -0.008081749 0.01947482 0.0024793744
000030 7c 68 9f bd 44 e5 23 bd c0 08 1a 3c 50 45 31 3c
       -0.07783601 -0.040013567 0.0094015 0.010819748
000040 38 27 5e 3d e2 de ea 3d fc 4b d6 bd 3c a3 68 bd
       0.05423662 0.11468293 -0.104637116 -0.056796297
000050 56 40 cd bd 16 62 c2 bd e8 71 57 3d f8 9e ca 3c
       -0.10022037 -0.09491365 0.052598864 0.024734005
000060 e8 bc 98 bc 04 30 71 bd 8e 5f ce 3d 82 d7 ca 3d
       -0.018644765 -0.058883682 0.10076819 0.09904386
000070 64 2e af 3d ac be f1 3d 64 0b ee bd 00 de ab ba
       0.0855377 0.11803946 -0.11623266 -0.0013112426

fc2.weight f4 [1, 32]
000000 bb 75 64 3d 2f df 13 bd 33 fe 30 be 13 a8 ac 3d
       0.05577634 -0.036101516 -0.1728447 0.08430495
000010 3a 9e 29 3e 75 6d 1a bc e3 7f 33 be a8 0d 67 3d
       0.16564265 -0.009425511 -0.17529254 0.056409508
000020 d5 e7 b9 bd c4 3f fe b8 46 18 e5 bc dc c7 ce bd
       -0.090774216 -0.00012123541 -0.027965676 -0.10096714
000030 42 d6 6f 3c cc a6 05 3e db 2c 17 3e b6 11 31 3e
       0.014638485 0.13051909 0.14763205 0.17291912
000040 29 24 9e bb 58 07 10 3e 5e 7e 1d be 9c 7b d9 3d
       -0.004826088 0.14065301 -0.15380237 0.1061928
000050 3d 22 ad bd 7b 6a 11 be 8b 0b 96 3d 03 7f 33 be
       -0.08453796 -0.14200775 0.073264204 -0.1752892
000060 d1 cb 4b 3d 3e cf 19 3c 65 dd 97 3c c3 f0 d4 3c
       0.04975492 0.009387789 0.018538186 0.02599371
000070 e0 9c 15 3e 5d bc 14 be e1 7b 45 3d 2a 51 28 bd
       0.14610624 -0.1452498 0.048213843 -0.04109303
