output/out_models/dqn_models/basic/dlt_197.pth (torch, 9887 bytes, 3 tensors)

fc1.weight f4 [32, 64]
0	0x3d30c95c	0.04316078
1	0x3d8523bc	0.065009564
2	0xbdadbd0e	-0.08483325
3	0x3da95700	0.08268547
4	0x3d0a9698	0.033835024
5	0x3db903f8	0.0903396
6	0xbd626dd8	-0.055280536
7	0xbdb911e8	-0.090366185
8	0xbddfd898	-0.10929984
9	0xbcc50858	-0.02405183
10	0xbd84a2c4	-0.064763576
11	0x3a952c80	0.001138106
12	0xbddeb3cc	-0.10874137
13	0x3d203f04	0.039122596
14	0xbd12223c	-0.03567718
15	0x3dddaa52	0.10823502
16	0x3dfc1bc8	0.12309986
17	0x3d465b28	0.048426777
18	0x3d94668c	0.07246122
19	0x3d9c51a6	0.07632761
20	0xbd8ec1c0	-0.06970549
21	0x3d016424	0.031589642
22	0x3dfb11c4	0.12259248
23	0xbde85fde	-0.1134641
24	0x3cabf6b8	0.020991668
25	0x3dafaee6	0.08578281
26	0xbc80a280	-0.015702486
27	0xbd907006	-0.07052617
28	0xbd235758	-0.03987822
29	0xbd0d04ec	-0.034428522
30	0xbd70d42c	-0.058796093
31	0x3d236c70	0.039898336
32	0x3c7681c0	0.015045583
33	0xbde7ef6a	-0.113249615
34	0x3d5772d4	0.052599743
35	0xbd16db38	-0.036830157
36	0xbd77d5ac	-0.060506508
37	0xbdd3e9de	-0.10347341
38	0x3d8a9bb8	0.06767982
39	0xbdfcbe28	-0.12340957
40	0xbba83d20	-0.00513424
41	0xbda18050	-0.07885802
42	0xbda16e04	-0.07882312
43	0xbd085f60	-0.03329408
44	0xbc26b4e0	-0.01017496
45	0x3c9265b0	0.017870754
46	0xbdfe65b4	-0.12421742
47	0xbd8e9136	-0.069612905
48	0x3d77467c	0.060369954
49	0x3d8c11de	0.068393454
50	0x3d631f38	0.055449694
51	0xbde3873e	-0.1110978
52	0xbd4d7388	-0.050159007
53	0xbbea6460	-0.007153079
54	0x3d9214c6	0.071328685
55	0x3d51c04c	0.05120878
56	0xbd877ce2	-0.066156164
57	0x3c7714d0	0.015080646
58	0x3d547ffc	0.051879868
59	0x3d44d26c	0.048052236
60	0xbcb75b20	-0.022382319
61	0xbd22035c	-0.039553985
62	0x3dbb806e	0.091553554
63	0xbcd5fd00	-0.026121616
64	0x3ac7e780	0.0015251487
65	0xbc788050	-0.015167311
66	0x3d1a8c6c	0.037731573
67	0x3dc569c6	0.09639315
68	0x3d9793ae	0.074012145
69	0xbcd3a8a0	-0.025837243
70	0xbd01f8c0	-0.031731367
71	0xbdfa80b6	-0.12231581
72	0xb9a5f800	-0.00031656027
73	0x3c33b0d0	0.010967448
74	0x3df5f35c	0.12009308
75	0x3dac15f8	0.08402628
76	0x3d44b99c	0.048028573
77	0x3df8d17e	0.121493325
78	0x3db07408	0.08615881
79	0x3dd2a424	0.102852136
80	0x3df907cc	0.1215969
81	0xbbbbdf20	-0.0057333857
82	0xbd066fb4	-0.032821372
83	0xbccc7bb8	-0.024961337
84	0x3d914cc2	0.070947185
85	0xbba03300	-0.004888892
86	0x3d1c52a4	0.03816475
87	0xbd802b1c	-0.062582225
88	0x3df11106	0.11770825
89	0x3d33afe0	0.0438689
90	0x3db5fbf0	0.08885944
91	0x3daa4b00	0.08315086
92	0xbd5c6048	-0.05380276
93	0xbdf9e4ce	-0.12201844
94	0xbbe49a60	-0.0069764107
95	0x3de0b2d8	0.10971612
96	0x3aa6e280	0.0012732297
97	0xbd8fa9fc	-0.07014844
98	0x3dbd54f6	0.09244721
99	0x3d9c21e2	0.0762365
100	0xbdf9af18	-0.121915996
101	0xbdceccf8	-0.100976884
102	0xbd8ab99e	-0.06773685
103	0x3d3ed50c	0.046589896
104	0xbde2e78a	-0.11079319
105	0xbdd1b7ca	-0.10240133
106	0x3d5537f8	0.05205533
107	0xb9dd3000	-0.00042188168
108	0xbd81f344	-0.06345227
109	0xbbdb2a00	-0.0066883564
110	0xbd4efc80	-0.05053377
111	0x3dd8e024	0.105896264
112	0xbce43f68	-0.027862266
113	0xbdb516a8	-0.08842212
114	0xbc86ef98	-0.01647167
115	0x3d7ee178	0.062226743
116	0x3a487f00	0.0007648319
117	0xbd5ad974	-0.053430036
118	0xbd8f660c	-0.07001886
119	0xbcaaaf38	-0.020835504
120	0xbd6a5200	-0.057207108
121	0xbd566a38	-0.05234739
122	0x3dae9020	0.085235834
123	0xbdd70e8c	-0.105008215
124	0xbddbc630	-0.10731161
125	0x3df5e4be	0.1200652
126	0x3da896a6	0.08231859
127	0xbcee0210	-0.029053718
128	0x3c3e4ab0	0.011614487
129	0xbdc289d4	-0.09498945
130	0x3cfa84c0	0.030580878
131	0x3c786520	0.015160829
132	0x3d799ed0	0.06094247
133	0x3d285940	0.04110074
134	0x3d65cca4	0.056103364
135	0x3cf4f0e8	0.02990003
136	0xbd4eea4c	-0.05051641
137	0x3d9a21f6	0.07526009
138	0x3dc787c2	0.097426906
139	0x3c8eeb68	0.017446235
140	0x3bf33d60	0.007423088
141	0x3d5b3af4	0.05352302
142	0xbd8c03f4	-0.068366915
143	0xbd8230d2	-0.06356968
144	0xbb5c4f80	-0.0033616722
145	0x3defb34c	0.1170412
146	0x3c2a28f0	0.010385737
147	0x3caa3e58	0.020781681
148	0xbdf8d38a	-0.12149723
149	0x3dcf3f84	0.101195365
150	0xbdcee85c	-0.10102913
151	0x3cae04a8	0.021242455
152	0x3ab01600	0.0013434291
153	0x3d59f9d4	0.05321677
154	0xbd854dd6	-0.06508987
155	0xbdd2318c	-0.102633566
156	0x3d2f6d44	0.042828813
157	0xbc0cf630	-0.008603618
158	0x3da426c2	0.08015205
159	0xbd11e078	-0.03561446
160	0xbd8f5a98	-0.06999701
161	0xbc155730	-0.009115025
162	0x3d2a8978	0.041635007
163	0x3be7f040	0.0070782006
164	0x3dd82434	0.1055378
165	0xbdf90030	-0.12158239
166	0x3d58983c	0.052879557
167	0xbcd41b80	-0.02589202
168	0xbd2a0a78	-0.04151389
169	0xbdc2920e	-0.09500514
170	0x3dfa111a	0.12210293
171	0x3aff4300	0.0019474924
172	0x3dab5020	0.08364892
173	0x3db3be26	0.08776502
174	0x3d11fbf4	0.03564067
175	0xbdb3f40a	-0.08786781
176	0x3d44c3fc	0.048038468
177	0xbd48c078	-0.049011678
178	0x3be546a0	0.0069969445
179	0xbc234830	-0.009965941
180	0xbdfc6b66	-0.12325172
181	0xbc42adc0	-0.011882246
182	0x3dc6f5e0	0.09714866
183	0xbca93f00	-0.020659924
184	0xbd9d0f34	-0.076689154
185	0x3d7cc028	0.061706692
186	0xbd97bdaa	-0.074092224
187	0x3da5b46c	0.08091053
188	0xbdeab1d0	-0.11459696
189	0x3d3392c8	0.043841153
190	0x3dd1b7ec	0.102401584
191	0xbd283b04	-0.041071907
192	0x3d19e9d0	0.037576497
193	0xbd044be4	-0.032298937
194	0x3ddf76ee	0.10911356
195	0x3de65bd8	0.112479866
196	0x3d617c2c	0.05505006
197	0x3ce8e228	0.028428152
198	0xbd602ae8	-0.05472842
199	0x3ca79ca0	0.020460427
200	0x3d8ecec0	0.06973028
201	0x3c5f1b90	0.013617411
202	0xbdb7fb10	-0.08983433
203	0x3ddf4d4c	0.10903415
204	0x3dc73ba4	0.097281724
205	0x3b932a60	0.0044911355
206	0xbdcd9278	-0.10037702
207	0xb856f000	-5.1245093e-05
208	0x3b9340a0	0.004493788
209	0x3d9d1816	0.0767061
210	0x3ddc138e	0.10745917
211	0xbd83a35e	-0.06427644
212	0x3c5c84c0	0.013459384
213	0xbd2c1144	-0.042008653
214	0x3d2b4880	0.04181719
215	0xbccffa10	-0.025387794
216	0x3dd057ec	0.1017302
217	0x3ce1a2c0	0.027543426
218	0xbdea3040	-0.11434984
219	0xbd854f5a	-0.06509276
220	0x3db6c208	0.08923727
221	0x3dff9568	0.12479669
222	0x3be3a9c0	0.006947726
223	0xbdeac3c0	-0.114631176
224	0xbdd297ea	-0.102828816
225	0xbdb5aea0	-0.08871198
226	0x3d128710	0.035773337
227	0x3de2c930	0.1107353
228	0xbbd05520	-0.006357804
229	0x3c2d5d50	0.010581329
230	0xbdf17684	-0.11790183
231	0x3de4af8c	0.111662954
232	0x3d336420	0.04379666
233	0x3d9ef0be	0.07760762
234	0xbcc68d78	-0.02423738
235	0x3c15b400	0.009137154
236	0xbb4c2140	-0.0031147748
237	0x3d95b802	0.07310487
238	0xbd9254e6	-0.07145099
239	0x3dfde6dc	0.123975486
240	0x3deb5326	0.11490469
241	0x3d482754	0.04886563
242	0xbd7e9ec0	-0.062163115
243	0x3de18692	0.110119954
244	0x3dc53d1c	0.09630796
245	0x3d875c40	0.06609392
246	0xbdbf0b68	-0.093283474
247	0xbdb72174	-0.089419276
248	0xbce30868	-0.02771397
249	0xbdd1cfb0	-0.10244691
250	0x3c2bfff0	0.010498032
251	0x3ce37128	0.027763918
252	0x3d59833c	0.05310367
253	0x3d13b154	0.036057785
254	0x3dd72602	0.10505296
255	0xbdf9fece	-0.12206803

fc1.bias f4 [32]
0	0x3d93e0cc	0.07220611
1	0xbc200300	-0.00976634
2	0xbd58d2dc	-0.052935466
3	0x3d96fcb2	0.073724166
4	0x3d9f05ba	0.07764764
5	0xbd10ddc4	-0.035367742
6	0x3d7a1b0c	0.06106095
7	0xbd58f764	-0.052970305
8	0x3d0c4c40	0.034252405
9	0xbc667330	-0.014065549
10	0xbd993062	-0.074799314
11	0x3d11c7f8	0.035591096
12	0x3b344a00	0.0027509928
13	0x3d361eb4	0.044462875
14	0x3df1454a	0.11780794
15	0xbdb8637e	-0.09003352
16	0x3cb29cb8	0.021803245
17	0x3d8fb27c	0.07016465
18	0x3d165c0c	0.036708876
19	0x3c8a0d20	0.016851962
20	0xbcceeb30	-0.02525863
21	0x3d1aa6ec	0.037756845
22	0xbd93f880	-0.07225132
23	0x3da76484	0.08173469
24	0x3d2c95e0	0.04213512
25	0xbd29f33c	-0.041491732
26	0x3dce021c	0.10058996
27	0xbb5fc540	-0.003414467
28	0x3d880378	0.066412866
29	0x3d183f6c	0.03716986
30	0xbd71bf10	-0.059020102
31	0x3d433eb8	0.047667235

fc2.weight f4 [1, 32]
0	0x3e1d3450	0.15351987
1	0x3dfee0ad	0.12445197
2	0xbe201ad3	-0.15635233
3	0x3e13a98f	0.1442015
4	0x3d3e1faf	0.046416935
5	0xbdc45da2	-0.095881715
6	0x3d8bb5d0	0.06821787
7	0xbc7b383f	-0.015333234
8	0x3def20f3	0.116762064
9	0xbdcf8965	-0.10133628
10	0x3c05d369	0.00816808
11	0x3d26f270	0.04075855
12	0x3e2597f5	0.16171248
13	0x3d992cf0	0.07479274
14	0x3de14c1a	0.11000843
15	0x3e27e28d	0.16395016
16	0x3d8ede3a	0.0697598
17	0x3d8253b8	0.06363624
18	0xbe2459c4	-0.16049868
19	0xbbaf3423	-0.0053467914
20	0x3d08c3e8	0.033389956
21	0xbd4f5977	-0.05062243
22	0x3df56a6d	0.1198319
23	0xbddc7669	-0.107647724
24	0x3e3402c3	0.17579179
25	0xbdb071e2	-0.086154714
26	0xbcd7504c	-0.026283406
27	0x3de9b78d	0.11411963
28	0x3e0a0cfb	0.13481514
29	0x3dd40319	0.10352153
30	0x3dbdb902	0.09263803
31	0x3b75a520	0.0037482455
