output/out_models/dqn_models/basic/dlt_69.pth (torch, 9887 bytes, 3 tensors)

fc1.weight f4 [32, 64]
000000 e8 2e 60 bd 28 0d cd bd 70 e7 48 3d 4c d2 6d 3d
       -0.054732233 -0.10012275 0.04904884 0.058061883
000010 9c d9 1c 3d 00 17 d5 ba d6 5c b9 3d d0 09 0f bd
       0.038293466 -0.0016257465 0.0905091 -0.034921467
000020 28 9a d2 3d 7e 11 b2 bd 72 be a1 bd 80 e5 da ba
       0.10283309 -0.086947426 -0.07897653 -0.0016700476
000030 30 7d 25 3c e4 41 57 3d 86 30 f9 3d e8 6c dc 3d
       0.010100648 0.052553073 0.12167458 0.1076296
000040 30 88 0a 3c 70 d5 c1 3c d8 6c e8 bd 30 ab 4a bc
       0.008455321 0.023661345 -0.11348885 -0.012369916
000050 90 23 67 3c d2 e6 c6 3d 28 65 95 3d f0 19 c7 3d
       0.0141076 0.09711994 0.07294685 0.09721744
000060 32 c1 81 3d de c5 86 bd da 8d 97 bd dc 60 32 bd
       0.06335677 -0.06580709 -0.07400103 -0.043549404
000070 b4 2c fd bd 70 d1 d3 bd 80 63 66 bc 44 f3 dd 3d
       -0.12362042 -0.103426814 -0.014061809 0.10837415
000080 ec e5 8b bd d0 5d fb 3c 64 38 d4 3d a0 f9 c2 3d
       -0.068309635 0.030684382 0.10362318 0.095202684
000090 4c 2a ae 3d 44 d7 4e bd 78 6a ad 3d ea f9 b5 3d
       0.08504161 -0.050498262 0.08467573 0.08885558
0000a0 f4 11 78 bd 0c f9 d0 bd a6 4f eb bd 00 83 fe 3b
       -0.060563996 -0.10203752 -0.11489801 0.0077670813
0000b0 56 1e dc 3d 5c 6b f9 bd e0 a0 79 bc c8 57 81 3c
       0.107479736 -0.1217868 -0.0152361095 0.015788928
0000c0 a4 4f a7 bd 34 c2 25 bd 10 aa 5f 3d 28 12 fe bc
       -0.08169487 -0.04046841 0.054605544 -0.031014517
0000d0 5e c7 ad bd bc 8f 92 bd 04 df 52 bd d0 d9 48 3d
       -0.08485292 -0.071563214 -0.051482216 0.049035847
0000e0 08 2e 4d bd 38 00 c1 bc 90 90 b0 bd 9a 08 f6 3d
       -0.050092727 -0.023559675 -0.08621323 0.12013359
0000f0 40 d3 8a 3d f0 68 e3 bc a0 7b 4c 3c fc 83 15 bd
       0.06778574 -0.027759999 0.012480646 -0.036502823
000100 bc d7 18 bd b4 a7 6e bd dc 4d cb bd 54 88 4f 3d
       -0.037315115 -0.058265403 -0.0992696 0.050667122
000110 90 d4 e6 bd da ca c6 3d 56 5d e7 bd 78 9c dc 3d
       -0.11271012 0.097066596 -0.11297099 0.107720315
000120 60 00 fa bb 82 b8 85 bd c8 97 e4 3d 54 60 1a bd
       -0.0076294392 -0.06529333 0.111617625 -0.037689522
000130 74 51 68 3d 64 39 b6 3d 7a 8f e8 bd b4 cd 28 3d
       0.056718305 0.08897665 -0.11355491 0.0412118
000140 d4 16 c3 bd 30 3f ec bc 48 6e 91 bc 6c 3b 1a bd
       -0.095258385 -0.028838724 -0.017752782 -0.037654325
000150 00 86 f4 3d 80 2e 60 bb f0 f4 62 3d 46 96 d6 3d
       0.11939621 -0.0034207404 0.05540937 0.10477881
000160 62 38 85 3d 2c f8 af bd d0 53 98 bc 90 33 2c bc
       0.06504895 -0.08592257 -0.018594652 -0.01051034
000170 82 95 d6 3d 1a 7c fe bd 54 8d ce bd 60 59 c0 bc
       0.10477735 -0.12426014 -0.1008555 -0.023480117
000180 8c 4e 87 bd 78 36 f9 3c fc b7 bd 3d cc 92 52 3d
       -0.066067785 0.03042148 0.09263608 0.051409528
000190 92 6f ec 3d 40 36 24 bc b8 1b bc 3d 32 f1 9d bd
       0.11544718 -0.0100227 0.091849744 -0.0771202
0001a0 28 0f 78 3d 7c 64 e3 bd 70 68 bf bd d2 22 e3 3d
       0.06056133 -0.1110315 -0.09346092 0.11090626
0001b0 14 5e 00 3d b0 35 b5 3c 54 50 01 bd 68 63 e2 3c
       0.03133972 0.022120327 -0.031570747 0.027635291
0001c0 70 35 42 3d 26 8a f9 bd 82 60 f7 3d 48 ff d4 3c
       0.047414243 -0.12184553 0.12078954 0.026000634
0001d0 da 04 9c 3d ce 42 88 3d 32 03 a3 3d 80 c9 76 bd
       0.07618113 0.06653367 0.07959594 -0.06025076
0001e0 20 45 32 bc c0 8f 9d bb 50 b0 2f bd 40 2f f5 3b
       -0.0108807385 -0.004808396 -0.042892754 0.0074824393
0001f0 78 bd f5 bd 2a 98 82 bd 6e b0 a2 3d 0c 37 85 bd
       -0.11999029 -0.06376679 0.079438075 -0.0650464
000200 c8 db eb bd 90 f6 ed 3d a0 76 8b bb 28 de 80 3c
       -0.11516529 0.11619294 -0.0042560846 0.015730932
000210 94 fa 90 bd 78 21 8c 3d fc 13 75 bd d0 cf 6a 3c
       -0.07079044 0.06842321 -0.05983351 0.014331773
000220 54 3d b2 bd 24 6f 81 bd 68 ea 7d 3d 48 38 a0 3c
       -0.08703104 -0.063200265 0.061991125 0.019558087
000230 da 56 d4 bd 78 e1 8a bc 6c 6b 7b bd 30 75 cd bc
       -0.10368128 -0.016953215 -0.061381742 -0.025080293
000240 48 42 96 3c 3c 8a c1 3d d0 97 55 bc 68 73 73 bd
       0.018342152 0.09450194 -0.013036683 -0.05943623
000250 02 52 fe bd 78 93 0d bd 9c ab ce 3d 14 ed f8 3d
       -0.124179855 -0.034564465 0.10091326 0.12154594
000260 cc f9 1c 3d 3c 9f cc 3d 50 93 f8 bc 00 a4 01 3b
       0.038324162 0.09991309 -0.030343682 0.001978159
000270 b4 79 e9 3d 94 98 62 bd 32 d9 8d bd a0 7f 58 3d
       0.11400166 -0.05532129 -0.06926192 0.052856088
000280 e2 c0 ca 3d de e8 e7 bd 50 f7 6d 3c a0 5b c6 3c
       0.09900071 -0.11323713 0.014524296 0.024213612
000290 c0 4f 00 3d 06 cb f1 bd 94 cf 19 bd 14 d3 ec 3d
       0.031326056 -0.11806302 -0.037551478 0.115636975
0002a0 3c 96 fd 3d f2 c9 bc bd bc 04 cc 3d 8c ff fb bd
       0.123821706 -0.092182055 0.099618405 -0.12304601
0002b0 a0 02 90 3b 4c 9f 53 bd fc f5 1b 3d 38 e2 1e bd
       0.004394844 -0.05166559 0.038076386 -0.038789958
0002c0 08 04 85 bd a8 85 b4 bd 44 89 19 bd f4 40 b5 bd
       -0.064949095 -0.088145554 -0.037484422 -0.088502795
0002d0 a0 66 00 bc 94 bd fb 3d 5c 4b a4 bd bc 7c 4e bd
       -0.007836968 0.122920185 -0.08022186 -0.050411925
0002e0 a4 37 9c 3d 0c 2a 8a bd 80 9a 6f 3d 00 ad aa 3c
       0.076278 -0.06746301 0.058496952 0.020834446
0002f0 4a 22 8f bd e4 8f b4 3d e0 10 f6 3b 50 40 7c bd
       -0.06988962 0.088165075 0.007509336 -0.06158477
000300 20 83 fb 3d 0c 44 2e 3d 6a 06 bc 3d be a6 99 3d
       0.122808695 0.042545363 0.09180911 0.07502507
000310 0e 08 a3 3d 04 7f 52 bd f8 9e 6d bd b8 b3 8f 3d
       0.07960521 -0.051390663 -0.058012933 0.070167005
000320 10 4e e0 bd 18 a5 d2 bd da 91 db bd 7a fd c3 bd
       -0.10952389 -0.102853954 -0.10721178 -0.09569831
000330 dc 79 63 bd 76 3d cc 3d 44 01 00 3d b8 cc c8 bd
       -0.055536136 0.0997266 0.031251207 -0.09804672
000340 60 27 65 bd d4 aa 6f 3d b4 15 bf 3d 34 75 ce 3d
       -0.055945754 0.058512524 0.093303114 0.100809485
000350 f0 f6 5f bc f6 16 ef 3d 5c 9c c3 3d 94 03 64 3d
       -0.013669714 0.11674301 0.095513076 0.055667475
000360 f8 ac 71 bd 00 92 fd 3a 40 30 56 3c e0 9c c8 3d
       -0.059002846 0.001934588 0.013073027 0.097955465
000370 86 b1 e1 bd bc 54 68 3d 28 8d 3d 3d 5a 27 e3 bd
       -0.11020188 0.056721434 0.046277195 -0.1109149
000380 a8 5e 80 bd 7c ce f3 3d c0 cf f4 bd 94 55 de 3d
       -0.06268054 0.11904618 -0.11953688 0.108561665
000390 da f4 d5 bd b8 32 e0 3d 60 32 1d bd c0 7f 3f bc
       -0.10447092 0.10947174 -0.03837812 -0.011688173
0003a0 2c 8b e3 3d 8c 28 fa bd 90 3e 20 3c f0 9a bd 3d
       0.11110529 -0.12214765 0.009780541 0.092580676
0003b0 3a 1e d4 bd d0 0a e7 3c 00 db 11 3d 74 ec 63 bd
       -0.10357328 0.028203398 0.035609245 -0.05564542
0003c0 ca 2e d5 bd 14 60 7f bd 84 24 ad 3d 60 d9 eb 3b
       -0.10409315 -0.062347487 0.084542304 0.007197544
0003d0 c0 ce 1f bd f0 56 9b 3c 70 24 c9 3c ac 9e 06 bd
       -0.03901553 0.018962353 0.024553508 -0.032866165
0003e0 b4 d3 7d 3d 96 08 f2 bd a8 22 61 bd 00 0c dd 39
       0.061969474 -0.11818044 -0.05496469 0.00042161345
0003f0 36 ac 8f bd 3c 4f 44 bd d2 a8 d8 3d 9c 66 68 3d
       -0.070152685 -0.047927126 0.10579075 0.05673848

fc1.bias f4 [32]
000000 f0 b0 1f bc ee ff eb bd b4 75 90 3d 80 50 3d 3b
       -0.009746775 -0.11523424 0.070537 0.0028887093
000010 d4 1e 72 3d b4 e1 53 bd c8 07 83 bd e0 53 95 bb
       0.05911143 -0.05172892 -0.063979685 -0.004557118
000020 aa a3 9d 3d 90 79 96 3c b4 e7 b2 bd dc 0b 2f bd
       0.07697232 0.018368512 -0.087356 -0.04273592
000030 ec d3 cd bd bc c0 f9 3d 42 3e ac 3d 80 13 6e bd
       -0.100501865 0.12194964 0.08410312 -0.058124065
000040 48 81 38 3d 98 97 7b 3d de b5 b7 bd 80 e4 ef ba
       0.045045167 0.061423868 -0.08970235 -0.0018302351
000050 00 0a 75 3a e0 1a d9 bc c8 c1 81 3d f0 ed 13 bc
       0.00093474984 -0.026502073 0.06335789 -0.009028897
000060 7c b9 0d bd 40 d3 20 3b 78 88 74 3d 68 0f 62 3d
       -0.03460072 0.0024539977 0.05970046 0.055190474
000070 1a e1 8f 3d 6c 0d 8d 3d 90 f5 a1 3d 80 e9 6b bc
       0.070253566 0.06887326 0.079081655 -0.014398932

fc2.weight f4 [1, 32]
000000 32 08 1c 3d 0e 6b 1d be 20 f4 f7 bd 0d 84 b5 bc
       0.038093753 -0.1537287 -0.1210711 -0.022157693
000010 c8 00 28 3e c4 ed b9 3d 28 d6 29 3e 9b b1 a6 bd
       0.16406548 0.09078553 0.165856 -0.08139344
000020 a9 3f 31 3c e5 c3 1f 3d 8f 6b 14 3e 0d 0f c1 3d
       0.0108184 0.03900518 0.14494155 0.09426699
000030 11 c3 36 bd b3 0c 1c be ae 8c cc bd 50 02 2f be
       -0.044619624 -0.1523922 -0.0998777 -0.17090726
000040 99 e7 21 3e 3f 82 e4 3d 4c 14 1f be 1b 12 af bc
       0.15811004 0.11157655 -0.15535086 -0.021370938
000050 1d 4f 12 3d e1 b8 43 bd 80 76 8c bd 58 65 d5 bd
       0.03571998 -0.047783736 -0.068585396 -0.104197204
000060 a2 57 18 3e 52 71 15 be dc 30 00 be a4 2b 1e 3e
       0.1487718 -0.1459401 -0.12518638 0.15446335
000070 de d8 11 be 98 e5 a7 3d 5d 19 4f 3c a2 4d 96 bd
       -0.14242885 0.081980884 0.012640324 -0.07339026
