output/out_models/dqn_models/basic/dlt_161.pth (torch, 9887 bytes, 3 tensors)

fc1.weight f4 [32, 64]
0.041955605 0.12182057 -0.08213098 0.060153842 -0.08385436 -0.0066223443 -0.050040632 0.107832596
0.03652282 0.1013872 0.11043948 0.05471939 -0.08207126 0.11254856 -0.11199556 -0.024222106
0.06340422 0.026222989 0.006753981 0.05629067 -0.043327287 -0.016443133 -0.10976499 0.0070443153
0.12143469 -0.105743155 -0.038578436 -0.036980435 0.08924632 0.057705462 -0.0053032935 0.115885034
-0.023500636 -0.015944555 0.016560182 0.054920837 0.11817497 -0.0069568455 0.11538462 0.007257968
0.102489606 -0.03638351 -0.013917744 -0.025816083 0.08255383 0.06514248 0.099791616 0.040788412
-0.117374495 -0.07218118 0.08503847 -0.018236935 -0.094454914 -0.084065825 -0.00917007 0.0012613684
0.032468036 -0.03689061 -0.035260886 -0.11712819 0.07231389 -0.041923538 0.004550934 0.112372875
-0.012260869 -0.06871903 0.0022850335 0.07131146 -0.045702234 0.09294589 -0.116114646 -0.060681254
0.091821715 -0.04809484 0.017950848 0.102506846 0.012697741 0.056389198 -0.078073055 -0.08556096
0.11546224 -0.04427558 0.087506786 -0.124133036 0.05080335 -0.042236418 0.100318834 -0.0026008934
-0.099755764 0.10590345 0.11815676 -0.04498969 0.11096567 -0.10694061 -0.11043739 -0.06279014
-0.105269685 0.093694195 0.040395394 -0.01948376 -0.078178406 -0.100869745 0.059558168 0.10651648
0.07784341 -0.017234847 -0.08725612 -0.003552094 -0.022716463 0.12290645 -0.08541979 -0.03306979
0.025054544 -0.09721251 -0.112905785 0.07998507 0.067358315 -0.027906254 0.023027912 -0.09329677
0.08439037 0.09796648 0.0071097016 -0.08207695 0.12439802 0.088853285 0.047149286 -0.081375316
0.12169568 -0.05705993 -0.043576002 0.032686174 -0.0011729747 -0.07694134 -0.050169513 -0.0186809
-0.05265078 0.12371613 -0.038150758 0.11639485 -0.07170023 -0.043344527 0.09786245 0.05887042
0.118799776 0.09839292 -0.049480855 -0.023146152 0.098327264 0.038016498 -0.043044597 0.11542337
0.049688354 0.11927207 -0.09349899 -0.0019498616 0.07972328 0.019967303 -0.11469908 -0.07456595
-0.08625388 -0.07326235 -0.09092504 -0.10900861 0.036090076 -0.008477166 -0.0064753294 -0.050647885
-0.089538336 -0.11118169 -0.049250424 0.009618819 -0.02653569 -0.0049088895 -0.106138125 -0.04953061
-0.0651145 0.1010959 -0.091945946 -0.08386266 -0.075877115 0.12462936 -0.10722928 0.009617001
-0.10987587 0.04337153 0.056403056 -0.010415271 -0.013273776 0.061347604 0.039827466 0.018995434
0.113227114 -0.08993614 0.09872019 0.0008638948 0.05044943 -0.023143545 0.055583432 0.008911386
-0.05197099 0.048962206 -0.104442835 -0.030828327 0.102194205 0.05206263 -0.09402031 0.09716296
-0.063618764 0.101871595 -0.064435944 -0.0072134137 0.08241548 -0.12308821 0.10802211 0.010320947
-0.06605108 -0.03106977 -0.045273706 -0.10512523 -0.034326777 0.0020225942 0.1248963 -0.02253671
0.067252904 -0.107813686 -0.11922845 -0.088469 -0.1243853 -0.08165392 0.022748664 0.035487413
0.06409395 -0.048848897 0.11467278 -0.06427343 -0.02010651 -0.033133894 0.04987219 -0.11364843
-0.10582228 0.012199134 0.014962062 -0.073891416 -0.07251853 -0.053320214 -0.07862386 0.078668684
0.096211374 -0.09148933 -0.09009151 -0.08067663 -0.0033290535 -0.056132033 0.057302848 -0.103663206
00000000: a4d9 2b3d 107d f93d 4a34 a8bd e063 763d
00000010: d6bb abbd 4000 d9bb 68f7 4cbd 56d7 dc3d
00000020: f498 153d 18a4 cf3d 182e e23d 7021 603d
00000030: fa14 a8bd dc7f e63d ee5d e5bd 706d c6bc
00000040: 12da 813d 98d1 d63c 8050 dd3b 0c91 663d
00000050: f477 31bd c0b3 86bc 78cc e0bd 00d4 e63b
00000060: c0b2 f83d de8f d8bd 6c04 1ebd cc78 17bd
00000070: c6c6 b63d 905c 6c3d 40c7 adbb 2255 ed3d
00000080: 6884 c0bc 289e 82bc 38a9 873c acf4 603d
00000090: b805 f23d 40f6 e3bb c64e ec3d 40d4 ed3b
000000a0: 12e6 d13d e006 15bd 4007 64bc 407c d3bc
000000b0: fc11 a93d 6c69 853d 8c5f cc3d c011 273d
000000c0: 0a62 f0bd bad3 93bd a628 ae3d a065 95bc
000000d0: 9471 c1bd b42a acbd 103e 16bc 8054 a53a
000000e0: 34fd 043d 9c1a 17bd b86d 10bd e8e0 efbd
000000f0: 4e19 943d 04b8 2bbd 0020 953b c023 e63d
00000100: d0e1 48bc 90bc 8cbd 80c0 153b be0b 923d
00000110: 4432 3bbd 6a5a be3d 84cd edbd e88c 78bd
00000120: 060d bc3d 18ff 44bd a80d 933c 1cef d13d
00000130: 300a 503c 5cf8 663d c4e4 9fbd 963a afbd
00000140: 7877 ec3d 505a 35bd c236 b33d 7639 febd
00000150: 2c17 503d 1800 2dbd f673 cd3d c073 2abb
00000160: c04c ccbd e8e3 d83d 2cfc f13d 1c47 38bd
00000170: f841 e33d ae03 dbbd 002d e2bd 1e98 80bd
00000180: a297 d7bd bee2 bf3d a475 253d 689c 9fbc
00000190: 001c a0bd cc94 cebd 44f3 733d 5025 da3d
000001a0: 5e6c 9f3d 1830 8dbc 56b3 b2bd 40ca 68bb
000001b0: e017 babc 60b6 fb3d 92f0 aebd 3074 07bd
000001c0: 303f cd3c 5a17 c7bd 263b e7bd 36cf a33d
000001d0: 28f3 893d a89b e4bc 08a5 bc3c 6012 bfbd
000001e0: dcd4 ac3d a6a2 c83d 80f8 e83b f617 a8bd
000001f0: 64c4 fe3d b6f8 b53d 9c1f 413d 1aa8 a6bd
00000200: 963b f93d acb7 69bd c07c 32bd f0e1 053d
00000210: 80be 99ba 6c93 9dbd 8c7e 4dbd b008 99bc
00000220: 58a8 57bd e25e fd3d f843 1cbd 6c60 ee3d
00000230: 92d7 92bd 088a 31bd 1c6c c83d 1c22 713d
00000240: 4c4d f33d 3a82 c93d 70ac 4abd 009d bdbc
00000250: ce5f c93d 30b7 1b3d 884f 30bd 1663 ec3d
00000260: 0486 4b3d ea44 f43d 667c bfbd 8092 ffba
00000270: f645 a33d 7892 a33c 5ae7 eabd 08b6 98bd
00000280: e0a5 b0bd 920a 96bd e836 babd e83f dfbd
00000290: 30d3 133d d0e3 0abc 002f d4bb 2874 4fbd
000002a0: e05f b7bd 3ab3 e3bd d0ba 49bd 4098 1d3c
000002b0: 6061 d9bc c0da a0bb f25e d9bd 9ce0 4abd
000002c0: c05a 85bd 5e0b cf3d 284e bcbd 30c0 abbd
000002d0: 7665 9bbd ae3d ff3d 069b dbbd a090 1d3c
000002e0: 9a06 e1bd 58a6 313d e406 673d d0a4 2abc
000002f0: 407a 59bc a047 7b3d 2022 233d 509c 9b3c
00000300: 9ee3 e73d 7030 b8bd d02d ca3d 0077 623a
00000310: 10a4 4e3d 8897 bdbc 74ab 633d 1001 123c
00000320: 88df 54bd 988c 483d 20e6 d5bd b08b fcbc
00000330: 324b d13d a03f 553d b88d c0bd 60fd c63d
00000340: 8e4a 82bd 0ea2 d03d fef6 83bd 805e ecbb
00000350: 72c9 a83d ac15 fcbd b23a dd3d 3019 293c
00000360: ca45 87bd 0886 febc ec70 39bd e64b d7bd
00000370: 3c9a 0cbd 808d 043b a2c9 ff3d e89e b8bc
00000380: e4bb 893d 6ccd dcbd 0c2e f4bd 3c2f b5bd
00000390: b8bd febd 2c3a a7bd 685b ba3c 405b 113d
000003a0: b043 833d c815 48bd 90d9 ea3d caa1 83bd
000003b0: 68b6 a4bc 68b7 07bd c846 4c3d 82c0 e8bd
000003c0: 5ab9 d8bd e0de 473c 7023 753c 6254 97bd
000003d0: 9884 94bd 4c66 5abd 8c05 a1bd 0c1d a13d
000003e0: 780a c53d c25e bbbd e681 b8bd ca39 a5bd
000003f0: 402c 5abb b4ea 65bd 64b6 6a3d 604d d4bd

fc1.bias f4 [32]
0.030757412 -0.11434075 0.043936625 -0.067798525 -0.059806302 0.11371574 -0.10435209 0.07004568
0.017250642 0.034169987 0.006090477 -0.078126594 0.08758667 -0.078917146 -0.09874086 0.11585985
-0.061612815 -0.014333725 -0.08997941 0.05124189 -0.061344057 -0.04230456 0.0027442276 -0.121624336
-0.02749385 -0.0001526922 -0.05123757 0.078017 0.10304691 0.099528685 -0.075694904 0.09004223
00000000: f8f6 fb3c 7c2b eabd e4f6 333d f4d9 8abd
00000010: 74f7 74bd cce3 e83d 8cb6 d5bd 1c74 8f3d
00000020: 3851 8d3c d4f5 0b3d a092 c73b d600 a0bd
00000030: a460 b33d 509f a1bd a638 cabd ee47 ed3d
00000040: b85d 7cbd 00d8 6abc 2047 b8bd 04e3 513d
00000050: e843 7bbd 8c47 2dbd 80d8 333b 2e16 f9bd
00000060: c83a e1bc 001c 20b9 7cde 51bd 60c7 9f3d
00000070: 420a d33d b2d5 cb3d ee05 9bbd 1068 b83d

fc2.weight f4 [1, 32]
-0.04477192 0.06627657 -0.0624575 0.171818 -0.09942473 0.09198079 -0.10641162 -0.14832641
-0.102040425 -0.026928043 0.10795386 0.07182864 0.16466963 -0.025129447 -0.10043132 0.15162626
-0.07418511 -0.1455061 -0.113388024 -0.13164665 -0.13997908 0.056306608 0.14246757 -0.075407304
-0.15603994 -0.01201516 -0.11960281 -0.11965874 0.010463861 0.122158885 0.16963516 0.1166547
00000000: c362 37bd 03bc 873d 6fd3 7fbd 0ff1 2f3e
00000010: 319f cbbd 6d60 bc3d 56ee d9bd e1e2 17be
00000020: 92fa d0bd 3398 dcbc ea16 dd3d e51a 933d
00000030: 289f 283e 45dc cdbc f0ae cdbd ea43 1b3e
00000040: 5dee 97bd 8dff 14be fb37 e8bd 61ce 06be
00000050: ad56 0fbe c2a1 663d 05e3 113e 256f 9abd
00000060: efc8 1fbe 3cdb 44bc 51f2 f4bd a40f f5bd
00000070: 9d70 2b3c 702e fa3d d7b4 2d3e a9e8 ee3d
