output/out_models/dqn_models/basic/dlt_57.pth (torch, 9887 bytes, 3 tensors)

fc1.weight f4 [32, 64]
000000 f4 7d 58 3d 30 1f 52 bd 56 a6 f5 3d 48 3b b1 3c
       0.052854493 -0.051299274 0.11994617 0.021634713
000010 ce d3 8a bd 76 d4 c5 bd 04 90 89 bd 6a af fc 3d
       -0.0677868 -0.09659664 -0.06716922 0.12338145
000020 64 46 56 3d 6e bb b8 3d 94 e2 c3 bd e0 73 dc bb
       0.052313223 0.090201244 -0.09564701 -0.0067276806
000030 90 13 1b 3d 2c 31 d5 bd 00 e5 45 3a 00 6e 08 bd
       0.037860453 -0.104097694 0.0007549077 -0.03330803
000040 a8 8c b0 bd e2 36 be 3d 68 6f 4e 3d 50 72 df bd
       -0.08620578 0.09287812 0.050399214 -0.10910475
000050 10 18 20 3c 80 ad 95 3a 02 23 d6 bd 34 b3 8d 3d
       0.009771362 0.0011419505 -0.10455896 0.06918946
000060 d0 12 6e 3d f2 e2 83 3d 70 22 84 bd 60 a8 8a 3b
       0.05812341 0.06439771 -0.06451881 0.0042314976
000070 04 b4 19 3d 8c 35 af bd 54 07 74 bd 08 1e 2e 3d
       0.037525192 -0.08555135 -0.0595773 0.04250911
000080 5c 43 cb 3d 58 68 01 bd a8 c5 9b 3c 60 fb c2 3d
       0.09924957 -0.03159365 0.019015148 0.09520602
000090 be b6 bf 3d 7c 73 1b bd b2 d6 fd 3d 10 43 95 3d
       0.09361027 -0.03795193 0.123944655 0.07288182
0000a0 d8 2c 29 bd 08 52 e9 3c f2 27 de 3d 38 27 1b 3d
       -0.041302532 0.028481498 0.10847463 0.0378792
0000b0 00 c8 1b bd b8 5b 98 3d 00 6a 58 3a 18 ba c2 bd
       -0.03803253 0.07439369 0.00082555413 -0.09508151
0000c0 fe bc c7 bd 40 21 a3 3b 04 20 27 3d 68 92 fb bc
       -0.09752844 0.004978329 0.040802017 -0.03070946
0000d0 30 0d 33 bc ac da 2e bd 10 03 64 3c 3c 58 93 3d
       -0.010928437 -0.04268901 0.013916746 0.07194564
0000e0 90 8a 7a bd 58 e2 07 bd 24 d1 d5 3d 46 4b c5 3d
       -0.0611673 -0.033174843 0.10440281 0.09633498
0000f0 5c 92 a6 3d 00 64 8d 39 00 80 f7 b7 70 d7 f6 3d
       0.081333846 0.00026968122 -2.95043e-05 0.1205281
000100 90 00 c4 3c c2 57 90 3d 6c c0 a9 bd dc 54 4a bd
       0.02392605 0.070479885 -0.08288655 -0.049397334
000110 26 3b a3 3d 34 20 85 3d 76 a3 b2 bd 00 38 5c 39
       0.07970266 0.06500283 -0.08722584 0.00021001697
000120 d0 6f 9e 3d 40 b4 82 bb 30 9a b2 bc f8 9c 99 bc
       0.0773617 -0.0039887726 -0.021802038 -0.018751606
000130 e8 f6 ca 3c 14 e1 f1 bd 26 c9 85 bd d6 8d d5 bd
       0.024775937 -0.11810508 -0.06532507 -0.10427444
000140 10 b6 95 bc 32 0f ac bd dc 75 00 3d f8 96 53 bd
       -0.01827529 -0.08401336 0.0313624 -0.051657647
000150 68 31 40 3d 02 fe ec bd 80 6d bc bc 3c 00 5c 3d
       0.046922117 -0.11571886 -0.023001432 0.05371116
000160 2c f8 f8 bd 06 45 97 bd da b3 dc 3d f8 40 dc bd
       -0.1215671 -0.07386212 0.107764915 -0.10754579
000170 00 40 90 3d e8 2b 87 bd 14 2b e7 3d 1a 62 f4 3d
       0.07043457 -0.06600171 0.112875134 0.11932774
000180 4e 95 c1 bd 72 fb 9f bd d0 b2 88 bd ac 7a f9 bd
       -0.09452306 -0.07811631 -0.06674731 -0.12181601
000190 d0 d1 06 3c c4 ba b1 bd fe 07 c0 bd da cb d0 bd
       0.008228734 -0.08678201 -0.093765244 -0.101951316
0001a0 98 81 ed 3d d8 bc 53 3d 94 73 e6 3d 84 eb cf 3d
       0.11596984 0.051693767 0.112525135 0.10152343
0001b0 98 39 26 bd 68 ec 98 bd c0 bf 48 3b 9a 84 bb 3d
       -0.04058227 -0.07466966 0.003063187 0.09156151
0001c0 6c fd 93 bd 5c 06 39 bd 1c 2b 5f bd 8a 5b d9 bd
       -0.07226071 -0.04517208 -0.05448447 -0.10613163
0001d0 ac d4 9c bd 80 e2 20 3d 68 ca 5e 3d 58 41 5a bd
       -0.076577514 0.039278507 0.05439225 -0.053284973
0001e0 58 fd aa bc 84 83 67 3d 40 5e 2f 3d 78 77 ce bd
       -0.020872757 0.056521907 0.042814493 -0.100813806
0001f0 18 11 14 bd 70 cd 04 bd 40 33 db bc 00 86 33 ba
       -0.036149114 -0.032422483 -0.026757836 -0.00068482757
000200 20 08 79 3c 70 b9 dd 3d ac d7 c4 bd a2 7a 92 3d
       0.015199691 0.10826385 -0.09611449 0.071522966
000210 7c 26 86 bd f8 2f a6 3c fc a3 08 3d c0 61 77 3b
       -0.06550309 0.020286545 0.033359513 0.0037747473
000220 ea ed d8 3d c8 c1 f3 bc 5e 7e e3 3d 80 1a b4 3d
       0.105922535 -0.029755488 0.11108087 0.08794117
000230 64 e7 8d 3d 00 b8 34 3d 72 e7 b3 3d b8 a2 33 bd
       0.069289 0.04412079 0.08784379 -0.043856353
000240 6c c2 b4 bd 78 0e d7 3c 10 46 7e bd a0 8c a0 bc
       -0.088261455 0.026252016 -0.062078536 -0.019598305
000250 e8 5c 8e bc 92 72 bf 3d 30 5f a7 bd 94 65 07 bd
       -0.017378286 0.093480244 -0.081724524 -0.033055857
000260 90 b0 f6 3c b8 47 ae bc 38 0a 70 3d e8 f8 e6 bd
       0.030113488 -0.021274433 0.058603495 -0.11277944
000270 40 2b c6 bb 6a 2a ee 3d 44 21 43 3d 7a 20 eb bd
       -0.0060476363 0.116291836 0.047639146 -0.11480804
000280 68 14 85 bd 10 42 86 bd d4 24 b0 bd 64 f8 ba bd
       -0.06498033 -0.06555569 -0.086007744 -0.09129408
000290 c8 12 58 3d e4 77 0e bd 62 c2 c6 3d da a5 a5 3d
       0.052752286 -0.034782305 0.09705044 0.08088274
0002a0 3c 7d 65 bd d2 46 ca bd 0c 21 2d 3d b6 ca c4 bd
       -0.056027636 -0.09876789 0.042267844 -0.096089765
0002b0 c4 30 d5 3d 96 f7 95 bd 14 db ef 3d 60 64 31 3d
       0.10409692 -0.07322614 0.11711708 0.043308616
0002c0 30 6b 00 3c a0 c7 fc 3b 1e c0 b7 bd a8 1f 94 3d
       0.0078380555 0.007714227 -0.0897219 0.072326005
0002d0 fa 1f 95 3d 00 d7 0c bb d2 9b b3 3d b2 43 b1 bd
       0.0728149 -0.0021490455 0.08769955 -0.0865549
0002e0 e0 ed 6a bc 36 b2 be 3d b0 10 e9 3d 00 67 b1 3d
       -0.01433894 0.09311335 0.11380136 0.08662224
0002f0 80 9d d7 bd 20 9e a0 3b 14 d9 71 bd 28 37 e0 3c
       -0.105280876 0.0049016625 -0.059044912 0.02737005
000300 f6 cc ce bd 6a 51 e3 3d cc dd 62 3d 80 d7 cf 3b
       -0.10097687 0.11099513 0.055387303 0.0063428283
000310 58 de d0 bc 44 fd 84 3d 00 5a b8 bc 80 80 de 3d
       -0.025496647 0.06493619 -0.022503853 0.10864353
000320 58 37 7f bd b6 6f c4 bd 6c 1e e3 bd 20 f6 64 3d
       -0.06230864 -0.0959162 -0.11089787 0.055898786
000330 d8 09 9e bd 40 a5 db 3d 46 20 f7 bd c6 6c c7 bd
       -0.07716721 0.10724878 -0.120667025 -0.09737544
000340 b6 bc bb 3d 18 ed dd 3d d0 35 98 bc a8 5b c1 bd
       0.09166853 0.10836238 -0.018580347 -0.0944131
000350 7c 66 53 bd 88 e8 9e 3c d0 2d 8a bd 3c 27 47 bd
       -0.05161141 0.019397989 -0.06747019 -0.0486214
000360 5e b3 ce 3d aa a0 fd 3d b8 c5 ce 3c 40 21 aa 3d
       0.10092805 0.1238416 0.025240764 0.08307123
000370 36 66 93 bd b4 0e 33 3d 06 e5 91 3d 5a 30 e7 bd
       -0.071972296 0.043715194 0.07123761 -0.11288519
000380 d0 d3 30 bd d4 17 08 bd 60 39 fc 3d 20 db e0 bb
       -0.04317075 -0.03322585 0.12315631 -0.0068620592
000390 3c be 60 3d ce 8d df bd 06 af b4 3d 2c b4 1b 3d
       0.05486892 -0.10915719 0.088224456 0.038013622
0003a0 38 6f e6 bc e0 f8 83 bc 36 4f c5 3d ba 34 a5 3d
       -0.028129205 -0.016109884 0.09634249 0.080666974
0003b0 68 f3 d8 3c cc 08 60 bd 56 03 94 3d 88 ab 1d bd
       0.026483253 -0.05469589 0.07227199 -0.038493663
0003c0 fe 4b a2 3d 28 c9 6d 3d 14 1f 94 bd 20 d7 fd bc
       0.079246506 0.058053166 -0.0723249 -0.030986369
0003d0 68 09 06 bd e0 2a 9b 3d a0 2c b1 3b f2 fa ce bd
       -0.032723814 0.07576537 0.005406931 -0.10106458
0003e0 f0 b5 2f bd 90 db 1b bd 94 8a a3 bd ea 4c ed bd
       -0.04289812 -0.038051188 -0.07985416 -0.11586936
0003f0 00 c9 f4 3d 9c f8 77 bd a8 b0 72 bd 00 cd b3 bc
       0.119524 -0.060539827 -0.059250504 -0.021948338

fc1.bias f4 [32]
000000 cc 16 91 bd 2a 18 dd bd 58 f9 c8 bd 08 66 29 bd
       -0.07084426 -0.107956246 -0.098131835 -0.04135707
000010 5a f0 96 3d 00 80 77 3c 54 a0 81 bd 40 22 d2 bb
       0.07370062 0.015106201 -0.06329408 -0.0064127743
000020 30 0a 9d bd 88 8d 87 3c 72 96 8a 3d b0 ab 2a bc
       -0.07667959 0.01654698 0.067669764 -0.01041691
000030 de 1b a5 3d 7c dd 6e bd 80 d8 d6 bb e0 8e 9c bc
       0.08061956 -0.058316693 -0.0065565705 -0.019111097
000040 00 70 2e 3c 34 21 57 3d 2e 9e ce bd 76 71 a4 3d
       0.01064682 0.0525219 -0.10088764 0.080294535
000050 b8 12 29 3d 6e 72 9e bd 70 84 f0 3c e6 ca 98 bd
       0.041277617 -0.077366695 0.029360026 -0.07460575
000060 e0 20 35 3c b0 2b 4f 3d 08 1b 16 bd 2a f4 b1 3d
       0.011055201 0.050578773 -0.036646873 0.08689149
000070 68 56 e4 3c 0e 6e e6 bd ae a4 ad bd 5c d1 a2 bd
       0.027873233 -0.1125146 -0.08478676 -0.079500884

fc2.weight f4 [1, 32]
000000 b5 a1 39 3d 7b 73 17 3e ef 32 f2 bd 47 1f 11 3e
       0.04532023 0.14790146 -0.11826121 0.14172088
000010 f3 4e a9 3c 7b 99 20 be f9 b6 44 3d 14 91 e1 3c
       0.020667529 -0.15683548 0.04802606 0.027534999
000020 81 d5 74 bc d9 99 81 bc 7d 16 30 be 70 4e e0 bd
       -0.014943481 -0.01582043 -0.17196079 -0.10952461
000030 36 b3 5a 3c b5 b1 bf bd bc ee d5 3d ff 9b 7a 3d
       0.013348391 -0.09360067 0.104459256 0.061183926
000040 c5 f5 77 3d 3b c7 28 3c 85 13 19 3e 43 7f 0a 3e
       0.06053712 0.0103014065 0.14948852 0.13525109
000050 61 b5 bc bd 5c 3c f2 bd e7 24 bd bb 17 43 7c 3d
       -0.09214283 -0.11827919 -0.0057722214 0.06158742
000060 9b d6 ee bd 1c 90 80 bd ee e9 c8 3c d6 dd eb bc
       -0.116620265 -0.06277487 0.024525609 -0.028792303
000070 c8 7c ca bd fc af da 3c 54 b1 d5 bd 21 2e a2 3b
       -0.098870814 0.026695244 -0.10434213 0.0049493467
