output/out_models/dqn_models/basic/dlt_299.pth (torch, 9887 bytes, 3 tensors)

fc1.weight f4 [32, 64]
00000000: 94e6 3ebd 70f7 c5bd 6023 b53d e883 08bd
00000010: 7c54 763d 3e4c 9ebd c0ec b93b 68de a13c
00000020: 702e 36bc c621 dd3d fa7b dbbd 4873 ffbd
00000030: e03e 9f3b 2438 8a3d 584a bb3c aa82 cd3d
00000040: 04ab 87bd 082f e7bd ae65 f6bd 0027 67bb
00000050: 10ca 263d 065f d0bd c0ed 16bd a032 93bc
00000060: 4ad5 c0bd 708b 433c 90c2 5abd 905b fdbd
00000070: 3068 50bc 9ce4 c63d 2045 b33b 903d 3bbd
00000080: 34ca 3abd 2e15 f4bd 3644 8fbd 46a7 8a3d
00000090: fc0f 30bd 1a51 ab3d f0b5 1a3c 64fb 813d
000000a0: 48e5 d23c cae3 ea3d 8887 923d 287d dbbd
000000b0: 4ca1 21bd c0af 063c f885 e9bd 2460 b43d
000000c0: 1e14 ba3d 98a6 c8bd 40c5 b03d facf 8ebd
000000d0: 2af2 bebd b61c dfbd 2887 dcbd c81f 71bd
000000e0: 5427 b5bd 6024 0e3c 42c5 e23d c2b1 a4bd
000000f0: e884 c23d dc8b 0f3d 4086 92bd 80dc 73bb
00000100: c833 f63c 2aee e23d fcf6 09bd e8d6 e9bd
00000110: 20ba d83d f887 b6bd 38ed ce3d c4a6 8c3d
00000120: 681c 2abd 84a2 753d 9693 f43d 1088 43bc
00000130: 2aac aabd 6eea fb3d 7e51 873d 1814 dc3c
00000140: ccae 18bd a871 e03c e8db 7e3d fc9e 34bd
00000150: 2cfb 293d 0459 133d 1e0e bebd 12dc fd3d
00000160: dcd3 c1bd 70d7 77bc 184b a8bc 5090 543d
00000170: baae c8bd f029 94bd bc36 1fbd 3ef6 b0bd
00000180: 1cda c5bd 1453 12bd 74ac 91bd 8815 823c
00000190: 54cf 67bd 7819 0cbd 6c78 2bbd 2010 c03b
000001a0: e8c5 b0bc 4826 d3bc 001b 9d3c 9074 483d
000001b0: 28b3 6fbd 087c f9bc 2c13 9bbd 503f 94bc
000001c0: 102d f6bd 4c56 78bd 50ea cabc 0e8b f33d
000001d0: 9c3f c13d a88f cebd 542b 883d a6fa bfbd
000001e0: e065 863d fe62 bfbd cab2 aabd 4004 03bb
000001f0: 60ee c4bd d29f 97bd c469 2f3d 2042 f2bd
00000200: b88f 853c 1047 323c 4a36 973d de1c ac3d
00000210: 087c ebbd 668a aabd 52aa a63d 2090 3a3c
00000220: 9e26 8dbd 80ec 313d 3494 9a3d 7cf8 0b3d
00000230: 3cb1 cc3d 2021 08bc cae7 9dbd f6fb f9bd
00000240: 22d4 85bd a22e f0bd de95 8dbd 1e0a f53d
00000250: 84d0 273d c633 cabd 0484 2f3d c26f 89bd
00000260: 3a5b e4bd 50c3 0d3d 4096 6fbc 64d0 f2bd
00000270: 5cb0 e6bd 009a 1fbd 720c c83d 0820 23bd
00000280: 72c6 93bd d45c 64bd 6ca5 20bd 4e1c efbd
00000290: 9833 9bbd 3633 98bd d480 3b3d 4268 a83d
000002a0: dab5 823d 7a1f c73d 1043 afbc 441c ec3d
000002b0: b82e b53d 5882 64bd 843d 1abd 96f4 dabd
000002c0: 2052 8a3d b0f6 ab3d a0ad 79bc 12a9 c53d
000002d0: 60bb 153d 923f 853d 008c de39 b097 c0bc
000002e0: ca8f a43d ea35 adbd 002b 42bd 88c1 8fbd
000002f0: f49c 403d e062 e7bc de2e b33d 7e79 a0bd
00000300: 2420 033d 806b aebb f8c5 483d 9cb3 de3d
00000310: b058 2c3d 1428 04bd 42b5 ce3d f292 e03d
00000320: 94cc 02bd 30e2 b23d 244b 46bd 0cd0 6cbd
00000330: c020 ad3b 5245 eb3d 146c 153d eaa3 8e3d
00000340: fad1 c0bd 8053 f6bd 6017 f4bb a8fd f5bc
00000350: 54d3 163d dcc4 64bd 9c89 73bd 5437 bdbd
00000360: d88f 0cbd 00bd 3abd 9e77 cfbd 48a3 e53d
00000370: f43a 99bd 4ca4 7abd 887f 7d3d bcdc e9bd
00000380: 3e13 8fbd 808e be3b 8427 3a3d e436 d1bd
00000390: 8072 55bc 60bd eebd 18f8 83bd 3426 da3d
000003a0: c012 c43c aee0 eb3d 3e88 fabd 0e95 ce3d
000003b0: 50bb 4c3d 8232 fa3d 6685 a13d 4a23 86bd
000003c0: a865 15bd 287d b53c c09b a7bb 7006 c23d
000003d0: 50e9 653d 5039 d8bd a8fd bf3c d2d4 db3d
000003e0: a8b0 7dbd beac db3d 389c a73d dc7c 25bd
000003f0: c0f7 a1bd ec1e 1abd 900c 97bc 1c83 063d
-0.046606615 -0.096663356 0.08844638 -0.03332892 0.060139164 -0.07729386 0.0056739748 0.019759372
-0.01111947 0.107974574 -0.10717006 -0.1247316 0.00485979 0.06748989 0.022862598 0.10034688
-0.066244155 -0.112882674 -0.120311126 -0.0035271049 0.040720046 -0.10174374 -0.03684783 -0.017968476
-0.09415682 0.0119351 -0.053408206 -0.1237098 -0.012720153 0.097115725 0.005470887 -0.045713007
-0.045602992 -0.11918102 -0.06995432 0.06770186 -0.042983994 0.08365078 0.009442791 0.06346777
0.025744095 0.114692286 0.07154757 -0.10717231 -0.039460465 0.008220613 -0.11402506 0.088074
0.09085868 -0.097974 0.086313725 -0.06973262 -0.09323533 -0.10894148 -0.107679665 -0.0588682
-0.08845392 0.008675665 0.1107278 -0.08041717 0.09498006 0.03504549 -0.071545124 -0.0037210286
0.030053988 0.110805824 -0.03368281 -0.11417943 0.105823755 -0.08912653 0.1010384 0.068677455
-0.041530997 0.05996944 0.11942212 -0.011934295 -0.08333619 0.12300573 0.0660734 0.02686505
-0.037276074 0.027397946 0.062221438 -0.04409693 0.0414993 0.035973564 -0.092800364 0.12395491
-0.09464237 -0.015127048 -0.02054362 0.05189544 -0.097989514 -0.072345614 -0.03887056 -0.08640717
-0.09660742 -0.03572376 -0.07112971 0.015879408 -0.056594208 -0.034203976 -0.04186289 0.0058612972
-0.021578744 -0.02577509 0.019177914 0.048939288 -0.058520466 -0.03045465 -0.07572016 -0.018096596
-0.12020314 -0.060629174 -0.024769932 0.11891757 0.09435961 -0.10085994 0.06648889 -0.09373979
0.065624 -0.09345053 -0.083348826 -0.0019991547 -0.09615779 -0.0740353 0.042825475 -0.118290186
0.016303882 0.0108812 0.07383402 0.084039435 -0.114982665 -0.08327179 0.08137955 0.011386901
-0.06892131 0.043438435 0.07547799 0.03417252 0.09994742 -0.008308679 -0.07710226 -0.12206261
-0.06534602 -0.117276445 -0.069133505 0.1196482 0.04097034 -0.09873156 0.04285051 -0.06710769
-0.111502126 0.034610093 -0.014623225 -0.118561536 -0.11264107 -0.038965225 0.09767999 -0.03982547
-0.07215585 -0.05575259 -0.03922026 -0.116753206 -0.075782 -0.07431643 0.045777157 0.082230106
0.06382342 0.097228006 -0.021394283 0.11528829 0.088468015 -0.055788368 -0.037656322 -0.10691182
0.06753945 0.08396661 -0.015239149 0.09651388 0.036555648 0.06506266 0.00042447448 -0.02350983
0.08035238 -0.08457549 -0.04740429 -0.07019335 0.047024682 -0.02824539 0.087491736 -0.07835673
0.032013074 -0.0053228736 0.049016923 0.108741015 0.042076766 -0.032264784 0.10093166 0.109655276
-0.031933382 0.08734548 -0.048411503 -0.057815596 0.005283445 0.11487831 0.036480024 0.06964858
-0.0941505 -0.12027645 -0.0074490756 -0.03002818 0.036822632 -0.055851802 -0.059457406 -0.092390686
-0.034316868 -0.0455904 -0.10130237 0.11212784 -0.074819475 -0.061191842 0.0618892 -0.11419055
-0.06986092 0.005815327 0.04544784 -0.10215548 -0.013027787 -0.11657214 -0.064438045 0.10651818
0.023934722 0.115174636 -0.122330174 0.10087024 0.049983323 0.12216665 0.07886772 -0.065496996
-0.0364739 0.022154406 -0.0051150024 0.09473884 0.056130707 -0.105578065 0.023436382 0.10733952
-0.06193605 0.10726307 0.08184093 -0.04040228 -0.07908583 -0.037627146 -0.018438607 0.03283988

fc1.bias f4 [32]
00000000: 6e30 bb3d 107e 2abd 2034 493d 50a8 8d3c
00000010: c8c5 453d 704e d3bc 080c 86bd 9aa3 90bd
00000020: 307b 073c 2662 adbd be9e fabd 08ec 70bd
00000030: aab1 cf3d c03a 063d aad5 dc3d eca5 393d
00000040: dc23 093d d6cf b3bd 1017 c03c f68f f73d
00000050: 2a23 d63d 9417 97bd f6bb cebd c8a1 cebd
00000060: 00c0 c13c 98f5 06bd 5e7b b23d 6a40 c8bd
00000070: 8069 c33c c051 4bbc 6e62 e2bd 96ed f83d
0.091400966 -0.04162413 0.049121976 0.017292172 0.048284322 -0.025794238 -0.065452635 -0.070624545
0.008269116 -0.08465986 -0.12237309 -0.058818847 0.101413086 0.032770872 0.10782941 0.04532425
0.033481464 -0.08779876 0.023448497 0.12088005 0.10455926 -0.07377544 -0.100944445 -0.10089451
0.023651123 -0.03294906 0.08714937 -0.09777911 0.023854017 -0.012409627 -0.1105393 0.12154691

fc2.weight f4 [1, 32]
00000000: d766 293e fd06 14be 1312 743d 26c3 2e3e
00000010: bd8a fe3d 9b38 863d 38b7 0f3e 0c33 113e
00000020: 9c1a 9dbd 8e03 4fbd a955 a4bd 70e4 b5bc
00000030: f682 8abd 95c7 95bd 1c3b ec3d bd37 f23d
00000040: b99c d5bc eeab 213d ba81 273e d658 513d
00000050: 20c8 2a3e 56c6 b43d d5e6 163c b88f ec3d
00000060: 9f49 04be e682 9fbd 84a8 99bd 4fca 06be
00000070: f15d fd3d cd08 7b3d 75ca 823d a54d e43c
0.16543137 -0.14455791 0.05958755 0.1706663 0.12428806 0.065537654 0.14034736 0.14179629
-0.07671091 -0.0505405 -0.08024151 -0.022203654 -0.0676326 -0.07313458 0.11534712 0.118270375
-0.026075708 0.039470606 0.1635808 0.05111011 0.16677904 0.08826892 0.009210308 0.1155085
-0.12918709 -0.07788639 -0.07502845 -0.13163112 0.123714335 0.06128769 0.06386272 0.027869055
