output/out_models/dqn_models/basic/dlt_122.pth (torch, 9887 bytes, 3 tensors)

fc1.weight f4 [32, 64]
000000 80 b2 3e 3d b0 ec db bc fe 9c b5 3d 5c 75 16 bd
       0.04655695 -0.02684626 0.088678345 -0.036733016
000010 f6 47 90 3d 40 8a b7 bc 30 0c 72 3c cc ae 87 3d
       0.070449755 -0.02240479 0.014773414 0.06625137
000020 c2 c3 81 3d c0 73 df bd 06 d1 cb bd 20 4e 7f 3c
       0.06336166 -0.109107494 -0.099519774 0.015582591
000030 80 69 a4 3d 10 f2 ac bc 22 f4 fc bd 7e 36 c9 bd
       0.08027935 -0.021111518 -0.12351252 -0.09824847
000040 e8 52 ae bc 24 45 45 bd a0 3f 6f 3d ac 33 9d 3d
       -0.021279767 -0.04816164 0.058410287 0.07675871
000050 66 d3 f9 3d 90 9f c2 bd 86 7a c4 bd 80 35 69 3d
       0.12198524 -0.095030904 -0.09593682 0.056935787
000060 44 63 29 bd a4 fd a1 3d c4 38 40 3d 52 5c f6 3d
       -0.041354433 0.07909706 0.046929136 0.120293275
000070 a2 ef f0 bd 20 39 ed 3c dc 62 7d bd 5e ed fa 3d
       -0.11764456 0.028957903 -0.061861858 0.122523054
000080 48 a1 07 3d 0a a4 ba bd 3c a8 f5 3d 1c 7c 83 3d
       0.033112794 -0.09113319 0.11994979 0.06420156
000090 4c ff d1 bd dc 42 17 bd 40 71 b8 bc b0 b2 8e 3c
       -0.10253772 -0.036928996 -0.02251494 0.01741919
0000a0 80 fd 99 3a 52 c5 89 3d 4c 58 27 bd 2c 99 a4 bd
       0.0011748523 0.06727089 -0.04085569 -0.08037028
0000b0 c0 02 7f bd 44 71 6e bd f0 f3 2c 3d a0 b0 cd 3b
       -0.062258482 -0.058213487 0.042224824 0.006277159
0000c0 98 07 c5 bd fc ab 4f bd 88 60 aa bc 02 06 a5 bd
       -0.09620589 -0.050701126 -0.020797983 -0.080577865
0000d0 32 c3 91 bd b4 49 4a bd 98 ce 0a 3d 04 e6 85 3d
       -0.07117309 -0.049386695 0.03388843 0.065380126
0000e0 60 6b 16 bc b4 46 6c 3d 74 72 ba 3d 3c 09 0d 3d
       -0.009180874 0.057684615 0.091038615 0.034432635
0000f0 ac 83 7c bd 10 c0 d0 3d d8 81 cd 3c 26 38 bb bd
       -0.06164901 0.10192883 0.025086328 -0.09141569
000100 90 57 e6 bc 00 b0 8f 39 a4 f5 b1 bd 18 e2 b4 3c
       -0.028117925 0.00027406216 -0.0868943 0.022080466
000110 24 3e 05 3d c2 03 a7 3d 90 0c fd 3d cc 0d 73 bd
       0.032529965 0.081550136 0.12355912 -0.05933933
000120 62 ee 8f 3d e0 46 f7 3b f0 7f 45 3d 5c 13 8c 3d
       0.0702789 0.0075462908 0.048217714 0.0683963
000130 00 f1 4f 3c 4a f3 b3 bd c0 d6 e8 bc 1c ec 8c bd
       0.012691736 -0.08786638 -0.028422713 -0.06880972
000140 a6 43 e0 bd 50 a2 d3 3d e4 c3 ba 3d b0 07 aa 3c
       -0.10950403 0.10333693 0.091193944 0.020755619
000150 54 28 ae bd a0 a9 3c bd 90 12 f5 3c 12 6b f5 bd
       -0.08503786 -0.046060205 0.029916078 -0.11983313
000160 c8 64 92 bc 04 58 3b 3d e0 45 49 bc fc 80 7d bd
       -0.017870322 0.045738235 -0.012284726 -0.061890587
000170 ea 8b f0 3d c8 8c 9e bd 4c 89 5b bd 96 1b cd bd
       0.117454365 -0.07741696 -0.053597733 -0.10015027
000180 30 eb c3 3c 60 ca c2 bd b6 4a f2 3d 0e 83 94 3d
       0.023915857 -0.09511256 0.11830656 0.07251559
000190 44 df 2e 3d 34 8a 81 bd 00 00 cd b9 f4 b0 57 3d
       0.04269339 -0.06325188 -0.00039100647 0.05265899
0001a0 94 89 0e bd 14 68 1d 3d 00 ca 1a ba 88 65 40 3d
       -0.034799173 0.038429335 -0.0005904734 0.046971828
0001b0 4c 7e ea bd 4c f9 17 bd 40 b3 31 3d 30 52 9c 3c
       -0.114498705 -0.037102982 0.043383837 0.019082159
0001c0 b2 82 8e bd 44 93 29 bd 94 e7 64 bd 9c da e5 bd
       -0.06958522 -0.04140021 -0.055884913 -0.11223337
0001d0 94 03 4f bd d8 7a 46 bd 50 fb 34 3d 38 e7 de 3c
       -0.05054052 -0.048456997 0.044184983 0.027209863
0001e0 12 13 db 3d c4 c6 cb 3d 94 13 0e bd 80 79 24 3c
       0.10696997 0.09950021 -0.03468664 0.0100387335
0001f0 68 3e d7 bc 68 12 a3 bc e4 81 49 bd 98 fc 90 3c
       -0.026274875 -0.019906238 -0.04919614 0.017698571
000200 a6 b8 a9 bd cc 16 e2 3d 3e a5 ee 3d 04 16 d0 3d
       -0.08287172 0.110395044 0.11652611 0.10160449
000210 14 fc c8 bd 58 09 1c bd e8 98 1e 3d 58 02 c2 bd
       -0.09813705 -0.03809485 0.03872004 -0.09473103
000220 1c 7a 18 3d b8 df aa bc 68 cb 9f 3d ea c2 eb 3d
       0.037225828 -0.02085863 0.078024685 0.11511786
000230 62 4b f0 bd ac 9d d8 3d 80 30 8b 3c c2 1b cc bd
       -0.11733128 0.105769485 0.0169909 -0.09966232
000240 6e e7 97 3d 4a 06 92 3d 20 f9 df 3b 7c 82 95 3d
       0.074171886 0.07130106 0.006835118 0.073002785
000250 c8 7c 53 bd a8 6e 37 3d 00 50 f1 3b 20 65 c7 bc
       -0.051632673 0.044783264 0.007364273 -0.024340212
000260 00 41 1a 3c 1c 1d 92 bd 5c e5 53 bd 54 2d d8 bd
       0.009414911 -0.071344584 -0.051732406 -0.10555521
000270 14 9b 12 3d e4 ba d9 3d e4 00 d2 bd 40 e4 1e bc
       0.035792425 0.1063135 -0.10254076 -0.009697974
000280 78 a2 ac 3d f8 6c d2 3c e0 68 b1 3c b4 ed 6f 3d
       0.08429426 0.025686726 0.021656454 0.0585763
000290 be a0 e7 3d 44 2f 86 3d 50 eb 13 bd 70 b0 54 3d
       0.11309956 0.06551984 -0.036113083 0.051926076
0002a0 c8 36 34 3d ce 0e d4 bd be 68 82 3d b4 07 e3 3d
       0.043997556 -0.10354386 0.06367634 0.11085454
0002b0 7e c3 c6 3d 18 32 dc bc 40 c9 a8 3d 36 b2 84 3d
       0.09705256 -0.026879355 0.082415104 0.064793035
0002c0 f8 42 a3 bd 30 45 c2 bd c0 f8 b5 bd 46 07 bd 3d
       -0.07971758 -0.09485853 -0.08885336 0.09229903
0002d0 8a 77 f4 bd 14 d9 37 bd 40 6b 40 bb ca fd a5 3d
       -0.11936863 -0.044884756 -0.00293608 0.08105047
0002e0 d8 7b 1a bd e2 55 8e bd f0 e3 ca bc 26 3b 94 3d
       -0.037715763 -0.069499746 -0.024766892 0.07237844
0002f0 ca 5b 8e 3d e0 2a 82 bc 38 fb 8d bd 14 f6 96 3d
       0.06951101 -0.015889585 -0.06932682 0.073711544
000300 c6 be ec 3d 70 20 a9 bd e8 d2 ec 3c b8 b7 94 bd
       0.11559825 -0.0825814 0.028909162 -0.07261604
000310 c8 42 09 3d 40 04 69 3c 84 74 ac 3d 6a 73 d9 3d
       0.033510953 0.014222205 0.08420661 0.106177166
000320 2c 45 63 3d d4 57 00 3d ee 89 80 bd d8 f3 ad bd
       0.05548589 0.03133376 -0.06276308 -0.08493775
000330 78 da 0e 3d e6 2a 81 3d c0 85 a2 3c fc 84 4b 3d
       0.034876317 0.0630701 0.019839168 0.04968737
000340 12 66 bd 3d 54 bd ba 3d 46 39 cd 3d 38 02 2c bd
       0.09247984 0.09118143 0.1002069 -0.041994303
000350 e0 8e b9 3d e4 3b e2 3d ee c2 de 3d a8 41 ab bd
       0.09060454 0.110465795 0.10877024 -0.08362132
000360 10 25 fd 3d b8 9f 3a 3d 48 97 92 3d 20 4a ab 3c
       0.12360585 0.045562476 0.07157761 0.020909369
000370 ca dd e2 3d 24 3a 14 3d ac 7e 91 3d d0 5f fc bd
       0.11077459 0.03618826 0.07104239 -0.12322962
000380 fe c5 ae 3d 68 94 de 3d be 1c ed 3d 16 e1 a9 3d
       0.08533858 0.1086815 0.11577748 0.08294885
000390 60 b6 10 3c ce 3a e6 3d 30 55 df bd 7c 5c 79 3d
       0.008832544 0.11241685 -0.1090492 0.060879216
0003a0 40 92 0e bc 00 a8 2e 3b 08 5b 10 bd b8 54 ad bc
       -0.008701861 0.0026650429 -0.035243064 -0.021158561
0003b0 9c 4f 62 3d e0 60 4d 3d ac ce 00 3d 80 ae f3 3b
       0.055251703 0.050141215 0.031447098 0.0074365735
0003c0 c0 f0 8d bc d0 e8 9b bd ec 3e 83 3d 50 8f ac 3d
       -0.017326713 -0.07612765 0.06408486 0.08425772
0003d0 7a 24 d1 bd 20 4e 2f 3c ac c2 82 3d 04 37 37 3d
       -0.102120355 0.010699779 0.06384787 0.0447302
0003e0 ec 4a c7 bd 00 2f a8 bc c0 59 de bc b0 18 91 bc
       -0.09731087 -0.020530224 -0.027142406 -0.017711967
0003f0 ae 42 e4 bd 00 18 24 39 00 9d b3 bc 00 35 d5 bc
       -0.11145531 0.000156492 -0.02192545 -0.026026249

fc1.bias f4 [32]
000000 f8 5b a8 3c 48 1e b2 3d 28 ba 4c 3d 66 8a a9 bd
       0.020551667 0.08697182 0.04998222 -0.082783505
000010 4c 21 05 3d ba e5 df bd e0 13 ad bc 52 3a 95 bd
       0.032502457 -0.10932489 -0.021127641 -0.07286514
000020 84 1a 9e bd d8 0f a9 bc 70 65 a5 bc d8 ca 36 3d
       -0.07719901 -0.020637438 -0.02018997 0.04462704
000030 e0 b4 a5 bb a8 25 d9 3d 0c 8e 72 3d 26 82 92 bd
       -0.0050569624 0.106028855 0.059217498 -0.0715373
000040 40 61 56 bb c0 5f 8b 3c 90 13 54 3d 7a 55 80 3d
       -0.0032711774 0.01701343 0.05177647 0.06266303
000050 1e 12 86 3d b8 ca db bd 20 33 d5 bd 28 ce 31 bd
       0.06546424 -0.10732025 -0.10410142 -0.043409497
000060 7c 48 11 3d 36 5b d3 3d 6c 85 fb 3d 94 1d 3f 3d
       0.035469517 0.103201315 0.122813076 0.046659067
000070 38 63 9a bc 82 68 d8 3d 10 14 30 3c 30 d1 a8 bd
       -0.01884614 0.10566808 0.010746971 -0.08243024

fc2.weight f4 [1, 32]
000000 7e 2e 25 be 48 04 14 be 4e 86 09 3e 35 11 99 bb
       -0.16131017 -0.14454758 0.1343014 -0.0046712407
000010 b5 b5 41 3d ec 03 b1 bd 47 ba d7 3c 79 e6 df bc
       0.04729243 -0.08643326 0.026333941 -0.027331578
000020 91 60 a4 bd b2 cb c1 3d 7d e3 31 3e c9 f2 ef bd
       -0.08026231 0.0946268 0.17371936 -0.117162295
000030 dd 8e f5 bd ec a6 23 3e 7c e7 b4 bd 5d 7b 01 be
       -0.1199014 0.15981644 -0.08833215 -0.12644716
000040 f4 1b fa bd a9 95 17 be 3a dc 04 3e ee 7c 21 bd
       -0.12212363 -0.14803185 0.12974635 -0.039425783
000050 3f 6e b2 bd 0a dd 39 bc 19 66 05 be 2f fd be bd
       -0.08712434 -0.011344204 -0.13027228 -0.09325635
000060 9c 09 14 be e7 f5 8e bb 0e 58 8b bd 98 53 a4 3d
       -0.1445679 -0.00436281 -0.068039045 0.08023757
000070 58 6e ed bd 3c ac f4 bd f5 ef 0b be c1 8b 8f bd
       -0.11593312 -0.119469136 -0.13665755 -0.07009078
