output/out_models/dqn_models/basic/dlt_148.pth (torch, 9887 bytes, 3 tensors)

fc1.weight f4 [32, 64]
00000000: 1cc8 d3bd 90f3 7dbc 7e60 e63d a6a9 cd3d
00000010: 00c3 d2ba 6868 94bc a85c b2bc 207f d13d
00000020: 9829 9ebc b4b1 3d3d b4b2 7ebd ea15 98bd
00000030: bc52 cf3d 88db ff3c 1876 a5bc 7254 a63d
00000040: 007e b73d 3a72 aebd 58bb 8ebc 98e3 30bd
00000050: c871 d43c e6fc fd3d 36df 82bd 66bc c33d
00000060: 9017 11bc 70b6 d53c 5032 4a3c d022 3ebd
00000070: 28f3 2f3d 0a30 c8bd 24e5 0bbd c01b 81bd
00000080: 2047 723c 988b 5cbd 9204 c2bd 9cd4 82bd
00000090: 98a4 4c3d a877 f0bd 4490 09bd a4d3 b73d
000000a0: b827 813c 3c00 b4bd 66c0 b13d 002d 113c
000000b0: 10d6 d73d f8d7 213d 64d5 1f3d 5079 55bc
000000c0: c82b 28bd 72dd b8bd 5c9c 363d 22fb e5bd
000000d0: ec7d 403d 80f3 233d 1899 52bd 0266 91bd
000000e0: aa78 8d3d 2cbc 57bd 2e36 803d b6ae b53d
000000f0: 14ea 96bd c0eb 29bb 94d6 ee3d a02e 0abc
00000100: 60a2 633d 405f b43b cc2f 1e3d 80bd 573d
00000110: 58b8 db3c 18d7 df3c de38 c33d 02a2 ed3d
00000120: 1acc f1bd 0c1d 5cbd a0a0 4fbc 56d1 ef3d
00000130: 9029 743d a078 083d 8401 883d f805 a8bc
00000140: ca1a 9ebd 644c a4bd 4038 b7bd bcf0 b43d
00000150: 6c1f 74bd 30ed d5bc eaa5 d43d a808 a4bd
00000160: c808 8fbd 8093 22bd 52a8 c5bd 20c8 313d
00000170: 64e9 b43d 40bb dabb 1882 c93c 7ab9 edbd
00000180: 500b 283d de53 c5bd e0d3 b8bd ae9f cf3d
00000190: 0c2e 6dbd 6818 e7bd bab4 e8bd 6006 bf3d
000001a0: c4e9 903d 80d3 d5bb c08f 93bd c816 3dbd
000001b0: 00df 423a 3223 9c3d 0cb1 cb3d b810 f73c
000001c0: 00cd 043d fc5f aabd 68b8 9a3c 00f3 c63d
000001d0: b820 f43d ca9f ac3d aa49 d8bd 4c5c 883d
000001e0: 5cb7 e1bd 900c 063d 40ca 903d 1220 f3bd
000001f0: c042 b9bc 5ced 403d 4092 9fbb 0839 c2bd
00000200: 0c44 4bbd 78d8 c93d 40f0 adbb e6c8 eb3d
00000210: 904f 34bd 8016 ecba 48b5 e13d 665d c4bd
00000220: 80ab 3ebd d21f 8cbd 2e3a 82bd b853 0a3d
00000230: 6647 ae3d d0ba 463c dc80 1bbd 2c29 fdbd
00000240: 9a5d f53d 12a0 c4bd e442 b4bd 6e79 cf3d
00000250: a4f1 263d 98a0 afbd 6839 493d 00d4 f8bd
00000260: 3083 453c 52fd dcbd e06a 833c 5e15 c9bd
00000270: 8ab0 d13d b0e4 26bd 18a0 fbbd 0099 dabb
00000280: 66c3 983d 00aa 093b 9e78 cabd 4039 aebc
00000290: 74be 803d 3896 d3bc 4883 dcbc 302e 3d3d
000002a0: c8d8 8fbc 48a1 92bd 3692 fa3d 4663 cebd
000002b0: 405d 10bd ec88 983d a40c 713d f848 b1bc
000002c0: 6ead 803d 2c98 393d 9440 e33d ecd6 073d
000002d0: aa95 bfbd 4482 4a3d e630 a83d c8d2 c6bd
000002e0: a859 833c 5042 423c 4014 e13c 7878 e3bc
000002f0: 46bf d43d 20a3 723d 84ad aa3d 6696 f33d
00000300: 5061 f73d 603b 8b3d fc86 96bd 9c3f 56bd
00000310: be24 db3d 4498 7d3d 58ad 93bd d8b4 a7bd
00000320: ccbc 473d 000f d8ba 98e8 a63c 5847 4b3d
00000330: 32f3 bebd 6024 a93d 3038 c4bc 72d9 bdbd
00000340: b051 5a3d acec 7b3d 08d1 aabd accc 1bbd
00000350: 7866 dfbd 60e5 893b 006c 103a d0cc c63d
00000360: 604a 18bc 708f 76bd 7091 853d 1ee6 9cbd
00000370: fc9c 603d 5051 923c b490 683d 50e4 823d
00000380: b8b7 2b3d 9607 a2bd 7cc6 81bd a0a8 64bc
00000390: 943f f8bd a08b 86bd 92a0 fc3d 7665 b43d
000003a0: 2c99 133d c016 94bd bc9b cbbd 66a3 e53d
000003b0: 86a3 8bbd a824 d43d 7099 c63c f0f8 9abc
000003c0: 14d6 c2bd 663e e0bd 30a1 f1bc 8a20 86bd
000003d0: 4c26 213d 9c73 0a3d 1039 4bbc 8e68 c53d
000003e0: 58ba 573d 6093 81bc f8f2 40bd 7049 0e3c
000003f0: c0ad d73d 80cb 9d3b 20fb 67bd 0055 e2bd
-0.10340902 -0.015499964 0.11248873 0.100421235 -0.0016079843 -0.018116191 -0.021772698 0.10229325
-0.019306943 0.04631205 -0.062182143 -0.07426055 0.10123202 0.03123261 -0.020197913 0.081215754
0.089595795 -0.08517881 -0.017423317 -0.0431858 0.025933161 0.12401752 -0.0639023 0.095574185
-0.008855715 0.02608797 0.012341097 -0.04641992 0.0429565 -0.09774788 -0.034154072 -0.06304121
0.014787465 -0.053844064 -0.09473528 -0.06388208 0.049961656 -0.117415726 -0.033584848 0.08975914
0.01576601 -0.08789107 0.08679275 0.0088608265 0.10538876 0.039512604 0.039021865 -0.013029411
-0.041057378 -0.09026612 0.04458271 -0.112295404 0.04699509 0.04002714 -0.051415533 -0.070995346
0.069077805 -0.05266969 0.06260334 0.08871214 -0.073688656 -0.0025927871 0.11662021 -0.008433968
0.055574775 0.0055045187 0.0386198 0.052670956 0.0268213 0.027324244 0.09532331 0.11603166
-0.118065074 -0.05373864 -0.012672573 0.117098495 0.05960995 0.033318162 0.06640914 -0.020510659
-0.07719953 -0.08022383 -0.08946276 0.08834979 -0.05960028 -0.026114076 0.10383208 -0.080094635
-0.06984097 -0.03969145 -0.09651245 0.043403745 0.08833578 -0.006675154 0.024598166 -0.116076425
0.041026413 -0.09635137 -0.09024787 0.10137878 -0.05790524 -0.11283952 -0.11362596 0.09327388
0.07075837 -0.006525457 -0.072051525 -0.046164304 0.0007433742 0.076239005 0.099458784 0.03015934
0.032422066 -0.08319089 0.01888676 0.09714317 0.11920303 0.08428915 -0.10560925 0.06658229
-0.11021301 0.032726824 0.07069826 -0.11871351 -0.022614837 0.047101364 -0.0048697293 -0.09483534
-0.04962544 0.09855741 -0.005308181 0.11512928 -0.04402119 -0.0018012077 0.11020905 -0.09588127
-0.046550274 -0.06842007 -0.06358753 0.033771247 0.08509712 0.0121295005 -0.037964687 -0.123613685
0.11980744 -0.096008435 -0.08801821 0.10130583 0.04075779 -0.08575553 0.049127012 -0.12149811
0.012055203 -0.107905045 0.016042173 -0.098185286 0.1023875 -0.040745437 -0.12286395 -0.006671071
0.07459144 0.002100587 -0.09886287 -0.021267533 0.06286326 -0.025828466 -0.026918069 0.046186626
-0.017559424 -0.07159668 0.12234919 -0.10077529 -0.03524518 0.07447991 0.058849946 -0.02164124
0.06283079 0.045311138 0.11096302 0.03316395 -0.09354718 0.049440637 0.08212452 -0.09708172
0.016033962 0.01185663 0.027475476 -0.027767405 0.10388045 0.0592376 0.08333877 0.118939206
0.12079108 0.06798434 -0.07349965 -0.052306756 0.107003674 0.06191279 -0.07210797 -0.0818879
0.048764035 -0.0016483963 0.020374581 0.049628586 -0.093237296 0.08258891 -0.023952574 -0.0926999
0.05330056 0.061505005 -0.08340651 -0.038036987 -0.10908216 0.004208252 0.00055092573 0.09707034
-0.009295076 -0.060195386 0.065218806 -0.07661079 0.054837212 0.017861038 0.056778625 0.063912034
0.041923255 -0.07911603 -0.06336686 -0.013956219 -0.121215016 -0.065696 0.12335314 0.08808415
0.036034748 -0.07230902 -0.09941813 0.112128064 -0.06818299 0.10358554 0.024243087 -0.01891753
-0.095134884 -0.109494016 -0.029495806 -0.06549175 0.039343163 0.03380166 -0.0124037415 0.09639083
0.052667946 -0.015817344 -0.047106713 0.008684501 0.10531187 0.004815519 -0.056635976 -0.11051369

fc1.bias f4 [32]
00000000: 783e abbc b436 d93d 849b dfbd a27e ce3d
00000010: f869 d6bc 60b7 383c 70a0 963c 70d7 4dbd
00000020: 903f a8bc b029 bebd 0054 1dbc 786e 8f3c
00000030: ea4b 843d 9c98 06bd 24e8 d1bd 4c40 f83d
00000040: 1425 4bbd 5e12 9dbd 96f0 c9bd 4af9 c4bd
00000050: 6cc6 bbbd 80a4 a9bb 0044 77bb c0fd 5a3b
00000060: ca28 f6bd a8e3 523d 2472 bcbd 6414 e6bd
00000070: 8877 6dbd 0028 bb3c 281a 1bbd e874 753d
-0.02090381 0.10606137 -0.10918334 0.10082747 -0.026173577 0.011274189 0.01838705 -0.050254285
-0.020538121 -0.09285295 -0.009602547 0.01750873 0.06459792 -0.032860383 -0.102493554 0.12121639
-0.049595907 -0.07669519 -0.09860341 -0.096178606 -0.09168705 -0.0051770806 -0.003772974 0.0033415407
-0.12019499 0.05148664 -0.09201458 -0.11234358 -0.057975322 0.022846222 -0.03786674 0.059925944

fc2.weight f4 [1, 32]
00000000: 8e5f e43d 2b73 18bd b559 093e b0d2 d03d
00000010: 234c 3f3d a2c3 223e c4ba 953d 897a 043e
00000020: 7136 71bd 6f3e 87bd eae2 11be 92a8 da3d
00000030: aabb cb3b 4bd8 22be c266 c0bb ab73 2a3d
00000040: 210f c93d 2671 6e3d 984d f2bd 96d0 d0bd
00000050: 69b4 0d3d c56c 27be 784c 2e3d 5403 653d
00000060: b9d8 363d 179e 1abd 3d9c 843d 1a78 d6bc
00000070: 8456 513d 7a51 41bd f2cf 153e 4fcf 193e
0.11151038 -0.037219208 0.13413127 0.101964355 0.04670347 0.1589494 0.07311013 0.12937368
-0.05888981 -0.06603705 -0.14246717 0.106766835 0.0062174397 -0.15902822 -0.0058716247 0.041614216
0.09817339 0.058213376 -0.11831206 -0.101960346 0.03459588 -0.16350086 0.042553395 0.055911377
0.044640277 -0.037748422 0.064751126 -0.026180316 0.0511079 -0.047196843 0.14630106 0.15020488
