output/out_models/dqn_models/irl/add_282.pth (torch, 9887 bytes, 3 tensors)

fc1.weight f4 [32, 64]
0.001718043 0.12566474 -0.04694904 -0.044897128 -0.11757191 -0.023077846 -0.061933033 0.020080704
-0.08580854 -0.02062139 -0.07275493 0.07644691 0.00554237 -0.07852298 0.0138927 0.015951427
-0.12421639 0.033849526 0.037898704 0.09188701 0.0580993 -0.101648964 -0.0376573 -0.045823615
-0.08712236 -0.0958347 0.102262676 -0.0733745 -0.07988918 -0.058892906 0.013738042 0.034132205
-0.033384748 0.0813669 -0.045074597 0.09961769 -0.072626926 0.091547914 -0.04309118 0.050815195
0.00809146 0.07948062 -0.09854704 0.05387003 0.076575726 -0.09139776 -0.011800425 -0.010503983
-0.050197244 0.08484559 -0.03260284 0.004005257 0.06511614 0.019155316 0.11234319 0.0076529994
-0.000924716 0.067703694 0.09340733 -0.029941766 0.07752725 0.018360542 0.066363506 0.05698307
-0.035802506 0.08088191 0.11513095 -0.02501206 -0.09179457 -0.08377215 -0.034914687 0.012836168
-0.04929899 0.120101646 -0.061559 0.0070007355 0.1134261 0.08136229 -0.03549748 0.005869051
0.0072192103 -0.026769225 -0.09341159 -0.08237978 -0.014253558 -0.03090096 -0.12451948 0.03609247
-0.093030676 -0.09205833 -0.05788356 -0.037932888 -0.10038183 0.009672022 -0.044233978 -0.11231704
0.0857357 0.020433366 -0.07647119 -0.12061756 0.06958204 -0.027859757 0.08348274 -0.035968006
0.025601093 0.0055170557 -0.09091423 -0.0074734865 0.103248805 0.107699074 0.08361889 -0.07976636
-0.089195 0.10802043 -0.10867643 0.038675915 0.079201356 -0.04271123 0.0033927425 0.06681407
0.018040828 0.11201754 0.0012790292 -0.02540332 0.029536288 0.06568673 -0.12448088 -0.12194053
-0.06368403 0.065946475 -0.11899491 0.013165325 -0.009863779 -0.023211673 -0.025762022 -0.100197345
-0.048796535 -0.03295532 -0.018875986 0.009865776 -0.12349445 -0.094915226 0.09887074 -0.06184347
0.011332229 -0.098167986 -0.025012791 0.017408103 0.014288038 -0.090485945 -0.005257651 -0.06724554
-0.061311007 0.11314899 0.0964037 -0.11403495 0.08354081 -0.010125354 0.076106936 0.05318144
-0.080281496 -0.015614271 -0.12068105 0.060693517 -0.07853772 -0.117310286 -0.020049214 -0.12108053
-0.0257992 0.082411736 -0.12468311 0.028374836 0.03610836 -0.11452791 0.09887153 0.06596711
0.013342142 -0.07098471 -0.015156254 -0.0963285 -0.11704998 -0.08642575 -0.022120014 0.05191177
0.12211129 0.008923441 0.10176997 -0.112922534 -0.005227968 0.1068681 0.012119204 0.048900947
-0.11766654 0.059860185 -0.114105985 0.116263986 0.084973246 -0.09587085 0.10112977 -0.079586685
0.04874651 0.027111113 0.12407762 -0.008569479 -0.101481006 -0.09407662 0.11928585 0.044199258
0.02213341 -0.01282756 -0.040188044 0.025914833 0.1046823 -0.028906226 -0.006819591 0.07530697
-0.121401325 0.011211187 0.06926735 0.012602523 -0.021561489 0.07173757 -0.12100369 0.11642204
-0.05454509 -0.10734807 0.04859358 0.032413736 -0.093149245 -0.04028912 -0.043273866 0.07557404
-0.012004927 0.07296474 -0.11339636 0.0026208013 -0.029535532 0.034528404 -0.039863363 0.015245706
0.119085476 0.016545743 -0.053356722 0.05461894 -0.046456963 0.119835645 0.0748426 0.014660791
-0.064116836 0.02577804 0.08063111 0.06743185 0.04612805 -0.06885663 -0.018051714 0.0062287897
00000000: f52f e13a 42ae 003e a34d 40bd 0de6 37bd
00000010: 8bc9 f0bd c00d bdbc 7ead 7dbd 4a80 a43c
00000020: 63bc afbd 30ee a8bc 8900 95bd 3390 9c3d
00000030: c59c b53b a8d0 a0bd 359e 633c 91ac 823c
00000040: 2a65 febd cda5 0a3d ac3b 1b3d 422f bc3d
00000050: 88f9 6d3d 552d d0bd 8a3e 1abd 8bb1 3bbd
00000060: 356d b2bd fc44 c4bd 186f d13d 5f45 96bd
00000070: f09c a3bd b039 71bd 8615 613c 36ce 0b3d
00000080: 72be 08bd b0a3 a63d 24a0 38bd 5c04 cc3d
00000090: 6dbd 94bd 797d bb3d 6180 30bd 9823 503d
000000a0: 0b92 043c bcc6 a23d 08d3 c9bd d2a6 5c3d
000000b0: bcd3 9c3d c02e bbbd 9256 41bc e618 2cbc
000000c0: a09b 4dbd 86c3 ad3d 8e8a 05bd 883e 833b
000000d0: 9c5b 853d 9ceb 9c3c 3014 e63d 03c6 fa3b
000000e0: a468 72ba 3ca8 8a3d 584c bf3d 6f48 f5bc
000000f0: 9bc6 9e3d d968 963c 97e9 873d 1467 693d
00000100: a6a5 12bd 6aa5 a53d c7c9 eb3d 17e6 ccbc
00000110: cbfe bbbd bc90 abbd b402 0fbd ca4e 523c
00000120: bded 49bd daf7 f53d 4a25 7cbd 6d66 e53b
00000130: f14b e83d 46a1 a63d ce65 11bd 2b51 c03b
00000140: 208f ec3b 224b dbbc 934e bfbd bbb6 a8bd
00000150: c187 69bc 0324 fdbc 1204 ffbd b3d5 133d
00000160: de86 bebd 1489 bcbd 5017 6dbd 845f 1bbd
00000170: fd94 cdbd 6777 1e3c b02e 35bd 7a06 e6bd
00000180: 3396 af3d e063 a73c ed9c 9cbd 5706 f7bd
00000190: 0781 8e3d 253a e4bc 00f9 aa3d 3053 13bd
000001a0: 62b9 d13c 6bc8 b43b 3d31 babd 26e4 f4bb
000001b0: 1c74 d33d 5591 dc3d 6140 ab3d 8c5c a3bd
000001c0: deab b6bd d139 dd3d c091 debd a36a 1e3d
000001d0: 5234 a23d f9f1 2ebd c658 5e3b d1d5 883d
000001e0: 5cca 933c 7469 e53d 19a5 a73a a01a d0bc
000001f0: 16f6 f13c c486 863d d5ef febd f5bb f9bd
00000200: c66c 82bd f20e 873d 9ab3 f3bd 60b3 573c
00000210: b09b 21bc 6826 bebc e00a d3bc 4434 cdbd
00000220: e0de 47bd 28fc 06bd d0a1 9abc 10a4 213c
00000230: a8ea fcbd ea62 c2bd be7c ca3d 944f 7dbd
00000240: d0aa 393c 4c0c c9bd a0e7 ccbc 709b 8e3c
00000250: 6018 6a3c b250 b9bd 6048 acbb 08b8 89bd
00000260: 4021 7bbd a8ba e73d 4e6f c53d 288b e9bd
00000270: 7217 ab3d d0e4 25bc f4dd 9b3d c8d4 593d
00000280: a06a a4bd 00d3 7fbc a027 f7bd c499 783d
00000290: 62d8 a0bd 6040 f0bd 403e a4bc 12f9 f7bd
000002a0: d858 d3bc 7cc7 a83d dc59 ffbd 5872 e83c
000002b0: 5ce6 133d 9c8d eabd 287d ca3d c419 873d
000002c0: 0099 5a3c 6e60 91bd f051 78bc e047 c5bd
000002d0: e6b7 efbd fcff b0bd 0835 b5bc 70a1 543d
000002e0: 7c15 fa3d a033 123c c66c d03d ee43 e7bd
000002f0: 604f abbb aadd da3d a08f 463c 5c4c 483d
00000300: 28fb f0bd f42f 753d 66b0 e9bd d01b ee3d
00000310: 7406 ae3d f057 c4bd 201d cf3d 58fe a2bd
00000320: 6caa 473d 2018 de3c 681c fe3d 0067 0cbc
00000330: 46d5 cfbd 3eab c0bd 244c f43d 480a 353d
00000340: 2051 b53c b02a 52bc 389c 24bd 584b d43c
00000350: ac63 d63d c0cc ecbc e076 dfbb 8a3a 9a3d
00000360: 42a1 f8bd 20af 373c 0adc 8d3d d07a 4e3c
00000370: b8a1 b0bc 26eb 923d c8d0 f7bd ae6e ee3d
00000380: ac6a 5fbd 4ed9 dbbd 100a 473d 44c4 043d
00000390: 08c5 bebd 3406 25bd f03f 31bd 90c6 9a3d
000003a0: 50b0 44bc 8a6e 953d 5a3c e8bd c0c1 2b3b
000003b0: 80f4 f1bc a86d 0d3d c447 23bd 20c9 793c
000003c0: 16e3 f33d f08a 873c 948c 5abd 1cb8 5f3d
000003d0: a849 3ebd 646c f53d 1447 993d d033 703c
000003e0: b04f 83bd 782c d33c ec21 a53d b619 8a3d
000003f0: c4f0 3c3d b404 8dbd 30e1 93bc e01a cc3b

fc1.bias f4 [32]
-0.06871495 0.114829786 -0.106496885 -0.10329436 0.00022806779 -0.107731074 -0.047337696 -0.08446697
-0.11444966 -0.0039614774 -0.014912103 -0.048253417 -0.100662425 0.046175778 0.012260727 -0.0794345
-0.032482415 -0.11471311 0.10728966 -0.04778129 -0.047302797 0.03635539 0.07009559 -0.062364757
-0.06507507 0.031263683 -0.051101662 -0.07538878 -0.07663084 -0.11767313 -0.042050064 -0.020149793
00000000: 6cba 8cbd e12b eb3d 0a1b dabd fe8b d3bd
00000010: 7b25 6f39 1ca2 dcbd 2ce5 41bd 05fd acbd
00000020: 9564 eabd 48cf 81bb e551 74bc 60a5 45bd
00000030: 1a28 cebd d022 3d3d 37e1 483c 8eae a2bd
00000040: 480c 05bd b5ee eabd aeba db3d 50b6 43bd
00000050: 94c0 41bd 64e9 143d 478e 8f3d 3072 7fbd
00000060: 1446 85bd 590e 003d fa4f 51bd 6f65 9abd
00000070: a1f0 9cbd 9cfe f0bd b03c 2cbd 2e11 a5bc

fc2.weight f4 [1, 32]
-0.16254823 0.010633476 0.052137274 -0.09457616 -0.08423918 -0.08189514 -0.068129495 0.030648293
-0.081385724 -0.09002269 0.02207096 -0.05880225 0.0886006 -0.055163838 0.17040943 0.046602044
-0.048221685 0.034687765 0.09977385 0.08150056 -0.17120184 0.022769919 -0.13699861 -0.1469612
0.140424 0.1641703 -0.14373925 0.10193723 -0.14093001 0.12347252 0.014843509 0.113598175
00000000: 0b73 26be 0838 2e3c e58d 553d 25b1 c1bd
00000010: 9785 acbd a4b8 a7bd 7a87 8bbd 2112 fb3c
00000020: 8fad a6bd d15d b8bd 28ce b43c a1da 70bd
00000030: 3b74 b53d 7af3 61bd cf7f 2e3e c9e1 3e3d
00000040: 1a84 45bd c214 0e3d 3b56 cc3d c4e9 a63d
00000050: 894f 2fbe fb87 ba3c 5d49 0cbe ff7c 16be
00000060: 4fcb 0f3e 421c 283e 6230 13be 77c4 d03d
00000070: f54f 10be 29df fc3d 3032 733c 29a6 e83d
