output/out_models/dqn_models/irl/add_130.pth (torch, 9887 bytes, 3 tensors)

fc1.weight f4 [32, 64]
000000 88 94 b1 bd b0 52 86 3d 8c 03 8b 3d c8 a3 d7 3d
       -0.08670908 0.0655874 0.06787786 0.10529286
000010 02 41 a1 3d 86 9d d1 bd d8 cd d4 bc 2a c9 8e bd
       0.078737274 -0.10235123 -0.02597706 -0.06971963
000020 ce 9a ad 3d 62 ac fc bd 70 a1 a3 bc f8 6b f8 3c
       0.08476792 -0.12337567 -0.01997444 0.030324921
000030 8c 33 8e bd d0 1a ca 3c 52 ac 81 bd 5e 26 93 bd
       -0.069434255 0.024670988 -0.063316956 -0.07185052
000040 f6 e6 a5 3d 9e af fd bd de f8 87 bd b0 8d c0 3c
       0.08100693 -0.12387012 -0.066392645 0.023505062
000050 d0 29 e2 3d 3c 84 15 3d 44 fb 54 bd 2c 53 2d 3d
       0.11043131 0.03650306 -0.051997438 0.042315647
000060 c4 da ae bd 90 bc 89 3d 72 90 ac 3d 60 49 30 bc
       -0.0853782 0.067254186 0.08425988 -0.010759681
000070 d0 88 c9 bd 86 be 8d bd c0 44 a1 3d 10 d7 0e bc
       -0.09840548 -0.06921105 0.07874441 -0.008718267
000080 38 1c 5d 3d 86 90 87 bd 90 0c 1a 3c a8 b3 a2 bd
       0.05398199 -0.066193625 0.009402409 -0.07944423
000090 d0 52 7f 3d 34 17 63 bd 0c e4 c9 bd 6a f5 d4 bd
       0.062334836 -0.05544205 -0.098579496 -0.103983715
0000a0 52 46 fb bd 40 08 d6 bc 00 20 b8 3b 70 6b ef bd
       -0.12269272 -0.02612698 0.005619049 -0.11690414
0000b0 f8 14 f1 3c ca a3 f8 3d 20 4b 8a bb d6 26 fb 3d
       0.029428944 0.12140615 -0.0042203814 0.12263267
0000c0 d8 3b f0 3c f4 3b 9b bd f4 36 a4 3d 5e ac dc 3d
       0.02932541 -0.075797945 0.08018294 0.10775064
0000d0 38 70 83 bc 90 27 e7 bd ce d5 94 3d e4 8e 68 3d
       -0.016044721 -0.11286843 0.072673425 0.056776896
0000e0 96 6b a5 3d 10 ca 39 3d 78 51 b9 bc 40 f8 6c bd
       0.08077161 0.045358717 -0.022621855 -0.057853937
0000f0 90 50 84 bc 08 d1 c9 3c 10 c1 61 bd d2 93 e2 bd
       -0.016151696 0.024635807 -0.05511576 -0.11063351
000100 fe 79 e2 bd 33 6b ca 3c 9c 1c a8 bd 43 90 fa 3c
       -0.110584244 0.02470932 -0.08208582 0.030586367
000110 60 07 1a bd 95 12 73 bd 33 9c c6 bd ea c4 b3 3c
       -0.03760469 -0.059343893 -0.096977614 0.021944482
000120 81 e0 d4 3d 54 fb 9a 3c 37 42 c8 bd 07 a3 8f bd
       0.10394383 0.01891867 -0.097782545 -0.07013517
000130 cc 99 88 bd 58 4d df 3d 09 6a ae bd 6a ba 8e 3d
       -0.066699594 0.10903424 -0.08516318 0.069691494
000140 12 41 cb bd 76 d1 a5 bd 0a 87 65 bd a1 1b 1c 3d
       -0.099245206 -0.08096592 -0.056036986 0.038112286
000150 69 b1 ed bd d1 76 a9 bd 26 3a a3 bd f0 60 9f bd
       -0.11606104 -0.082746156 -0.07970075 -0.07782161
000160 8a 39 dd bd c7 33 30 3d 84 34 f0 bd 68 2e a3 3d
       -0.1080199 0.04301813 -0.117287666 0.07967836
000170 e4 f7 32 bd 11 cc b8 3d bf 7d 93 bb 0f f7 07 bd
       -0.04369344 0.090232976 -0.004501074 -0.033194598
000180 9a b0 d7 bc 8c ef e1 bd 96 99 93 bc e2 4c 9a 3d
       -0.026329327 -0.11032018 -0.018017571 0.075341955
000190 da 57 f5 3d 2a 39 fc bd 2e c9 b2 3d f9 1a 03 3c
       0.11979647 -0.12315591 0.08729778 0.008002036
0001a0 b2 70 d9 3d 17 91 a7 3d 52 18 13 bd cb 6a 95 3d
       0.10617198 0.081819706 -0.035911866 0.0729576
0001b0 22 63 d8 bd 2a 54 ff 3c 23 8f bb 3c fe d3 b6 3b
       -0.10565783 0.031168062 0.022895401 0.0055794707
0001c0 dc 7a 25 3d 84 c3 ca bd 33 e9 6d bc 06 10 cc bd
       0.04040037 -0.09900573 -0.014520931 -0.09963994
0001d0 93 0e e0 bd 87 bd 5e bd 16 3e 1a bd 0f 3b a9 3d
       -0.1094028 -0.054379966 -0.037656866 0.08263218
0001e0 82 ea 87 bc 8e 22 d7 bc 88 b5 7d 3c f5 b6 c0 3d
       -0.016591314 -0.026261594 0.015485175 0.09409896
0001f0 59 66 10 3d ec c5 12 bd ef 7a f7 3d 0d 16 d1 3d
       0.035253856 -0.035833284 0.120839946 0.10209284
000200 c4 32 e9 3d d0 94 b3 bd cc a6 91 bd 24 ab 7c bd
       0.11386636 -0.08768618 -0.07111892 -0.06168665
000210 ec 4f 3e bd be 1d e6 3d 60 b7 f4 bb dc 7f 05 3d
       -0.04646294 0.112361416 -0.007468149 0.03259264
000220 ea e7 82 bd f0 c5 6b bc 60 1d b8 bd b8 49 48 bd
       -0.0639189 -0.014390454 -0.08989978 -0.04889843
000230 98 dc 91 3c 7c dc 4d 3d fc 98 07 3d 82 94 f8 3d
       0.017805383 0.0502591 0.03310488 0.121377006
000240 60 72 9b 3c 76 1b ca 3d ec eb 7c 3d 6e 64 e4 bd
       0.018975437 0.09868519 0.06174843 -0.11151968
000250 aa 5f aa bd fc 42 15 bd 46 23 c1 3d 0c c7 18 3d
       -0.08319028 -0.036440834 0.09430556 0.0372992
000260 86 21 8b 3d 0e 66 cf 3d 8c e3 d9 bd 76 e2 fe bd
       0.067935035 0.10126887 -0.10639104 -0.12445538
000270 94 87 48 bd 70 1f e7 bd b6 fb dc 3d dc 7c 09 bd
       -0.048957422 -0.11285293 0.107901976 -0.03356634
000280 88 ad bb bc fc 9a cf bd 54 08 c7 bd 5c da ce 3d
       -0.022909895 -0.10136983 -0.09718385 0.101002425
000290 90 da 46 bd c0 8a 2c 3b 80 1c 8f 3c 80 42 75 bb
       -0.04854828 0.0026327819 0.017469645 -0.003742367
0002a0 ae 61 ee 3d 64 e3 ed bd be e6 8f bd 6c 06 20 bd
       0.11639725 -0.11615637 -0.070264325 -0.039068624
0002b0 d8 41 2d 3d 54 aa a0 3d 88 86 fe bc 4a 81 f1 bd
       0.04229912 0.078449875 -0.031070009 -0.11792238
0002c0 0c 71 83 3d 10 6e 07 bd 58 17 73 3d f4 4a 57 3d
       0.06418046 -0.03306395 0.059348434 0.052561715
0002d0 80 2e af bd 04 2c e9 3d 6e b6 fc 3d ea ea ac 3d
       -0.08553791 0.113853484 0.12339483 0.08443244
0002e0 7c 5d 17 3d 3c 22 dd bd 54 01 c1 bd 40 73 d6 bd
       0.036954388 -0.10797545 -0.094240814 -0.10471201
0002f0 e0 af a7 bb 00 e8 92 39 28 57 e6 3c 20 64 79 bd
       -0.0051174015 0.00028020144 0.028117731 -0.060886502
000300 64 c7 7b bd 1b 47 87 bd 0d 91 8f 3c f7 47 5c 3d
       -0.06146945 -0.06605359 0.01752522 0.05377957
000310 94 b8 9e 3d 7a 84 00 3e a2 48 b7 bc 96 0c de bd
       0.07750049 0.12550536 -0.022373501 -0.10842244
000320 3b c2 9a bd 3a e0 21 bd 6b b2 9c 3d ed 58 6a bd
       -0.07556578 -0.03952048 0.07651218 -0.057213712
000330 78 c4 d2 bd fe cc 65 bd 53 cb 88 bd 7c ef f1 3d
       -0.1029138 -0.0561037 -0.06679406 0.11813256
000340 40 a1 a5 bd 1c b4 b9 bd 91 b0 88 bd 26 78 3e 3c
       -0.080873966 -0.09067556 -0.06674302 0.011625325
000350 b6 e0 4b 3d 46 93 8d bd 40 3d fd bc ee 80 dc bd
       0.049774848 -0.06912856 -0.030912995 -0.10766779
000360 c5 89 ca bd 75 6d 43 3b 54 02 f3 bd d1 e3 b6 bd
       -0.09889559 0.002981988 -0.118656784 -0.08930171
000370 cc 3c 56 3d df e1 22 bd 8c 3f f9 3d 38 fb 48 3c
       0.052304074 -0.03976619 0.12170324 0.0122669265
000380 28 8b 6a bd 18 0c d9 bc f6 a6 9b 3c 43 6d e6 bd
       -0.057261616 -0.026495025 0.019000512 -0.11251309
000390 b9 c2 32 bd 8d 57 ed bc 4d c6 c2 3d 67 e3 58 3d
       -0.043642733 -0.028972412 0.09510479 0.052951243
0003a0 78 15 7c 3c a7 1c d2 3d da f3 dd 3d a2 4a b3 bd
       0.015385978 0.10259371 0.108375266 -0.087544695
0003b0 cd 72 b9 3b 4a e3 ec 3d 49 3a 38 3d ce ff 59 bd
       0.0056594373 0.115667894 0.04497746 -0.05322247
0003c0 9e 92 f1 3d 94 f8 cf 3c bc dc 7f bd 84 ed 24 bc
       0.11795543 0.025387086 -0.062466368 -0.010066394
0003d0 b4 a1 c3 bc 81 90 52 3d 7c 84 0c 3a d0 36 bb bc
       -0.023880817 0.05140734 0.0005360318 -0.022853285
0003e0 76 c5 24 bd 10 16 b8 3d 42 b2 98 3d c9 6b d4 3c
       -0.040227376 0.08988583 0.07455875 0.025930302
0003f0 4b 2c 32 bb c3 db cd 3d 19 e1 d8 b8 70 fc a2 bd
       -0.0027187045 0.10051682 -0.0001034161 -0.07958305

fc1.bias f4 [32]
000000 84 b6 07 3d fd 7e a0 3d 90 33 69 3c 7e 8a d1 bc
       0.033133045 0.07836721 0.014233485 -0.025578734
000010 a4 1b a1 3d 3a 19 a7 3d 60 d8 01 bd 2c 4f d5 3d
       0.078666 0.081591085 -0.031700492 0.104154915
000020 c6 5e 7d 3d 2c de 30 3b 0a a0 12 bd 40 84 65 3b
       0.06185796 0.0026987894 -0.035797156 0.0035021454
000030 10 99 ca 3d 22 a0 8f bc 6a 8d b5 3d 11 0e 79 bd
       0.098924756 -0.017532412 0.08864863 -0.06080443
000040 6f 30 4a bd a8 7d c9 3c 13 cc ef 3d d2 8e 58 3d
       -0.049362596 0.02459605 0.11708846 0.05287058
000050 20 06 ca bd 3c f7 ac 3d 81 e0 d6 3d b2 55 bd 3c
       -0.098644495 0.08445594 0.104920395 0.023112152
000060 41 b6 ee bd 6e 2f 8c 3d e0 c8 b2 bb 8e 29 66 3c
       -0.11655856 0.06844984 -0.005456075 0.014047993
000070 9a 76 7a 3d 6e 3d ef bd b2 a3 8b bd 8b 26 67 3d
       0.061148264 -0.11681639 -0.06818332 0.05643324

fc2.weight f4 [1, 32]
000000 ee 37 fc bd f9 24 10 bd dd 44 7f bc 4c 45 24 3e
       -0.12315355 -0.03519151 -0.015580383 0.1604206
000010 7c c9 c6 3d ff 23 d9 bd b2 6d a1 bd d3 72 f5 3d
       0.09706399 -0.10602569 -0.07882251 0.119847916
000020 85 f2 f6 3d 31 ee cd 3a f1 80 85 bd 5e 63 00 3e
       0.12057976 0.0015711245 -0.06518734 0.12537906
000030 ae 46 6e 3d cd c5 d1 3d ba 59 d6 3c 96 e0 1f 3e
       0.058172874 0.10242806 0.026165832 0.15613016
000040 62 59 ac 3d ca 32 6a bd e1 f2 a5 bd 7e af 20 3e
       0.08415486 -0.057177342 -0.08102966 0.15691945
000050 a7 4a 13 3e 41 b6 12 3e 94 58 45 3d ac da e0 3d
       0.14383946 0.14327337 0.048180178 0.10979208
000060 0f 90 ad 3d c2 97 92 bd 17 a6 09 be a4 1e 14 3e
       0.084747426 -0.07157852 -0.13442264 0.14464813
000070 48 ea 85 bc cb 9a 13 3e 04 0e 18 be d7 d4 2e be
       -0.016347066 0.14414518 -0.14849097 -0.1707338
