output/out_models/dqn_models/irl/add_144.pth (torch, 9887 bytes, 3 tensors)

fc1.weight f4 [32, 64]
0	0xbc09f33a	-0.008419806
1	0xbda9d18d	-0.08291922
2	0xbc85cb25	-0.016332218
3	0x3dde1b4e	0.10845052
4	0xbdccfdc0	-0.100093365
5	0xbdcd37b2	-0.10020389
6	0xbdb68e6b	-0.08913883
7	0x3c77a11a	0.015114093
8	0x3d979c95	0.074029125
9	0xbddc1896	-0.10746877
10	0xbdd1c57f	-0.102427475
11	0x3bb69da7	0.005572993
12	0x3da9c7d1	0.08290065
13	0x3c97f2c3	0.018548375
14	0x3daa7916	0.083238766
15	0x3d974ac2	0.07387306
16	0xba484000	-0.0007638931
17	0x3c762214	0.015022773
18	0xbe001001	-0.12506105
19	0x3bb52f4d	0.0055293203
20	0xbdce5150	-0.10074103
21	0xbdb996c9	-0.09061963
22	0xbbc7ea26	-0.0061009107
23	0xbdfc1fdc	-0.12310764
24	0xbc9bbec8	-0.01901187
25	0x3ce8fd37	0.028441055
26	0x3c161cd9	0.009162151
27	0x3cddd3b8	0.027078494
28	0xbded17cf	-0.11576807
29	0x3ccdc36a	0.025117595
30	0xbdff67dc	-0.124709815
31	0x3de490b2	0.11160411
32	0x3dd0aaa7	0.10188799
33	0x3deffd19	0.117181964
34	0x3db9bd76	0.0906934
35	0x3d813579	0.06309027
36	0xbdfbe835	-0.12300149
37	0x3d2cab3b	0.042155486
38	0x3dabca9c	0.08388254
39	0x3dbf0320	0.09326768
40	0xbd21b90e	-0.039483123
41	0x3d487ff3	0.048950147
42	0xbdff8963	-0.12477376
43	0xbde0b7fd	-0.10972593
44	0x3db053a3	0.086097024
45	0xbc156fcb	-0.009120892
46	0xbcdb43c9	-0.02676572
47	0xbdea00db	-0.114259444
48	0x3daedbf0	0.085380435
49	0x3d835d44	0.064142734
50	0xba67e71c	-0.00088463887
51	0xbdff3bd5	-0.12462584
52	0xbcfe2e67	-0.031027986
53	0xbcb5a290	-0.022172242
54	0xbdeb5de1	-0.11492515
55	0xbddfdc78	-0.10930723
56	0x3d88e2b0	0.06683862
57	0xbd3e761c	-0.046499357
58	0xbd9931fd	-0.07480238
59	0xbd0431bb	-0.03227399
60	0x3d33fe6c	0.043943807
61	0x3cdc8b2a	0.026921827
62	0x3defb6e6	0.11704807
63	0xbdc9e4ba	-0.09858079
64	0xbd434753	-0.047675442
65	0xbdf87c0f	-0.12133037
66	0xbd1d0103	-0.038331043
67	0xbdeabed1	-0.114621766
68	0xbdda63cb	-0.10663565
69	0xbdfb0651	-0.12257064
70	0xbdef48d3	-0.11683812
71	0x3c2ce1a7	0.010551847
72	0xbdf10c5a	-0.11769934
73	0x3ca79bd0	0.02046004
74	0x3dd242d2	0.10266651
75	0xbcb52d93	-0.022116458
76	0xbdb85e1f	-0.09002327
77	0xbdaacb1c	-0.08339521
78	0x3cc2e98f	0.02379301
79	0xbb72f7de	-0.003707401
80	0xbdbfe326	-0.09369497
81	0xbccd4766	-0.02505846
82	0x3d9d25fd	0.07673261
83	0x3dfa4644	0.12220433
84	0xbd1ce85d	-0.038307536
85	0x3dfa9b0c	0.12236604
86	0x3cbc56ec	0.022990666
87	0x3df22b76	0.11824696
88	0x3c951775	0.018199662
89	0xbcbd60e6	-0.023117494
90	0x3e00b40f	0.12568687
91	0xbc89525a	-0.016762901
92	0xbcea33d6	-0.02858917
93	0x3d4aa472	0.049473234
94	0x3d8e92b0	0.06961572
95	0xbd800afc	-0.06252095
96	0xbdceb598	-0.1009323
97	0x3d261e18	0.040556043
98	0xbd5773cf	-0.052600678
99	0x3de8269a	0.11335488
100	0xbdc0a0fa	-0.09405704
101	0x3df72daf	0.1206926
102	0xbdd6530a	-0.10465057
103	0x3d50e1d7	0.050996628
104	0x3dc8159a	0.09769745
105	0x3db89cdf	0.09014296
106	0x3ddc7161	0.10763813
107	0xbc921965	-0.017834375
108	0xbd7fa22e	-0.062410526
109	0x3defd723	0.11710956
110	0xbc97d22d	-0.018532837
111	0x3cd922c5	0.026505837
112	0xbd6c2ac4	-0.057657972
113	0x3dd36de6	0.10323696
114	0xbda6c9c2	-0.08143951
115	0x3cd9e5ae	0.026598778
116	0xbd6b0a65	-0.05738296
117	0x3d468df8	0.048475236
118	0xbdf445f7	-0.11927407
119	0xbd0b0035	-0.033935744
120	0x3d539780	0.051658154
121	0xbde60366	-0.11231117
122	0x3ddfe7c1	0.109328754
123	0xbdcae66b	-0.0990723
124	0xbd9e26e1	-0.07722259
125	0xbd59a3e8	-0.05313483
126	0x3d0c6f70	0.034285963
127	0x3c4eac54	0.012614328
128	0x3b8b0c27	0.004243392
129	0xbd87c3ab	-0.066291176
130	0xbdb5a9fb	-0.08870312
131	0x3ddc4581	0.10755444
132	0x3dcc7ced	0.09984765
133	0x3bf1e5b8	0.007382121
134	0xbd5c4eeb	-0.0537862
135	0xbd25ee49	-0.04051045
136	0xbcce8c63	-0.025213426
137	0x3d6cac5b	0.05778156
138	0xbcef37d5	-0.029201427
139	0x3d8f0b8f	0.069846265
140	0x3da0ba74	0.07848063
141	0xbd9df59e	-0.077128634
142	0xbd576b65	-0.052592654
143	0x3cfd5042	0.030922059
144	0x3d5b22a8	0.053499848
145	0xbd981d6d	-0.074274875
146	0x3c3fcbd3	0.01170631
147	0x3de1b792	0.110213414
148	0x3d8d20aa	0.06890996
149	0xbdb1334e	-0.08652364
150	0x3dc6db1d	0.09709761
151	0xbd8df6b0	-0.069318175
152	0xbd76304c	-0.060104653
153	0xbda434fd	-0.08017919
154	0x3d9a937b	0.07547661
155	0xbcb0a4e1	-0.021562995
156	0x3ba87ed0	0.0051420704
157	0x3deec4a1	0.11658598
158	0x3dac85b6	0.08423941
159	0x3d8f4518	0.069956005
160	0x3c75f231	0.015011356
161	0x3dd0ebf2	0.10201253
162	0xbd4b690a	-0.04966072
163	0x3906e39f	0.00012864031
164	0x3d987233	0.07443657
165	0xbd5163e6	-0.05112066
166	0x3db28aa7	0.08717852
167	0xbcd27ac5	-0.025693307
168	0x3d77c43b	0.060489874
169	0xbb597d9f	-0.0033186448
170	0x3d85adbf	0.0652728
171	0xbdd9cf60	-0.10635257
172	0xbc70ca19	-0.014696621
173	0xbdd443e4	-0.103645116
174	0xbdf8ca40	-0.12147951
175	0xbc2d2132	-0.010566996
176	0xbda15440	-0.078773975
177	0x3d9ee4dd	0.07758496
178	0xbdaaba6d	-0.08336339
179	0x3c641525	0.013921057
180	0x3c1f1665	0.009709929
181	0x3d3f5c8b	0.046719115
182	0x3dfe0d43	0.12404873
183	0x3cb59cca	0.02216949
184	0x3da91976	0.082568094
185	0xbd9e8c56	-0.07741611
186	0x3d9584a0	0.07300687
187	0xbda183f1	-0.07886494
188	0x3d179b66	0.037013434
189	0xbc13c812	-0.009019868
190	0xbd9f3ce0	-0.07775283
191	0x3be0e0a6	0.0068627177
192	0xbcadee00	-0.021231651
193	0xbb13d000	-0.0022554398
194	0xbda7d348	-0.081945956
195	0x3c2007b0	0.009767458
196	0xbd2738dc	-0.04082571
197	0xbd6856c4	-0.05672337
198	0x3d772ef8	0.060347527
199	0xbd6a612c	-0.057221577
200	0xbd8962ea	-0.067083195
201	0xbd59608c	-0.05307059
202	0x3d948b1c	0.072530955
203	0x3d38e4d8	0.045140117
204	0x3d0e55bc	0.03474973
205	0x3dea90fa	0.11453433
206	0x3d79097c	0.06080006
207	0x3de90914	0.11378685
208	0xbdf562a6	-0.11981706
209	0x3de18e0c	0.110134214
210	0x3d8f5936	0.069994375
211	0x3d8d56f0	0.06901348
212	0xbdde5b1c	-0.108572215
213	0x3dce78da	0.10081644
214	0x3cf32b58	0.029683754
215	0xbdba359e	-0.09092258
216	0xbddfdb04	-0.10930446
217	0x3d1df958	0.03856787
218	0x3dc36208	0.09540182
219	0xbddd6978	-0.10811132
220	0x3dcc1464	0.09964827
221	0xbd018b44	-0.031626955
222	0xbc9826c0	-0.018573165
223	0xbcf5f048	-0.030021802
224	0xbcbdc3b0	-0.0231646
225	0xbda05b48	-0.078299105
226	0xbd814334	-0.06311646
227	0xbced9fe8	-0.029006913
228	0x3b24f500	0.0025170445
229	0x3c9e8760	0.019351661
230	0x3d95413c	0.07287833
231	0xbc2ff4f0	-0.01073955
232	0xbd572860	-0.05252874
233	0x3d80d0dc	0.06289837
234	0xbcf433a0	-0.029809773
235	0x3dcfc534	0.101450354
236	0x3dc750ea	0.0973223
237	0x3d17932c	0.03700559
238	0x39e74800	0.00044113398
239	0xbb93b8e0	-0.004508123
240	0x3d045b9c	0.032313928
241	0xbd60d320	-0.054888844
242	0x3c632d80	0.0138658285
243	0xbddcab78	-0.107748926
244	0xbdf22ee8	-0.11825353
245	0x3c9bb5e0	0.019007623
246	0x3cfbedc8	0.030753031
247	0x3db98f36	0.090605184
248	0xbd7fac4c	-0.062420174
249	0xbcc88770	-0.024478644
250	0x3d2a51c8	0.0415819
251	0x3db811bc	0.089877576
252	0x3d8ed56e	0.06974302
253	0xbc9d63c8	-0.019212618
254	0xbdea3c02	-0.11437227
255	0xbdbab90c	-0.09117326

fc1.bias f4 [32]
0	0xbdbc31a7	-0.09189158
1	0x3ddb9a4f	0.107227914
2	0x3cbe2037	0.02320872
3	0x3cf8a800	0.030353546
4	0xbd852190	-0.06500542
5	0x3c41ee14	0.011836547
6	0xbdec987c	-0.115525216
7	0xbdc29028	-0.09500152
8	0x3df183af	0.11792695
9	0xbd65e9fc	-0.056131348
10	0x3db734c1	0.08945609
11	0xbce5a352	-0.028031979
12	0xbb457ac0	-0.003013298
13	0x3ddd5ede	0.1080911
14	0x3dbacd0f	0.09121143
15	0x3df2264e	0.11823712
16	0x3d365684	0.0445161
17	0x3ca17090	0.019706994
18	0xbce9c2e0	-0.028535306
19	0xbdbe4fa3	-0.09292533
20	0x3dc6f0ea	0.097139195
21	0x3dcd5be3	0.100272916
22	0xbd977fc3	-0.073974155
23	0xbda9159f	-0.08256077
24	0x3d6e14d1	0.05812532
25	0xbc11ac70	-0.00889121
26	0xbc51e6be	-0.012811361
27	0x3ccf0b12	0.025273833
28	0x3cb1cc20	0.02170378
29	0xbdcfd9df	-0.101489775
30	0xbddf689f	-0.10908627
31	0x3d1ca73c	0.038245425

fc2.weight f4 [1, 32]
0	0x3db920c3	0.09039452
1	0xbe011b40	-0.12608051
2	0xbd412fc7	-0.047164705
3	0xbd1b356a	-0.037892736
4	0x3d0f35ce	0.03496342
5	0x3e12c819	0.14334144
6	0xbd971c77	-0.07378476
7	0x3db6daea	0.08928473
8	0x3cc7f23b	0.024407497
9	0xbd546850	-0.051857293
10	0xbd8fa20c	-0.0701333
11	0x3d4fefb3	0.050765704
12	0x3e145fd5	0.14489682
13	0x3e155612	0.14583614
14	0xbd8a5ef6	-0.067563936
15	0xbbd3d7e8	-0.006464947
16	0x3ddb08f8	0.1069507
17	0xbbed0066	-0.0072327135
18	0x3c97f460	0.018549144
19	0x3c89619b	0.016770175
20	0x3dcacea7	0.09902697
21	0x3e002b14	0.12516433
22	0x3d7736fb	0.060355168
23	0x3de0d287	0.10977655
24	0xbd804b8d	-0.0626441
25	0xbd51243f	-0.051059958
26	0xbd225eaa	-0.03964106
27	0xbe233972	-0.15939882
28	0x3dcfeed2	0.10152973
29	0xbe02f58a	-0.12788978
30	0xbb2d783c	-0.002646937
31	0xbb085944	-0.002080516
