output/out_models/dqn_models/irl/add_240.pth (torch, 9887 bytes, 3 tensors)

fc1.weight f4 [32, 64]
00000000: 4cf0 e6bd 1416 8fbd 9017 a2bd 38ae 0e3d
00000010: 587e c4bd 3c82 013d 60b3 bd3d 480c 10bd
00000020: d488 513d ac0c a7bd 10e3 b23c 1623 a63d
00000030: 3ee3 f63d 1429 debd 5402 70bd 4439 273d
00000040: 2696 ef3d 70bf 933d 3ca1 8f3d 88b1 8cbd
00000050: 8021 c4bb a490 08bd f26c d93d 80ac a53c
00000060: c070 283c e46b 5dbd a086 b93d 2417 0d3d
00000070: 4c91 a3bd 3082 0c3c 8016 bb3d f0fc dcbc
00000080: ee33 a23d b6ec cfbd 2cd5 2bbd d25f 9abd
00000090: 1230 87bd 38c3 a4bd 80f1 723d 3ccf 0d3d
000000a0: d0f8 d6bc d8ad 34bd 84bc 44bd 48ae 373d
000000b0: 9009 2b3c f800 85bd 8800 b53c 8076 6a3b
000000c0: f461 f33d bc61 423d 382f 643d a0b6 73bd
000000d0: 205f a03d c8ac 9abd 4ec4 9abd 0ac5 f03d
000000e0: d830 9ebd 1cf2 7cbd 30a4 d2bd 8032 c6bb
000000f0: c8d5 fe3c 121b b1bd 80d1 a1bc e6c9 e43d
00000100: 8cbc 28bd 6447 e73d c814 4cbd 78bb debc
00000110: 04f2 0e3d ac19 88bd 6058 9b3b d6ad bc3d
00000120: 7e75 dbbd e400 913d 56c4 e8bd fa51 913d
00000130: b0d8 11bd b42d 1a3d 28c0 c53c a0d2 353c
00000140: 2056 a83d 8880 00bd 80b3 96bb c0fe 00bc
00000150: 1a8c c3bd f0f9 6fbd 2210 d2bd 30ad 3cbc
00000160: c841 c43c 96ce eb3d 5a7e e4bd 683c 95bc
00000170: 4ace f63d 144e 893d c407 bc3d a0b9 8a3b
00000180: d453 95bd 9e13 f23d 309c ad3c 347b 7ebd
00000190: 2e21 a0bd d4fd b3bd c831 f13d 26b6 c7bd
000001a0: e810 ee3c 64b8 32bd 8cf0 553d 0a60 8bbd
000001b0: 28de 68bd 4470 3ebd 2891 6cbd 905b da3d
000001c0: 3421 753d 40fe 9abd 7e9c a73d ba22 d53d
000001d0: f686 ef3d 80ee ddbc 2877 d7bd 54fa d9bd
000001e0: e872 ae3c 22af b13d 10c6 aa3d e05e 8bbd
000001f0: 30d9 703c 7257 cbbd 604f d03c d244 babd
00000200: f047 5fbd ac7d 4fbd e029 5b3d c095 8e3c
00000210: 3425 7b3d 60ef e03b 0802 883d 601a 1a3c
00000220: 4069 d7bb 00d9 133d cc8e ddbd f806 ddbc
00000230: 3823 3cbd 8a89 ef3d a0fb bc3c b4da f4bd
00000240: 8097 ef3a b407 0d3d 0039 d83b a6ab b83d
00000250: b61f 8a3d 7036 0cbc 402e 7dbc 0e2e d8bd
00000260: 4ef6 e9bd f22a e33d 30ec d3bd 80ef dbbc
00000270: 123f db3d d00a 2f3c 648a 36bd 4c74 913d
00000280: a42b c2bd 3c99 4e3d d054 e93c 1a58 c7bd
00000290: 5e29 efbd 8c1e ea3d 80db dabc 149e a63d
000002a0: 96d0 f73d 5a59 d3bd 3048 31bc d0cd 7f3c
000002b0: 26c9 f6bd b060 14bc 8626 ffbd d22b c03d
000002c0: ca3d a33d 083d 30bd 5c9f d7bd a4dc 293d
000002d0: 70fd ed3d ccbc 09bd e4e9 ed3d c61b bb3d
000002e0: 5e03 cdbd 28d7 ad3c 4c5f cb3d a0a6 d43b
000002f0: 6097 9ebd 2c72 9fbd 54b8 e63d 9481 85bd
00000300: 4d9e dd3c 2a07 d63d 64c8 a23d c1da eebc
00000310: ddf7 6f3d 802d 77b9 f26b 0a3d dd3c 403d
00000320: 26c2 8e3d e912 523c c5d2 86bd 2fda f9bd
00000330: 2cf5 7abd 3774 9fbd 7d18 0cbd 0380 23bc
00000340: 1e3b e13d 90dc a6bd 61ca 023e d6e4 cbbd
00000350: 38f8 02bc a958 b6bd 28f7 f33d 7582 8e3d
00000360: eaab 27bb 77ea 86bd a70b b8bd 40ba 963c
00000370: 9e7c a8bd b7a6 0f3d 078d 833b 76d2 a1bd
00000380: e36e a43d 113b eb3d aef8 f9bc c40d 613c
00000390: 21c9 6abd eb7c ee3d 203c debd a3a8 89bd
000003a0: 8898 823a 84ad ba3d 54ca c63d b8a4 06bd
000003b0: b3dd c1bc f831 a8bd 5672 16bd 34c5 5abd
000003c0: 00c2 e6bc 66c0 72bd 498b d03d 43e6 033c
000003d0: be4b e5bd eccd 09bd 0dbd 3e3d 7452 f53c
000003e0: c015 9e3d a6c5 8fbd 3990 003d b2b7 fa3d
000003f0: 1243 3e3d b993 abbd e863 293d 739e 1dbc
-0.11276302 -0.06986633 -0.079146504 0.034834117 -0.09594411 0.03161834 0.09262729 -0.035167962
0.05115588 -0.08156714 0.021836787 0.08112161 0.12055062 -0.10847679 -0.05859597 0.040826097
0.116985604 0.07214248 0.07013175 -0.06869799 -0.005985439 -0.033341065 0.10616483 0.020223856
0.010280788 -0.05405797 0.09058881 0.034445897 -0.079866976 0.008575961 0.09135151 -0.026976079
0.07920061 -0.10152571 -0.041951343 -0.075378075 -0.066009656 -0.080450475 0.059312344 0.034621462
-0.02624169 -0.044111103 -0.048031345 0.044843942 0.010439292 -0.064943254 0.02209498 0.0035776198
0.118839175 0.047456488 0.055709094 -0.059500337 0.07830644 -0.07552487 -0.075569734 0.11756332
-0.0772416 -0.06175433 -0.102852225 -0.0060485005 0.031107798 -0.086477414 -0.019753218 0.111713216
-0.041195437 0.112929136 -0.049824506 -0.027189001 0.034898773 -0.066455215 0.0047407597 0.09212844
-0.10715769 0.07080248 -0.11365573 0.07095714 -0.03560704 0.037641242 0.024139479 0.01109758
0.08219552 -0.031372577 -0.004599035 -0.007873237 -0.095482066 -0.05858797 -0.10256983 -0.0115159005
0.023957148 0.115140125 -0.11156912 -0.01821728 0.12051065 0.06704345 0.09181169 0.004233554
-0.072913796 0.11820148 0.02119264 -0.062129214 -0.078188285 -0.08788648 0.11777073 -0.09751539
0.029060796 -0.04363288 0.052231357 -0.06805427 -0.05685249 -0.046493784 -0.05775562 0.106619954
0.059846118 -0.075680256 0.081841454 0.10407014 0.11695664 -0.027091265 -0.10520774 -0.106434494
0.021295026 0.08675982 0.08338559 -0.06805205 0.014700219 -0.09928788 0.025428474 -0.09095158
-0.054511964 -0.05065696 0.053506732 0.01740539 0.061314777 0.006864473 0.066410124 0.009405702
-0.006573826 0.03609562 -0.10818252 -0.026980862 -0.045932025 0.11696155 0.023069203 -0.11955777
0.0018279403 0.034431174 0.006598592 0.09017114 0.0674433 -0.008557901 -0.015452921 -0.10555659
-0.11423932 0.110921755 -0.103477836 -0.026847601 0.10705389 0.01068373 -0.044565573 0.0710226
-0.0948098 0.050439104 0.028482825 -0.09733601 -0.11677812 0.114316076 -0.026715994 0.0813562
0.121003315 -0.10319777 -0.0108204335 0.015613034 -0.12050085 -0.009056255 -0.1245852 0.09383358
0.0797077 -0.043026954 -0.10528442 0.041470185 0.11620605 -0.033627316 0.11616877 0.09136157
-0.10010408 0.021220759 0.09930286 0.00648959 -0.07743716 -0.077854484 0.112656265 -0.06518856
0.027053023 0.10450585 0.07948378 -0.029157044 0.05858599 -0.00023572706 0.03379435 0.046933044
0.069706246 0.012821891 -0.0658317 -0.12199818 -0.06126897 -0.07785838 -0.03420304 -0.009979251
0.10997604 -0.08147538 0.12772514 -0.09955756 -0.00799375 -0.08903629 0.11912376 0.069584765
-0.0025584647 -0.06587689 -0.089865975 0.018399358 -0.08226894 0.0350711 0.0040146145 -0.0790147
0.080289625 0.114858754 -0.030514088 0.013736192 -0.057320718 0.1164492 -0.10851312 -0.06721618
0.0009963671 0.09115127 0.0970656 -0.03287193 -0.023665285 -0.08212656 -0.036730133 -0.053410724
-0.028168678 -0.059265517 0.101828165 0.008050504 -0.11196087 -0.033643648 0.04656701 0.029946543
0.07718992 -0.0702012 0.03138754 0.12242068 0.046450682 -0.08377785 0.041355044 -0.009620297

fc1.bias f4 [32]
00000000: 6ecf c53d c081 e63d 0c03 97bd f0c1 c2bd
00000010: 9880 8b3d edb7 b4bd 2cd3 a0bd 94c8 303d
00000020: 2cae 17bb ab13 e9bd f49f 813d 4bb8 19bd
00000030: fd22 c3bd d9c2 bb3b e27c d2bd ac1b 64bd
00000040: 7a2c e6bd d850 db3d 88a8 073d 28ae ef3d
00000050: 7a34 a83b 5b12 993c ab87 163d b413 7dbd
00000060: d9b2 97ba a93d eabd b82d 83bd 948a 053d
00000070: 748a 843d 6bcb 9bbd 3854 2ebd 3d9b 3bbd
0.09658705 0.112552166 -0.07373628 -0.09509647 0.06811637 -0.088241436 -0.07852778 0.043160036
-0.0023144586 -0.113807045 0.06329337 -0.03752927 -0.09528158 0.0057300148 -0.10277726 -0.055690452
-0.11238952 0.10708779 0.03311971 0.117031395 0.005133209 0.01868551 0.036750477 -0.06178637
-0.0011573686 -0.11437542 -0.064052045 0.03260286 0.0647172 -0.07607158 -0.042560786 -0.045802344

fc2.weight f4 [1, 32]
00000000: 7e96 91bc 6390 cd3d a705 223e e7f4 c83a
00000010: 488e a0bd 0eb7 bcbd 6a8e 193e cc78 063e
00000020: 5720 da3d 3265 c0bc 1855 e83d a04d 78bd
00000030: 80ff 153e 9a26 0f3e ba83 7b3d 8af7 2bbe
00000040: 8edf 6c3d 68fa 86bd c963 e6bd f2a9 2c3d
00000050: bf67 113e 2aa3 963a f2a7 063e 6aa8 1b3e
00000060: 958a fe3d d79e a4bc 240e f43c 0af9 85bd
00000070: 2e29 15bc eec6 c4bd 195b 8a3d 20bf d63d
-0.017771956 0.10037305 0.15822469 0.0015331776 -0.07839638 -0.092146024 0.14995733 0.13132018
0.106506996 -0.023485754 0.11344355 -0.060620904 0.14648247 0.13979569 0.06140492 -0.16793647
0.057830386 -0.0659073 -0.11249501 0.04215426 0.14199732 0.0011492718 0.13150004 0.15200964
0.12428776 -0.020095272 0.029791899 -0.06541641 -0.009104056 -0.09608255 0.06755657 0.10485673
