output/out_models/dqn_models/irl/add_82.pth (torch, 9887 bytes, 3 tensors)

fc1.weight f4 [32, 64]
00000000: be81 ac3d 4638 963d 8ee4 b3bd 649d 6cbd
00000010: b08b e23d e06f d53d 002e 9a3c 7049 93bd
00000020: 28ca 0dbd 96b9 a43d 5e91 e2bd d83a 13bd
00000030: e030 2a3c 726a fd3d ca05 9bbd 1451 74bd
00000040: a0db 7e3c b216 cd3d 52d3 8c3d a2a7 c5bd
00000050: 289a 413d 4831 e03c cce2 603d 604c c03d
00000060: 3e07 8c3d 34b0 9fbd 9ed4 863d d886 9cbc
00000070: f019 47bc c4ab 0dbd e840 8f3d f419 dcbd
00000080: 6451 793d 044c 9abd 649c cfbd 4c30 3fbd
00000090: c46b 0fbd 082b bbbc b23c cbbd 8ad5 d4bd
000000a0: 8a4c c73d e847 f5bd bee8 bebd 8009 253c
000000b0: a667 d53d f067 04bd 34c3 c2bd c89e 243d
000000c0: 7ce6 f4bd f4ae e8bd daec b73d 843d 2b3d
000000d0: 4012 66bd 8e9c f83d e446 3fbd a03c 163c
000000e0: 4076 1fbb 7cbd 063d a04d 11bc 4cfb 5dbd
000000f0: e0a0 ed3b 2e52 853d 6430 87bd a04b c33d
00000100: 5eef 283d 06de b9bd e86a 74bd 4cf4 c2bd
00000110: e633 e03c e25b 24bd f584 d73d bd9b f3bd
00000120: 866f 8fbd 8849 873d 8a7b 95bd c810 f53d
00000130: c9a6 38bc b291 7fbd d27a 8abd 7449 033e
00000140: 24d1 873d 5820 87bd 7924 72bd cf6f 643c
00000150: 49fe eabd 71b8 8a3b 1056 d1bd 1ef0 b73d
00000160: 3320 0ebd 3fe3 973c 4080 21bd 6d75 e23d
00000170: d9d1 223c b6ab 0abb 7699 cbbd 48d0 13bd
00000180: 63ac f13d e6fa e0bd 869e fbbc 819c d43d
00000190: 7901 fc3d c7c3 b83d ef05 4cbd bf3c 953c
000001a0: 2b0c 3cbd 7c68 d93d 4fd5 e03d 5bf1 963d
000001b0: 47fb 49bd 51e7 593a c878 c03d 09f7 873c
000001c0: 3067 943d 9cbf 89bd 6147 b7bd 0b56 07bc
000001d0: c1cd d73d d684 3fbd 784c a3bd e788 0fbc
000001e0: f6bc 40bd 878c 83b8 0aa7 c23d aec4 d33d
000001f0: 6f19 7e3d 75dc b1bd 12b8 183d 3a7f edbd
00000200: c987 c63d b7b8 bf3d 4e4e 2f3d a36b 903d
00000210: 6e47 a13d 63d1 babd b884 753d 916e 39bd
00000220: 489c eabd c360 00bd 6995 f5bd 50d4 b03d
00000230: 3b88 bc3d 6c27 83bd 9241 c1bd 29f4 063d
00000240: 544f 95bd 5348 823d 9137 e9bc 9030 d83b
00000250: 2d1b 113c d57d 87bd 99ff 6abd 9605 2d3d
00000260: 513b adbc f352 aabd afa7 0d3d 9b98 01be
00000270: b379 803d 8b45 93bd 9dc6 c0bc 7103 d9bd
00000280: f053 ee3d 8886 b1bd 39b7 3f3d def4 f13d
00000290: 313a c3bd 27ee 8d3d e7dc f33a 6658 dbbd
000002a0: c066 03bd 20bb 26bc 14f8 563d 38e4 91bd
000002b0: 1812 24bd 0322 8c3c 27aa 4d3d e2ef a9bc
000002c0: 08ac 9e3d 4c7f 82bc a61c 7c3c 167b 553c
000002d0: 4e98 d1bd d317 1bbd 0215 dcbd 14dc 62bd
000002e0: 4c95 91bb 335c 75bc c8bb 31bc 6468 abbd
000002f0: 219e 8cbd 979b cbbd 9b3e ee3d ed25 ab3b
00000300: 006a 483d 245a bebd 3479 c23d 1655 e93d
00000310: 7653 c13d e450 f0bd d810 f3bc c61d adbd
00000320: f61a cfbd 7882 c13d 6810 93bc 5812 d93c
00000330: e80d 433d 1040 9e3c 5c42 f1bd 681e 66bd
00000340: f05a 8abd e09d 053c 485b 77bd 4855 bd3c
00000350: 6024 933d 6245 8abd b8b8 ebbd b27e dfbd
00000360: 1e27 e53d 9250 c5bd e4cf 73bd 7837 79bd
00000370: 4440 043d 10ea 263c 6e9a ca3d 0233 fd3d
00000380: 689c dcbc bc00 31bd c8f6 eabd b01a 42bc
00000390: 0e86 e33d 8878 39bd f8b5 55bd 584b debc
000003a0: 3cb5 4c3d 44a1 f5bd f056 8cbd a04b 38bd
000003b0: ca5e 8c3d b0b9 d0bd ec4a 3a3d c068 293c
000003c0: 60d3 47bd 042f b9bd 909b 2abd 6cec bbbd
000003d0: f88a 6e3d 84f3 5abd 80b0 b53d 204a 3a3c
000003e0: 1cac 003d 8615 c43d 9010 6abc 98f1 18bd
000003f0: 4002 f53c 3e15 e13d 7a00 c83d cc9b 4d3d
0.08423184 0.07334952 -0.08783828 -0.057767287 0.110617995 0.10421729 0.018820763 -0.071917415
-0.03461662 0.0804321 -0.11062883 -0.03594479 0.010387629 0.123738185 -0.075694636 -0.059647635
0.015555292 0.100140944 0.06876244 -0.09651114 0.047266155 0.02736725 0.05490379 0.093895674
0.06837319 -0.0779728 0.06583522 -0.019107267 -0.01215218 -0.034587637 0.06994802 -0.10747138
0.060868636 -0.0753403 -0.10137251 -0.04667692 -0.035014883 -0.022847667 -0.09923686 -0.10392292
0.097313955 -0.11976606 -0.09321736 0.010073066 0.1042016 -0.032325685 -0.09509888 0.040190488
-0.11958024 -0.11361495 0.08980723 0.041806713 -0.05616975 0.121392354 -0.046698466 0.009169728
-0.0024331957 0.03289555 -0.008868605 -0.054194734 0.007251844 0.06509815 -0.06601027 0.09535909
0.041243903 -0.09075551 -0.059672266 -0.09519252 0.027368497 -0.04012669 0.105234064 -0.11894939
-0.07003693 0.06605822 -0.07298954 0.119660914 -0.011270233 -0.062394805 -0.06761707 0.12820989
0.06631687 -0.06597966 -0.059116814 0.013942673 -0.11474282 0.004233413 -0.10221493 0.089813456
-0.034698676 0.018540977 -0.03942895 0.110575534 0.009937727 -0.0021159477 -0.0994138 -0.036087304
0.11800458 -0.10985355 -0.030715238 0.10381413 0.123049684 0.090217166 -0.049810346 0.018217443
-0.04591004 0.10615632 0.109781854 0.07370254 -0.049311902 0.0008312362 0.09398037 0.016597288
0.07246244 -0.06726 -0.08949161 -0.00826026 0.10537291 -0.04675754 -0.0797357 -0.008760667
-0.047055207 -6.272742e-05 0.095045164 0.10340248 0.062035974 -0.08684627 0.037284918 -0.11596532
0.09693868 0.093614034 0.042799287 0.0705178 0.07874952 -0.091219686 0.059941024 -0.04527146
-0.114555895 -0.03134228 -0.11991388 0.086342454 0.092056714 -0.064040035 -0.09436335 0.032947693
-0.07290521 0.06361451 -0.028468879 0.006597586 0.008856577 -0.066157974 -0.057372663 0.042241655
-0.021146448 -0.083166026 0.034583744 -0.1265587 0.06273212 -0.07190999 -0.023532206 -0.105963595
0.116371036 -0.08668238 0.046805594 0.11814283 -0.095325835 0.069301896 0.0018605263 -0.1071022
-0.032080412 -0.01017645 0.05248268 -0.071236074 -0.040056318 0.017106062 0.050211098 -0.020744268
0.07747656 -0.01592984 0.01538769 0.013029834 -0.10234128 -0.037864517 -0.107461944 -0.055385664
-0.0044428464 -0.014975595 -0.010847993 -0.0836952 -0.06866098 -0.09941786 0.11633035 0.005223027
0.048929214 -0.09294537 0.09495774 0.11393182 0.09439747 -0.11734179 -0.029671118 -0.084529445
-0.10112564 0.09448713 -0.017952159 0.026498005 0.047620684 0.019317657 -0.11780235 -0.05618134
-0.06755626 0.008155316 -0.060389787 0.023111954 0.07184672 -0.06751515 -0.11509842 -0.10912837
0.11189102 -0.09634508 -0.05952443 -0.060843915 0.03228785 0.010187641 0.098927364 0.123632446
-0.026930049 -0.04321359 -0.11472851 -0.011847183 0.11109553 -0.045280963 -0.052175492 -0.027135536
0.049977526 -0.119936496 -0.068525195 -0.044993997 0.06854017 -0.10191667 0.045481607 0.010339916
-0.048785567 -0.09042171 -0.041652262 -0.09175953 0.058238 -0.05345489 0.08871555 0.011370212
0.031414136 0.09574418 -0.014286175 -0.037339777 0.0299083 0.1099038 0.09765716 0.050197408

fc1.bias f4 [32]
00000000: a0b9 533c 62b7 4e3d 256f 263d f0f1 14bc
00000010: 2713 b93d f4d9 7a3d 9894 e8bd dfe6 253d
00000020: ea71 cebd cbc9 88bd 1e14 b23c 1077 a7bc
00000030: be2a e33d 5d34 bf3d 382b 913c 2513 93bd
00000040: 83c6 ed3b dc18 443d ce2e aabc f08b babc
00000050: 6ce2 943d d696 54bd 30be efbd 4cfc 88bd
00000060: 95db cdbb 9160 af3d 8962 fbbb d7f7 8dbd
00000070: ef74 da3c 77e5 89bc ac94 e8bd c40e 5e3d
0.012922674 0.050467856 0.04063334 -0.0090908855 0.09036856 0.061243013 -0.11356467 0.04050338
-0.10080321 -0.06679114 0.021738108 -0.020442516 0.11092137 0.093361594 0.017720804 -0.07181386
0.0072563305 0.04787527 -0.020774271 -0.022771806 0.07269749 -0.05190166 -0.11706197 -0.06688747
-0.0062822797 0.085633405 -0.0076716584 -0.06932037 0.026667086 -0.01683305 -0.11356482 0.0542133

fc2.weight f4 [1, 32]
00000000: 451a 03bd c164 033e 88ce 9ebd 9d0c 53ba
00000010: 5616 b73c d38b 433d 9d30 efbd 69d3 e1bd
00000020: bb75 acbd 6c67 1f3e 46fc 87bd 8009 353d
00000030: 9e4d b7bd 8c02 b13d 2f5a 5ebc 4ec7 e4bc
00000040: c2ed 31be f12e 27bd a4a6 2bbc 34f4 05bc
00000050: 544f b1bd f2aa aa3d a3b5 7ebd c391 0e3e
00000060: 76a0 043e 4563 e83d 58ec c73d 074e c4bd
00000070: da84 d43d 44dc 1b3e fead 30bd beea da3d
-0.032007474 0.12831403 -0.077542365 -0.0008050891 0.022349518 0.04774077 -0.11679194 -0.110266514
-0.08420893 0.15566796 -0.06639914 0.044198513 -0.08950351 0.08643064 -0.013571306 -0.027927067
-0.17375854 -0.04081625 -0.010476742 -0.008175898 -0.08657709 0.083333865 -0.06218494 0.13922791
0.12951836 0.11347059 0.09761876 -0.09585195 0.10376902 0.15220743 -0.043134682 0.10689305
