output/out_models/dqn_models/irl/add_259.pth (torch, 9887 bytes, 3 tensors)

fc1.weight f4 [32, 64]
000000 3e 80 eb 3d f5 bf 11 bd fc 43 36 3d 53 c7 17 3d
       0.1149907 -0.035583455 0.04449843 0.037055325
000010 e2 ca d2 bd 5b 2c 39 bb 88 65 49 bd f1 a9 08 3d
       -0.10292603 -0.0028255198 -0.049169093 0.033365194
000020 2d 03 a1 3d 21 4b e6 3d 04 64 f5 bd b9 5b 52 bc
       0.07861934 0.112447985 -0.11981967 -0.012839251
000030 18 8b 61 3d 9d 1d 24 bd 2b bf ca 3c 6a 40 ec 3c
       0.05506429 -0.040067304 0.02474936 0.028839309
000040 a0 33 a9 3b cd 7c d5 bc cf 2a 3a 39 d1 bb c6 3d
       0.005163625 -0.026060486 0.0001775429 0.09703792
000050 71 ba a4 bd 32 39 32 3d 46 31 0e 3c 8e 1e 07 bd
       -0.080433734 0.043511577 0.00867874 -0.032988124
000060 53 4d 66 3d c6 10 32 3d fa 78 c3 bd 5d 4c b9 3d
       0.056226086 0.043473028 -0.09544559 0.09047768
000070 eb 36 c6 3c 7c 9f 5a bd 53 b7 bc 3c 3f 75 fa 3d
       0.024196109 -0.053374752 0.023036635 0.12229394
000080 2a 90 29 3d 7c 2a ea bd 56 89 b3 3d 7e de b2 3d
       0.04139725 -0.114338845 0.08766429 0.08733843
000090 57 96 12 3d c9 01 cd bd f8 d7 9d bc 5f 8e 23 bc
       0.035787906 -0.10010106 -0.019268021 -0.009982674
0000a0 43 be 2c bd 07 18 0c 3b 28 88 6e 3d a4 cb 67 3d
       -0.042173635 0.0021376626 0.058235317 0.05659069
0000b0 25 cf c1 3d f3 bc 18 3b 8b 8f f9 bb 59 08 55 3d
       0.09463338 0.0023305982 -0.0076159886 0.052009914
0000c0 28 4f 39 3d 2c f8 f7 bd 6d a4 c1 3c b6 12 87 3d
       0.045241505 -0.12107882 0.023637975 0.06595366
0000d0 90 2c dc 3d 89 e6 fa bd 2c a0 20 bd 8a 05 47 bd
       0.10750687 -0.12251002 -0.03921525 -0.048589267
0000e0 80 ce e5 bd e8 1f 28 3b 63 8c bd 3c 0e 24 94 3d
       -0.112210274 0.0025653783 0.02313823 0.072334394
0000f0 2b 68 82 3d 34 b9 c8 3d 4a ba d9 bd 31 88 cb bd
       0.06367525 0.0980095 -0.10631235 -0.09938086
000100 20 66 86 bd d8 0d d9 bd 98 5e ad bc ba 9a 8a bd
       -0.065624475 -0.105983436 -0.02116327 -0.06767793
000110 94 9a 8b 3d e8 ce 8e bd 90 c6 1f 3d e0 66 c9 3b
       0.06816593 -0.06973058 0.039007723 0.006146297
000120 18 93 5f bd 98 91 03 3d a8 6d c3 bd 8a 76 fa bd
       -0.05458364 0.03212127 -0.095424 -0.12229641
000130 5a 81 f3 bd 30 f5 60 3d 28 42 a6 bc 18 b8 71 3d
       -0.11889906 0.05492133 -0.020295218 0.059013456
000140 66 ec a2 bd 28 e8 aa 3d f4 3f 8b bd 56 36 af bd
       -0.07955246 0.083450615 -0.067993075 -0.08555286
000150 f0 a2 74 3d 78 49 8f bd 9c 7c 62 bd 94 36 cf bd
       0.0597257 -0.06996435 -0.055294618 -0.10117832
000160 c8 32 32 bd 18 8a a0 3d 66 c3 ad 3d 34 dd be bd
       -0.04350546 0.07838839 0.08484535 -0.09319535
000170 08 26 dd 3d 90 d5 a7 3d 60 72 b6 3c bc 18 6c 3d
       0.107982695 0.08195031 0.022271335 0.057640776
000180 00 72 d0 bd 7a 7d a1 3d b0 6e 2e bc d4 9d 25 bd
       -0.10177994 0.07885261 -0.010646507 -0.04043372
000190 00 ad d2 3a 92 07 80 bd f2 53 d6 bd 28 c7 16 3d
       0.0016073287 -0.06251444 -0.1046523 0.036811024
0001a0 5e 90 d7 3d 18 0d a8 bd ee d0 ef bd d4 fe 85 bd
       0.10525583 -0.082056224 -0.11709772 -0.06542745
0001b0 b2 9b 8c bd f8 52 c2 bc c8 db e7 bc 96 54 aa bd
       -0.06865634 -0.023721203 -0.028303042 -0.08316915
0001c0 dc 31 6b 3d 68 d9 a2 bc 64 13 fd bd 48 b3 22 bd
       0.057420596 -0.019879058 -0.12357214 -0.039721757
0001d0 2c 6e 0e 3d 14 5b e1 3d b8 cc ee 3c 78 e6 9e bd
       0.034773037 0.110037 0.029150352 -0.07758802
0001e0 28 d9 12 3d 5a 65 ae bd d0 38 f5 bd fc a3 6e bd
       0.035851628 -0.08515425 -0.11973727 -0.058261856
0001f0 24 5c 96 bd b6 4e dd bd f8 12 d2 3c ba c2 c1 3d
       -0.07341793 -0.108060285 0.02564381 0.09460969
000200 b0 d1 91 bd 80 6a f6 bc d4 42 f2 3d 00 4b 06 3a
       -0.07120073 -0.03008008 0.11829153 0.000512287
000210 e0 fc ba 3c 6c 17 b4 3d 00 82 61 3c 80 f1 ce bb
       0.022825658 0.0879353 0.013763905 -0.00631541
000220 d8 4d ea 3c 02 0e bb bd de 13 b5 3d b4 1d e8 3d
       0.028601572 -0.09133531 0.0884168 0.113337904
000230 90 68 7d bc e8 6b 87 bc 0c 94 e5 bd 8c 0c fd bd
       -0.015466824 -0.016530946 -0.11209878 -0.12355909
000240 7e 1b e4 bd 10 44 71 bc e0 c1 3f bc 3a 20 b2 3d
       -0.11138056 -0.0147257 -0.011703938 0.08697553
000250 48 68 2c 3d 44 2d ef bd 64 a6 c5 bd 48 f7 b4 3d
       0.042091638 -0.116785556 -0.09650877 0.08836228
000260 a8 a8 b0 3c 52 b0 d6 bd 28 08 5c bd 28 10 d0 bd
       0.021564797 -0.10482849 -0.053718716 -0.101593316
000270 ac a8 68 bd b0 33 ba bd 30 d9 44 bd 18 73 86 3d
       -0.056801483 -0.0909189 -0.04805869 0.06564921
000280 60 f3 c3 bc ac e3 03 bd 10 8a 41 3c 20 f3 81 3b
       -0.023919761 -0.032199547 0.011812702 0.0039657503
000290 3c 27 36 bd 96 09 de bd d0 2f ab 3c b4 ba 27 bd
       -0.04447101 -0.10841672 0.020896822 -0.04094954
0002a0 d0 44 e7 bc 78 0e 8e bc a0 52 64 bd 40 73 6d bc
       -0.028231055 -0.017340884 -0.05574286 -0.01449281
0002b0 00 36 be b9 44 3b f7 3d 70 82 a4 3d 80 02 be bc
       -0.00036279857 0.12071851 0.080326915 -0.023194551
0002c0 80 b0 a3 bb 7c b0 23 3d 10 91 99 bc 34 4d 06 bd
       -0.0049954057 0.03996323 -0.018745929 -0.03278847
0002d0 24 2c 99 3d 48 76 91 bc c0 82 54 bc 60 34 02 bc
       0.07479122 -0.017756596 -0.012970626 -0.0079470575
0002e0 04 c0 0d bd ea 24 ef 3d 50 31 30 bd 00 2d 9e 3a
       -0.03460695 0.11676963 -0.043015778 0.0012067854
0002f0 d8 83 de 3c fa 92 85 bd e2 45 e8 3d 64 72 e4 bd
       0.027162477 -0.06522174 0.11341454 -0.11154631
000300 af b9 5b 3b ba e3 69 3d ab 03 26 bb 71 41 b6 3d
       0.0033527424 0.057101943 -0.0025331776 0.08899201
000310 52 d5 0a bd ad fc da 3d 94 fe 9a bd a4 a0 ca bd
       -0.033894844 0.10692725 -0.07568088 -0.09893921
000320 08 48 b1 3d 0a ea cc 3b 14 0c cb bc 41 2a a9 3d
       0.08656317 0.0062534856 -0.024786033 0.082600124
000330 9b 0f 02 3d 1d bc 8a bd d1 9d d1 bd 57 9d 6e bd
       0.031753164 -0.06774161 -0.10235179 -0.05825552
000340 94 ea 65 3d 1d e3 22 bd 3f c2 ec 3c e6 c3 5d 3d
       0.056131914 -0.039767373 0.028901218 0.0541419
000350 b4 3c c9 bd cd e7 c2 bd c4 35 dd 3b 8a ba c7 bd
       -0.09826031 -0.09516869 0.006750794 -0.097523764
000360 f5 ee 88 3d 39 8b 5c bc 3a 65 01 bd 06 95 92 bd
       0.066862024 -0.013460928 -0.031590678 -0.0715733
000370 df 56 ab bc fe 66 ff 3d 11 9c 41 3d 30 92 db bd
       -0.020915447 0.12470816 0.047267977 -0.107212424
000380 c6 0a eb 3d 7e 32 cb bc 1f 24 e9 3d b6 99 83 3c
       0.11476664 -0.02480435 0.11383843 0.016064506
000390 76 ee fb bd 1e 6e e6 3d ba 08 97 bc 24 8a 86 bd
       -0.12301342 0.11251472 -0.018436778 -0.06569317
0003a0 9b dd e0 3d 56 c7 22 3c bc 8c 38 3b a5 b9 de bd
       0.10979768 0.009935221 0.0028160056 -0.10875253
0003b0 af cf b6 bd 7c 95 f7 3d 25 63 ad bd ae b2 a0 3d
       -0.08926331 0.12089059 -0.08466176 0.078465804
0003c0 e4 97 94 bd cd 90 3a 3d 15 e3 ba bd a2 ef c4 bd
       -0.07255533 0.04554825 -0.09125344 -0.09616019
0003d0 4f 73 35 3c fc 27 f1 bd a7 3e e2 bc d9 bf bf bd
       0.011074855 -0.117752045 -0.027617766 -0.09362764
0003e0 00 2c 3d bd 32 99 94 3d a2 3a 1d bd 3f 28 d2 3d
       -0.04618454 0.07255782 -0.038385995 0.102615826
0003f0 b6 64 48 3d 0e 10 18 bd b5 f7 21 bd 6e e1 f6 bc
       0.04892417 -0.037124686 -0.039542872 -0.03013679

fc1.bias f4 [32]
000000 85 c8 5b bd 6e 43 c4 3d 5c 0e 9b bd a8 8e b7 bd
       -0.053658027 0.09583174 -0.07571098 -0.089627564
000010 3c af 55 bc 94 8a 6a bd ea f3 19 bd 4f 12 4e 3d
       -0.013042267 -0.057261065 -0.03758613 0.05031043
000020 ca 01 2a bd 13 16 57 bd 30 db 86 bd 98 c4 ac 3d
       -0.041505612 -0.052511286 -0.065847754 0.08435935
000030 d5 10 4b 3d 69 ef 5c bd 2e e2 b5 bc c2 56 36 3c
       0.0495766 -0.053939257 -0.022202577 0.011129083
000040 e1 ac 7e 3d 96 a2 00 be 84 38 9d bb 1c 5a 50 bd
       0.06217659 -0.12562022 -0.004797997 -0.050867185
000050 88 05 9d 3c 08 64 ae 3c d2 25 ed 3d 4c af f4 bd
       0.019167677 0.021287933 0.11579479 -0.11947498
000060 2e a4 fe 3d fd 66 7b bd 8f f8 80 bd 9b bd b4 bb
       0.124336585 -0.061377514 -0.06297409 -0.005515767
000070 37 47 d7 bd 36 57 78 bd 00 9e 82 bb 4a d7 fa bd
       -0.1051163 -0.060630046 -0.00398612 -0.122480944

fc2.weight f4 [1, 32]
000000 c6 08 11 bd 52 3c 2c 3e d2 39 1e 3e f0 d2 13 be
       -0.035408758 0.16819885 0.15451744 -0.14435935
000010 f2 f7 01 bd 28 07 c4 3d 8f 73 f4 bd ce 33 4f bc
       -0.0317306 0.095716774 -0.119361036 -0.012646629
000020 d1 2f 29 bd e9 0b 23 be 52 91 19 3e a1 79 ce 3d
       -0.041305367 -0.15922512 0.14996842 0.100817926
000030 08 03 8a bd 86 a7 fa bd 82 f3 d7 bd dc 2a 0f bc
       -0.067388594 -0.12238984 -0.10544492 -0.008738246
000040 70 32 02 3e 30 9b 11 3e aa 5c 9f bd 80 3e 04 be
       0.12714553 0.14219356 -0.07781346 -0.12914467
000050 b7 f8 4c bd a9 c4 81 3d 75 a9 22 be b3 82 9f 3d
       -0.05004188 0.06336338 -0.15884955 0.07788601
000060 ae 1d d6 bb d0 d0 2f be f6 5f 54 3b 9f 9d 91 bd
       -0.0065343 -0.171695 0.003240583 -0.07110142
000070 e7 92 10 bd 09 36 9b 3d cd 8c ec bd 24 5b 97 3d
       -0.035296347 0.07578666 -0.11550293 0.073904306
