output/out_models/dqn_models/irl/add_100.pth (torch, 9887 bytes, 3 tensors)

fc1.weight f4 [32, 64]
0	0x3dbe353d	0.09287498
1	0xbd8a7a5e	-0.06761621
2	0x3a99d622	0.001173679
3	0xbbf8940a	-0.007586007
4	0x3dfa71bf	0.122287266
5	0xbd0e3a96	-0.03472384
6	0x3de33874	0.11094752
7	0xbd58999d	-0.052880872
8	0xbd6062b9	-0.05478165
9	0x3cb42cc1	0.021993997
10	0xbd4da443	-0.05020548
11	0xbc01728d	-0.007900846
12	0x3d0d7b42	0.034541376
13	0x3a770711	0.0009423355
14	0xbbbabee1	-0.005699024
15	0xbc5a5ff8	-0.013328545
16	0x3dc673a8	0.096900284
17	0x3d6fa5ce	0.058507733
18	0xbde87fbc	-0.113524884
19	0xbd6d39b9	-0.057916377
20	0x3db9db13	0.09074988
21	0xbde1c8e0	-0.11024642
22	0xbc95d4f4	-0.01829002
23	0xbd4ee1ad	-0.05050819
24	0x3d7f64b1	0.062351886
25	0xbd6809d3	-0.056649994
26	0x3d5bbaa5	0.053644795
27	0xbd3c36fb	-0.04595087
28	0x3afb1b50	0.001915792
29	0xbd7c77ed	-0.061637808
30	0x3d58a718	0.052893728
31	0xbc730c88	-0.014834531
32	0x3d14afd5	0.0363005
33	0x3df2911c	0.11844084
34	0xbd87c216	-0.06628816
35	0xbd2d7486	-0.042347454
36	0x3c833963	0.016018575
37	0x3dcab9af	0.098986976
38	0xbce79973	-0.028271412
39	0xbdadae5d	-0.08480523
40	0xbdb494a5	-0.08817414
41	0x3d635c12	0.055507727
42	0xbda05474	-0.07828608
43	0x3cc08363	0.02350015
44	0x3c9ab960	0.018887222
45	0xbdbd1805	-0.09233097
46	0x3dbca6cc	0.092115015
47	0x3dabe81d	0.083938815
48	0xbd5ce9a4	-0.053933755
49	0x3dbf6152	0.09344734
50	0x3df788b7	0.12086623
51	0x3b3a7db5	0.0028456275
52	0xbddb6f7e	-0.10714625
53	0x3c9462d2	0.018113527
54	0x3c4dfad6	0.012572011
55	0xbd8dd941	-0.069262035
56	0xbcc3e421	-0.023912491
57	0x3df6bd31	0.12047804
58	0xbdac5e73	-0.08416452
59	0x3d3c9859	0.046043728
60	0xbddaba3a	-0.10680051
61	0x3d2ae275	0.041719873
62	0x3de53cc0	0.11193228
63	0x3ddb9b1c	0.10722944
64	0x3e00582a	0.12533632
65	0xbdaa4e18	-0.083156765
66	0xbd8bc9a9	-0.06825573
67	0x3d57b24d	0.052660275
68	0x3d9fd15c	0.07803604
69	0xbd8d5ad9	-0.069020934
70	0x3d64a0c7	0.05581739
71	0x3da25b71	0.07927597
72	0xbdaa855b	-0.08326217
73	0x3ddee4ea	0.10883506
74	0xbd5d8304	-0.054080024
75	0xbbdd101f	-0.0067463065
76	0xbbd76de8	-0.006574381
77	0xbd629917	-0.05532178
78	0xbda7d5b8	-0.081950605
79	0x3daf26ec	0.08552346
80	0xbdc8d870	-0.09806907
81	0xbd0d4d82	-0.034497745
82	0x3c92a1a1	0.017899336
83	0x3dd3a9d9	0.1033513
84	0x3dd5eab1	0.104451545
85	0x3bff00b8	0.007782068
86	0xbb297a2a	-0.002586017
87	0xbd879f01	-0.066221245
88	0xbd69d813	-0.05709083
89	0x3b1577b1	0.0022806937
90	0x3d1ca9bb	0.038247805
91	0xbc9f3372	-0.01943371
92	0xbd9d9a30	-0.076954246
93	0xbd3b9865	-0.04579963
94	0xbd8fb9fe	-0.07017897
95	0x3c9085dd	0.017641956
96	0xbcbe72fd	-0.02324819
97	0x3caf6ce8	0.021414235
98	0xbdda90d0	-0.10672152
99	0xbc835f4a	-0.016036648
100	0x3df6d157	0.12051647
101	0xbd9dc61f	-0.07703804
102	0x3d58c635	0.0529234
103	0x3d4dcde5	0.050245184
104	0xbdb82e66	-0.08993225
105	0x3dfe6cd5	0.12423102
106	0x3d2d4c3e	0.04230904
107	0x3d904415	0.070442356
108	0x3d3e0e97	0.046400633
109	0xbcdc0829	-0.02685936
110	0x3ccffc4d	0.025388861
111	0xbc14bf4c	-0.009078812
112	0x3db823ec	0.089912266
113	0x3dec50bb	0.115388356
114	0x3dcb044a	0.099129274
115	0xbdc8c92b	-0.09803995
116	0xbd50c7b9	-0.05097172
117	0x3dce815e	0.100832686
118	0x3d96aca3	0.073571466
119	0x3d506df7	0.05088612
120	0xbde8fb88	-0.11376101
121	0xbc962775	-0.018329361
122	0xbcf9c16a	-0.030487735
123	0x3d1a6f4f	0.03770381
124	0x3d68ef13	0.056868624
125	0x3d2dc297	0.042421903
126	0xbdd8bd76	-0.10583012
127	0x3da08db6	0.07839529
128	0x3df3a13a	0.11895986
129	0x3cb966a8	0.022631958
130	0xbde5a502	-0.11213113
131	0xbd791ee0	-0.06082046
132	0xbdc12e78	-0.09432691
133	0x3de829e6	0.113361165
134	0x3dc608be	0.09669636
135	0x3d9bbf52	0.07604851
136	0xbcbf1150	-0.023323685
137	0x3d835ea2	0.06414534
138	0x3d07d670	0.033163488
139	0x3df54bca	0.11977346
140	0xbc36b0e0	-0.011150569
141	0xbdb34430	-0.0875324
142	0x3da08a66	0.078388974
143	0x3dcb9158	0.099398315
144	0x3dc3b548	0.09556061
145	0x3d38ad04	0.045086876
146	0x3d6bfba8	0.057613045
147	0xbc5837c0	-0.013196886
148	0xbc865e00	-0.016402245
149	0xbce44300	-0.02786398
150	0x3ca13ba8	0.019681767
151	0xbd185df4	-0.037198976
152	0xbdb9bc84	-0.090691596
153	0xbb444840	-0.002995029
154	0x3c71f430	0.0147676915
155	0x3b21b940	0.0024677068
156	0x3c10c680	0.008836389
157	0x3d3c9ed4	0.046049908
158	0x3d88ed40	0.06685877
159	0x3d97f9a8	0.07420665
160	0x3d6db720	0.05803597
161	0x3d4c64e4	0.049900904
162	0xbd85a714	-0.06526008
163	0xbc6a0e40	-0.014285624
164	0xbd88142e	-0.06644474
165	0xbdf18454	-0.11792818
166	0xbc166a90	-0.00918068
167	0xbd9742f0	-0.07385814
168	0x3dc1ee70	0.094693065
169	0xbde95526	-0.11393194
170	0xbdd19334	-0.10233155
171	0xbd4610f8	-0.048356026
172	0xbc7e31a0	-0.015514761
173	0x3d8755fe	0.066081986
174	0xbdf3ebd2	-0.119102135
175	0x3cb25d10	0.021772891
176	0x3d8af930	0.0678581
177	0xbdd988a4	-0.10621765
178	0xbdf4e790	-0.119582295
179	0xbdb52b96	-0.08846204
180	0xbce2c900	-0.027683735
181	0x3d8904a6	0.0669034
182	0xbd3d6c10	-0.046245635
183	0x3bff78a0	0.007796362
184	0x3c46ee90	0.012141839
185	0x3d924782	0.07142545
186	0xbd26d618	-0.04073152
187	0xbdfaa364	-0.122381955
188	0xbda22a14	-0.07918182
189	0xbd69fb1c	-0.057124242
190	0x3c310ac0	0.010805786
191	0x3b362340	0.0027792007
192	0x3dd28757	0.1027972
193	0x3dd22489	0.10260875
194	0xbda383c1	-0.079841144
195	0xbdb17ff9	-0.08666987
196	0xbd2a4d39	-0.04157755
197	0xbd498c02	-0.049205787
198	0xbd383624	-0.044973508
199	0xbd75c419	-0.060001466
200	0x3d380646	0.044927858
201	0xbd90efde	-0.07077001
202	0x3c0db1f9	0.008648389
203	0xbd05eb20	-0.032694936
204	0xbca273af	-0.019830553
205	0xbd591178	-0.052995175
206	0xbdc93c6b	-0.09825977
207	0x3daddee4	0.08489779
208	0xbcbb5e58	-0.022872135
209	0x3d0497ca	0.03237132
210	0xbdba5745	-0.090986766
211	0x3ce5b9d2	0.028042708
212	0xbd67902c	-0.056533977
213	0xbbe1f2d1	-0.006895401
214	0xbdc54f6f	-0.096342914
215	0x3b6992e4	0.0035640532
216	0x3ce1531c	0.02750545
217	0x3d3f8210	0.046754897
218	0xbd74fc15	-0.059810717
219	0x3ce60484	0.028078325
220	0xbd36f29d	-0.044664968
221	0x3cb242d1	0.021760376
222	0xbdf941c5	-0.12170748
223	0xbdbbb719	-0.091657825
224	0x38dfcb18	0.00010671298
225	0xbd8c03ee	-0.06836687
226	0x3b1455e8	0.0022634212
227	0xbc7171d6	-0.014736613
228	0x3c7ccec8	0.01543016
229	0x3c8fd233	0.017556285
230	0xbb55b072	-0.003260639
231	0x3d852aaa	0.06502278
232	0x3d9b22fe	0.075750336
233	0xba3b34ed	-0.00071413704
234	0x3bc21206	0.0059225587
235	0xbd1ccf1f	-0.038283464
236	0xbd606477	-0.05478331
237	0xbdae4c54	-0.08510652
238	0x3d3e6dd1	0.046491448
239	0xbd98989e	-0.074509844
240	0xbc6bdca0	-0.014395863
241	0xbd9affe8	-0.075683415
242	0x3c4d79fc	0.01254129
243	0xbd9bf22d	-0.07614551
244	0x3d30dcde	0.043179385
245	0xbcd3bbb7	-0.025846345
246	0xbd95676f	-0.07295119
247	0x3c2242e5	0.009903644
248	0x3d931362	0.07181431
249	0x3d907e82	0.070553795
250	0xbd4768d6	-0.048683964
251	0x3db7ebbd	0.089805104
252	0x3a57be7b	0.0008229983
253	0x3dc41ffb	0.09576412
254	0x3d7a4575	0.061101396
255	0xbdbf9386	-0.0935431

fc1.bias f4 [32]
0	0xbd01ceb5	-0.03169127
1	0x3d29a934	0.04142113
2	0xbbef4ca0	-0.0073028356
3	0xbd04b633	-0.03240032
4	0xbc603810	-0.013685241
5	0x3d44b480	0.0480237
6	0xbcacd22c	-0.021096312
7	0x3d9c51e0	0.07632804
8	0xbd9deb5c	-0.07710907
9	0x3db782e0	0.08960509
10	0xbd46fd02	-0.04858113
11	0x3ce5efff	0.02806854
12	0x3d18a6fc	0.037268624
13	0xbdd23183	-0.1026335
14	0xbdc4119c	-0.09573671
15	0xbddf3a0c	-0.108997434
16	0xbd630778	-0.055427045
17	0x3da9419f	0.08264469
18	0xbd626f14	-0.055281714
19	0x3d4f1d92	0.05056531
20	0x3d8cf50a	0.06882675
21	0x3c7b2d0b	0.015330563
22	0xbdb52408	-0.08844763
23	0xbdad3bc0	-0.08458662
24	0x3c09c456	0.008408627
25	0xbd0b9940	-0.034081697
26	0xba3e8cbf	-0.00072688976
27	0xbb0d8d10	-0.0021598972
28	0xbb040bac	-0.0020148559
29	0xbdf8a938	-0.12141651
30	0x3da378cc	0.079820246
31	0x3dcdd464	0.10050276

fc2.weight f4 [1, 32]
0	0x3db56028	0.08856231
1	0x3af1cbe1	0.0018447601
2	0x3d6ed2c0	0.058306456
3	0xbd05ba31	-0.03264827
4	0x3d7a8438	0.06116125
5	0xbc414c37	-0.011797956
6	0x3dc28ebc	0.09499881
7	0x3d636c70	0.055523336
8	0x3d8ccc9e	0.06874965
9	0x3d2d1f77	0.042266335
10	0xbd828595	-0.06373135
11	0x3df019bd	0.11723659
12	0x3deef552	0.11667885
13	0x3e083a8d	0.13303585
14	0x3d79a3b1	0.060947124
15	0xbd4ed176	-0.050492726
16	0xbc75c110	-0.014999643
17	0x3d591c83	0.053005707
18	0xbdfd979f	-0.12382435
19	0xbd834450	-0.06409514
20	0x3e2c009b	0.16797106
21	0x3b6c73e3	0.0036079816
22	0x3bdfc532	0.0068289274
23	0x3d93ebb0	0.07222688
24	0x3e234d05	0.1594735
25	0xbdaeb845	-0.085312404
26	0x3e1830b9	0.14862336
27	0x3e169760	0.14706182
28	0xbd386b89	-0.04502443
29	0x3d74ec65	0.059795756
30	0x3e09273b	0.13393871
31	0xbb7e19ef	-0.0038772782
