output/out_models/dqn_models/irl/add_123.pth (torch, 9887 bytes, 3 tensors)

fc1.weight f4 [32, 64]
00000000: f7fb cabd d2f1 ebbd 1a7e e83b db9c f3bd
00000010: 81c8 6a3d 23f3 c73d 463e e43d a08f 83bd
00000020: bc07 a73c f053 cf3d d227 44bd 2afc 39bd
00000030: 4668 c83c c216 afbd 63d4 ce3d d87d c5bc
00000040: da01 bfbd eb77 093d 215c 853d 0617 b4bd
00000050: cae8 7cbd cd2d 7dbd 917d fd3d 6b3c 953d
00000060: 87d3 a4bc 72f8 863c 45d1 e33b ea9b 9abd
00000070: ccfb 92bd 444d 89bd c7d8 ff39 619d 9ebd
00000080: cd82 37bd df85 c43d 4a9e e3bd 11b9 a3bd
00000090: 8351 b43c b7bc 623d 67fa bd3d 0fea 833d
000000a0: 4553 833d db5f 9cbc f047 b2bd 1b84 a0bc
000000b0: 255c a33a ade2 023e 8236 ecbd 0dd7 f83c
000000c0: ae32 e7bd 5d7d 9e3d a0eb 40bd 2c52 5b3d
000000d0: f654 cf3d ea6d b2bd 8271 753d b7e1 a73d
000000e0: 7ee9 84bd 9ee4 d43d b43f 1fbd a257 8bbd
000000f0: db23 993d 349b 293d de13 9a3d 8c26 5b3b
00000100: 318b 79bd 6603 cebd 4acf ba3d 27f1 e9bd
00000110: c524 9dbd 7262 7dbd 0946 243d 6754 a43d
00000120: ad8e ec3d 0981 143d 2305 2b3d a117 bcbd
00000130: e109 b3bc 3640 cbbd 7db4 ac3d c2ab 7fbd
00000140: 10f3 353d 1b95 d03c 4b1b 93bb 3c78 873d
00000150: 6b24 ee3c add7 8cbd b324 c53b b3bf 803d
00000160: 0581 4abd 2ae8 c7bd 07c3 833d 7749 b4bb
00000170: 2456 b83d 6d96 253d 3b12 473d 7b5a 83bb
00000180: 7650 ffbc fd13 20bd 0645 cf3d 971e b93d
00000190: f947 7cbd 2ff7 12bd e4c7 b93c 84e9 7c3d
000001a0: 4aea 983d 4739 31bd 2e47 d2bd 1f55 3dbd
000001b0: 9f32 cbbd ec23 ea39 3c61 f43d 5863 673d
000001c0: b652 dabd 47b0 b13d 7286 1dbd 52cc 9a3b
000001d0: 0a75 a73d fd59 fbbc d6b2 d73d d0be 13bd
000001e0: 073c a8bc e4a8 34bb 5ead e13d 5f53 9d3d
000001f0: 3956 fe3d 74cc a2bd e2d8 2fbd 9985 e2bd
00000200: b1ad f43d 1afd 393c 7b86 b93d a900 6fba
00000210: 5528 e9bd 2a81 5f3d 8f9b 5c3d 5342 6bbd
00000220: b659 d3bb 67b9 953d 1757 e5bb 00e6 91bd
00000230: 7e50 3cbd b4cd 4f3d 0f0d fdbd b31a f2bd
00000240: 7489 76bd 3d43 753c 1cf6 e8bd f20d c8bd
00000250: 7178 91bd 9517 9dbd 310b 33bd 89bd 51bd
00000260: 9e73 a4bd 64a5 b4bd c6c1 fdba df61 073d
00000270: be9e e03d 380e 81bb d51c c0bd 3d0d 00be
00000280: ef9a aa3d dcbd 793d 08bb ba3d 6e01 f73c
00000290: 4de1 babd 8626 df3d 2bed 9a3d d720 e9bb
000002a0: afef cabd 37fb 01bd 542c 63bd fc91 92bb
000002b0: 2e8d 353d e926 4c3d 53e4 c1bd 1497 e9bc
000002c0: f62d d93d 1bf9 843d 4e89 d43d 3153 333c
000002d0: 8ab4 9d3c 4566 31bd 0579 da3d 941a b23d
000002e0: a259 d4bd 8b6e 4cbc e0d0 c83d ac99 bdbd
000002f0: 94c8 6ebc d416 47bd 4b08 6dbd 0d3c 0ebc
00000300: e1a1 4bbd 2ba0 aaba 97e9 d5bc 0902 3b3d
00000310: dc8e 72bd 20e5 493d 84ef 4dbd 3fae e43d
00000320: eee2 9c3b 8ff6 15bd ba15 c0bd 2f47 85ba
00000330: 7787 a3bd de66 8ebc 3ced f53c e2cd 0ebc
00000340: 0a64 ef3d a5a6 a4bd 87a6 023e 7c72 cc3d
00000350: 748a a23d e6f5 c63d ac3e cfbd 50b6 adbd
00000360: 2d3a 46bd bd73 cf3d ae54 a33d 2ee6 573c
00000370: 1774 4bbc 559e 82bc 53d8 bdbd 4bd7 d1bd
00000380: 3872 ee3d 0452 a03d 72cc d5bd c411 d93d
00000390: 8232 d5bc 477c 06bd cf31 90bd 48cc c3bd
000003a0: cb49 033e 85b9 a53c 7257 67bd 8df7 a13d
000003b0: f2cf 783d d81f a73d 1c1f 2a3d 9592 b5bb
000003c0: 7839 bcbd 535c c0bc 534c 84bc 58f5 9b3d
000003d0: 38c1 c43c 1921 acbd 8525 c13d 6dfb 53bd
000003e0: e7d2 f93c ec6b 95bd 68af f93c 4a94 b9bd
000003f0: 281b ad3c 59e2 9cba 4841 ac3d 1be1 ce3d
-0.0991134 -0.11520733 0.0070951106 -0.11895152 0.05732012 0.097631715 0.1114469 -0.06423879
0.02038943 0.10123432 -0.047889538 -0.045406498 0.024463784 -0.085492626 0.10099103 -0.024107859
-0.09326525 0.03356163 0.06511713 -0.08793454 -0.061745442 -0.061811257 0.123774655 0.072869144
-0.020120395 0.01647589 0.006952437 -0.075492695 -0.07176933 -0.067041904 0.00048798902 -0.077448614
-0.044802476 0.095958464 -0.111141756 -0.07994283 0.022011524 0.055355754 0.09276276 0.064411275
0.06412367 -0.019088676 -0.08705127 -0.019594243 0.0012463374 0.12781782 -0.11533834 0.030375982
-0.11288963 0.07738755 -0.04709971 0.053545162 0.10123627 -0.08712371 0.059922703 0.081973486
-0.064898476 0.10395168 -0.03887911 -0.06803824 0.07477542 0.04140778 0.075233206 0.0033439724
-0.06092376 -0.10059242 0.091215685 -0.11422949 -0.07673029 -0.061861463 0.040105853 0.08023911
0.11550651 0.03625587 0.041752946 -0.09184194 -0.021855297 -0.09924357 0.08432863 -0.06241966
0.044421256 0.025461724 -0.0044893376 0.0661473 0.0290701 -0.068770744 0.006016338 0.06286564
-0.04943945 -0.09761079 0.06433683 -0.0055019218 0.09000805 0.04042666 0.04860137 -0.004008589
-0.031166296 -0.039081562 0.10120587 0.09039038 -0.061592076 -0.035880264 0.022678323 0.061746135
0.07466562 -0.043267515 -0.10267483 -0.046223756 -0.099217646 0.00044658722 0.119326085 0.056491226
-0.10660307 0.086762 -0.038458295 0.004724064 0.0817662 -0.030682558 0.10532157 -0.036070645
-0.020536436 -0.0027566487 0.11019395 0.076819174 0.124187894 -0.079491526 -0.042931445 -0.11060638
0.119471915 0.011351848 0.09058853 -0.0009117225 -0.11384646 0.05456654 0.05385929 -0.0574363
-0.0064499034 0.07310753 -0.0069989073 -0.07123947 -0.0459752 0.050733283 -0.12356006 -0.11821499
-0.06018968 0.014969644 -0.11375067 -0.09768285 -0.071030505 -0.076705135 -0.043711845 -0.051206145
-0.08029865 -0.08820608 -0.0019360117 0.03305232 0.10967778 -0.0039384626 -0.09380499 -0.1250505
0.083303325 0.06097208 0.09117705 0.030152049 -0.09125004 0.1089602 0.075647675 -0.0071145105
-0.09908997 -0.031733718 -0.055462196 -0.004472969 0.044324093 0.049841795 -0.094673775 -0.028514422
0.106044695 0.064928256 0.10377751 0.010945127 0.019251127 -0.043310422 0.10667614 0.086964756
-0.103686586 -0.012477527 0.09805465 -0.09257826 -0.014574189 -0.048605755 -0.057869237 -0.008681309
-0.049714927 -0.0013017704 -0.02611236 0.045656238 -0.059218273 0.049290776 -0.050277248 0.11166047
0.0047877943 -0.03661209 -0.09379144 -0.0010168309 -0.07984822 -0.017383035 0.030020349 -0.0087160785
0.11689003 -0.080395974 0.12758838 0.09982774 0.07936564 0.0971487 -0.101193756 -0.08482039
-0.048395324 0.10129497 0.07975136 0.013177438 -0.012417815 -0.01594464 -0.09269776 -0.10246142
0.11642879 0.07828143 -0.104393855 0.10599092 -0.02602506 -0.032833364 -0.0704075 -0.09560448
0.12821119 0.020230064 -0.05647988 0.07908545 0.060745187 0.081603706 0.041533574 -0.0055411556
-0.09190649 -0.023481524 -0.016149675 0.07615155 0.024017915 -0.084047504 0.094309844 -0.05175345
0.030496074 -0.07295975 0.030479148 -0.09061487 0.021131113 -0.0011969312 0.08410889 0.10101529

fc1.bias f4 [32]
00000000: b3ef 7a3d 47b1 07bd e36b 1fbc 6c3e acbd
00000010: 7c7e c43c 1383 2bbd e2ac 65bd 20d8 5bbd
00000020: 72ee f93c f497 503d 9d2c d1bd 6cc8 2d3d
00000030: dba1 4dbd 236e d83c ee06 3cbc a403 56bd
00000040: a484 1e3d 389c d3bd 90d1 3c3c 025f 9cbc
00000050: ee0d c2bd 271b 5d3d d848 81bd 5680 d33d
00000060: 603b 12bc 0445 d2bd 2648 c7bd 489e 8a3d
00000070: 6038 643c 8b33 803d e436 afbb e12b 9fbb
0.06126375 -0.03312805 -0.009730312 -0.084103435 0.023986094 -0.04187305 -0.056073077 -0.05367291
0.030509207 0.050926164 -0.102135874 0.042427465 -0.050203186 0.026419705 -0.011476262 -0.052249566
0.038700715 -0.10332531 0.011524573 -0.019088272 -0.09475313 0.053980973 -0.06312722 0.103272125
-0.008925289 -0.1026707 -0.09730558 0.06768471 0.0139294565 0.06259831 -0.0053471196 -0.0048575257

fc2.weight f4 [1, 32]
00000000: 8e8d 9d3b 7d77 c93d e647 acbc c7e0 883c
00000010: 7121 ff3d 27ad d3bc f6ba 353e 099c f5bd
00000020: 003c 993d 69e3 483d c240 d43c e6c2 dd3c
00000030: 545c 233e 8d04 eb3d 80ac 363e 2fdb 673d
00000040: e3fc 193c 837b 293e 065d f3bd 6b76 76bd
00000050: 0a3e 58bd aa2a 0bbe 743d abbd cb53 5fbc
00000060: bc70 21bd fbfb d13c ea84 72bd 618c e8bc
00000070: b098 0abe 37b6 54bd 1061 af3d 5608 153e
0.0048081344 0.09837244 -0.021030378 0.016708745 0.1245755 -0.025839401 0.17747101 -0.11992652
0.07482147 0.049045 0.025909785 0.027070474 0.15953189 0.11475477 0.17839241 0.056605514
0.009398672 0.16551022 -0.11882977 -0.060171526 -0.05279354 -0.13590494 -0.08361331 -0.013630818
-0.039414153 0.025632849 -0.059208788 -0.02838725 -0.13534808 -0.051931586 0.08563435 0.14553961
