output/out_models/dqn_models/irl/dlt_212.pth (torch, 9887 bytes, 3 tensors)

fc1.weight f4 [32, 64]
0.06967376 -0.009144723 -0.033980653 -0.056998998 0.039277494 -0.07185677 0.11213179 -0.065953836
-0.00739187 0.052357525 0.04885122 -0.068272576 0.107278064 0.031801492 -0.0753842 -0.080224514
0.05773188 -0.09485221 -0.091488704 0.0068875104 -0.08300091 -0.045830175 0.04125516 0.05256006
-0.076765224 0.119090796 -0.07996155 0.055700302 0.0725086 0.07986398 0.07354781 -0.045079634
0.021424592 0.100471124 -0.083756685 0.06458907 0.04097122 -0.017545491 -0.10556379 0.021575302
0.017117068 -0.082465425 -0.040235758 -0.0605755 0.09629069 0.09666376 -0.11506455 0.067212775
-0.06907271 0.07643886 -0.053705513 0.037922457 -0.082053006 0.02417162 -0.072039336 0.023469567
-0.029387176 -0.08969864 -0.051729456 0.03440784 0.022657692 0.084347904 -0.10112859 0.043185458
-0.09259322 -0.11453119 -0.101740584 -0.025329962 -0.01813522 0.02879043 -0.089145795 0.05816096
-0.11399768 -0.07753563 0.088138595 0.038683996 -0.10151024 0.023371652 -0.026918173 -0.008636028
0.021449983 0.033148408 -0.091353744 -0.020879477 0.10747689 -0.089801684 0.099378556 0.108705476
-0.04304564 0.02355653 0.03472446 -0.045783967 0.096292764 0.081498206 0.09470582 0.054056942
-0.10795696 -0.014748827 -0.000295043 -0.05056183 0.07374863 -0.018761918 0.09178835 -0.03992045
0.06515318 0.076146126 0.024484843 -0.004635066 0.0876082 -0.014928877 0.015429363 0.07640794
-0.048377633 0.097644314 0.07579425 -0.051362038 0.053607285 0.07583393 -0.07274386 -0.028502673
0.08452615 -0.1041742 -0.0077798963 0.00537166 -0.09816013 0.08883321 0.023697034 0.031533033
0.08858825 -0.082582295 0.11604811 -0.10545118 0.068036005 0.03492655 -0.106084764 -0.033519804
-0.096478045 0.07630892 -0.062826335 -0.032021552 -0.07198621 0.025959611 0.06328724 0.12210804
-0.078007296 -0.013985187 0.063816786 -0.06218797 0.033684716 0.05100003 -0.09310442 0.10058235
-0.020737544 0.08139065 -0.095626146 0.010174558 0.06581488 -0.06412478 0.03661798 -0.015592903
0.08353694 -0.05263029 0.111876026 -0.035632297 0.09173198 -0.050799772 -0.122678384 0.0843693
0.048646957 0.030334324 0.11703591 -0.021632165 0.09029135 -0.007088095 0.046187997 0.05532968
-0.07270655 0.07632735 -0.08353034 0.11482796 0.09175958 -0.009169698 0.039406776 -0.014948785
0.09377813 -0.064217895 -0.080031365 -0.03235069 -0.014818013 0.034484357 -0.043121368 -0.10013586
0.11823678 -0.0032404363 -0.030932695 -0.07621078 0.05955094 -0.03721097 0.07988465 -0.06094706
0.12063792 0.004081115 -0.1049826 0.05098033 -0.1233553 -0.11393227 -0.09989455 -0.019508466
-0.0035033077 0.0061794817 0.07163489 -0.10615358 -0.11298375 -0.082191885 -0.059037462 -0.12282553
0.022538617 0.08430028 0.0010814965 -0.06930959 0.053458616 0.05729583 0.09662174 0.09847155
-0.10079485 0.116195306 -0.07930677 0.10590811 -0.09440468 0.018821597 0.032699823 0.054673746
0.1177475 -0.07017924 0.01784888 0.040516034 0.020923197 -0.06476921 0.10054541 -0.029360399
-0.05649689 -0.08851272 -0.028727591 0.1097419 0.043511584 0.02139172 -0.07071923 -0.044015914
-0.06898573 0.122522146 0.060388222 -0.088428274 0.04802315 -0.05792512 -0.07022405 0.032461196
00000000: 1eb1 8e3d c0d3 15bc 4c2f 0bbd c877 69bd
00000010: 70e1 203d a429 93bd 5aa5 e53d ce12 87bd
00000020: 8037 f2bb d874 563d 3818 483d 7ed2 8bbd
00000030: 9ab4 db3d 4842 023d 0863 9abd c04c a4bd
00000040: 4478 6c3d e041 c2bd 6e5e bbbd a0b0 e13b
00000050: 62fc a9bd 6cb8 3bbd 2cfb 283d 3849 573d
00000060: 1637 9dbd e0e5 f33d e2c2 a3bd 0026 643d
00000070: 647f 943d ba8f a33d 3ca0 963d 6ca5 38bd
00000080: a082 af3c cec3 cd3d a088 abbd 4647 843d
00000090: 70d1 273d 90bb 8fbc d431 d8bd b0be b03c
000000a0: 1839 8c3c a2e3 a8bd 40ce 24bd 041e 78bd
000000b0: 0e34 c53d a6f7 c53d f6a6 ebbd daa6 893d
000000c0: fe75 8dbd fa8b 9c3d 50fa 5bbd 9454 1b3d
000000d0: 680b a8bd 9003 c63c 5c89 93bd 4043 c03c
000000e0: 60bd f0bc ecb3 b7bd 44e2 53bd 3cef 0c3d
000000f0: a09c b93c 98be ac3d 821c cfbd 3ce3 303d
00000100: 84a1 bdbd 548f eabd 5e5d d0bd c880 cfbc
00000110: 5090 94bc e8d9 eb3c 1292 b6bd 303a 6e3d
00000120: 9e77 e9bd 00cb 9ebd 0282 b43d 1c73 1e3d
00000130: 9ae4 cfbd e875 bf3c 8083 dcbc 207e 0dbc
00000140: e0b7 af3c a0c6 073d ac17 bbbd 700b abbc
00000150: d81c dc3d f2e9 b7bd fc86 cb3d faa0 de3d
00000160: a050 30bd a0f9 c03c 3c3b 0e3d f887 3bbd
00000170: 2435 c53d 88e8 a63d 20f5 c13d d06a 5d3d
00000180: 8a18 ddbd 10a5 71bc 00b0 9ab9 ec19 4fbd
00000190: 8609 973d 98b2 99bc 88fb bb3d a083 23bd
000001a0: 086f 853d 80f2 9b3d 7094 c83c c0e1 97bb
000001b0: ee6b b33d 4098 74bc 70cb 7c3c c47b 9c3d
000001c0: a027 46bd bef9 c73d 043a 9b3d 0061 52bd
000001d0: 5093 5b3d d24e 9b3d bcfa 94bd 707e e9bc
000001e0: 0c1c ad3d 4859 d5bd 80ee febb c004 b03b
000001f0: 2e08 c9bd 30ee b53d 4820 c23c c828 013d
00000200: c26d b53d e820 a9bd a2aa ed3d caf6 d7bd
00000210: 7656 8b3d 240f 0f3d f842 d9bd 104c 09bd
00000220: 4896 c5bd da47 9c3d 18ab 80bd 0829 03bd
00000230: 826d 93bd 40a9 d43c be9c 813d c813 fa3d
00000240: 4ac2 9fbd 2022 65bc 60b2 823d d0b8 7ebd
00000250: fcf8 093d 68e5 503d 88ad bebd 1efe cd3d
00000260: c8e1 a9bc 24b0 a63d a4d7 c3bd 30b3 263c
00000270: f4c9 863d da53 83bd bcfc 153d 6079 7fbc
00000280: 6a15 ab3d dc92 57bd 421f e53d 2cf3 11bd
00000290: fadd bb3d 6c13 50bd ce3e fbbd d0c9 ac3d
000002a0: 0842 473d b07f f83c 86b0 ef3d f035 b1bc
000002b0: acea b83d 4043 e8bb a02f 3d3d 60a1 623d
000002c0: 2ce7 94bd 8451 9c3d f411 abbd ec2a eb3d
000002d0: 72ec bb3d 803c 16bc 0069 213d c0eb 74bc
000002e0: c00e c03d ac84 83bd 7ce7 a3bd 2882 04bd
000002f0: 40c7 72bc 783f 0d3d 08a0 30bd 0814 cdbd
00000300: 2026 f23d 805d 54bb 9066 fdbc 6614 9cbd
00000310: b0eb 733d 886a 18bd 909a a33d a0a3 79bd
00000320: 0411 f73d e0ba 853b 1e01 d7bd c0d0 503d
00000330: b4a1 fcbd 5255 e9bd 8495 ccbd 38d0 9fbc
00000340: c097 65bb 407d ca3b 50b5 923d 0c67 d9bd
00000350: 0664 e7bd 3854 a8bd 44d1 71bd f48b fbbd
00000360: e8a2 b83c a0a5 ac3d 00c1 8d3a 30f2 8dbd
00000370: 6cf7 5a3d 08af 6a3d 9ee1 c53d 74ab c93d
00000380: 886d cebd cef7 ed3d 966b a2bd 5ae6 d83d
00000390: 3e57 c1bd c02f 9a3c 40f0 053d 94f1 5f3d
000003a0: 9a25 f13d 22ba 8fbd d037 923c 24f4 253d
000003b0: 2067 ab3c b8a5 84bd c0ea cd3d 3885 f0bc
000003c0: 4869 67bd 2846 b5bd 2056 ebbc 5cc0 e03d
000003d0: 3439 323d b03d af3c 3ed5 90bd 084a 34bd
000003e0: 6448 8dbd e4ec fa3d a459 773d e219 b5bd
000003f0: ecb3 443d e442 6dbd a0d1 8fbd 08f6 043d

fc1.bias f4 [32]
-0.1064727 0.06224802 0.012245923 -0.036408275 0.10116422 0.05110781 -0.048210338 0.018594205
-0.04062769 -0.06624895 0.032734573 0.032145023 -0.11952706 -0.0005993098 0.05136381 -0.123472184
-0.03261879 -0.088938594 -0.0523078 -0.08818929 0.12204896 -0.08940576 -0.114677414 0.11438812
-0.060866743 -0.08423677 -0.05979608 0.058938563 -0.09254633 -0.104654565 -0.05259244 -0.025359228
00000000: 5c0e dabd c8f7 7e3d 20a3 483c d820 15bd
00000010: 302f cf3d 6c56 513d 3478 45bd e052 983c
00000020: 3869 26bd 88ad 87bd b014 063d 80aa 033d
00000030: 9aca f4bd 001b 1dba dc62 523d fcde fcbd
00000040: 489b 05bd 7025 b6bd b440 56bd 969c b4bd
00000050: cef4 f93d 5e1a b7bd fedb eabd 5244 ea3d
00000060: 684f 79bd 5484 acbd bcec 74bd 9069 713d
00000070: ee88 bdbd 2255 d6bd 2c6b 57bd 28be cfbc

fc2.weight f4 [1, 32]
-0.16958836 -0.1472965 -0.16767584 0.07405734 -0.10876063 0.1658648 0.12014024 -0.11050729
0.16357163 -0.11376954 -0.040260375 -0.08195941 -0.15381184 -0.09954359 -0.150602 0.041895
-0.034708392 0.15587245 -0.1714386 0.0017047136 -0.06474323 0.15820578 -0.14314151 0.123052105
0.12094919 0.017688084 0.12095604 -0.17528068 0.13290037 0.1285649 0.02099836 -0.12629163
00000000: 92a8 2dbe e5d4 16be 37b3 2bbe 60ab 973d
00000010: e5bd debd 76d8 293e 160c f63d a551 e2bd
00000020: 527f 273e 0100 e9bd 10e8 24bd 56da a7bd
00000030: da80 1dbe 82dd cbbd 6937 1abe 179a 2b3d
00000040: 632a 0ebd 079d 1f3e 9a8d 2fbe b270 df3a
00000050: 1998 84bd b200 223e b093 12be be02 fc3d
00000060: 35b4 f73d 9ae6 903c cdb7 f73d c77c 33be
00000070: 0917 083e 84a6 033e c104 ac3c 9852 01be
