output/out_models/dqn_models/irl/dlt_232.pth (torch, 9887 bytes, 3 tensors)

fc1.weight f4 [32, 64]
00000000: d082 b03d f877 c9bc 52ed fe3d 6000 92bb
00000010: 10a2 f0bc d0da 33bd 2af2 f7bd 70ea 0c3c
00000020: 6604 fd3d 02d7 8c3d 288d bdbd 0013 d0bc
00000030: 90e6 00bc f439 483d 2e97 f1bd 12ec a23d
00000040: 7069 52bd 6c28 4d3d 44b1 64bd 389a 113d
00000050: beb7 86bd 86dd ac3d 94a0 a6bd 54bc b43d
00000060: 70b9 01bd 00c7 2b3a 002f 22bd 76aa f33d
00000070: c8d8 8d3d 5044 f63d 2075 d1bd 28ce d43c
00000080: 289f 9cbd 6e21 fdbd 1c45 ebbd 9255 9c3d
00000090: ea2f b4bd c0a7 28bb 1096 513c 8847 fabc
000000a0: e8b8 f13d 70db 1ebd 587e 3cbd d89e 443d
000000b0: 442c 263d f082 80bd ec7e ac3d b6a6 d63d
000000c0: 82ce b53d 801b d2ba b275 b7bd be65 b43d
000000d0: 4886 f4bc a003 7bbd c0b2 2c3b 08b7 c1bd
000000e0: 20ac 77bc 388c 82bc 5c09 843d 9865 733d
000000f0: 9c2e e23d b898 afbc 04e5 303d f0d2 2d3d
00000100: 5cef cc3d daa0 d33d 3644 c33d 40dc 063b
00000110: 689a de3c 1033 203c 0cdd d53d 52e8 9abd
00000120: 8628 c4bd f8df f73c 6685 823d 18fd 13bd
00000130: 884a 073d 2845 38bd 048c 25bd 6419 3cbd
00000140: 8033 b03b ba21 e5bd e41c a43d 44c3 e3bd
00000150: 848c 0cbd 9830 7dbd 5248 9fbd 62a0 c63d
00000160: f636 e33d 5a4f db3d c0e5 fb3c 6cbe 3cbd
00000170: ec57 4ebd 60af 0ebd 0e38 fb3d 389c 66bd
00000180: 1235 b63d a040 43bc 6025 6ebc 9c3e 8cbd
00000190: 7071 77bd 92ef f3bd a0fc b13b 90e1 4c3d
000001a0: 4c60 edbd 00f5 c13d 2ea8 fabd 001f 90bd
000001b0: c0e9 40bc f658 f03d 2427 c9bd 020c ce3d
000001c0: 8010 413d cc31 a53d 9c2c 99bd 8079 83bd
000001d0: d4de 423d 3801 91bc 80fd a4bd 70e2 863d
000001e0: 0e56 d23d 505b 4abd 28e0 96bd 1029 613d
000001f0: 288a a7bd 0a6b be3d 18b8 d03c 484d e13d
00000200: 0079 a83c 400c a63c be4a e33d 3870 9fbd
00000210: 0679 fcbd b804 1cbd 04f6 19bd eab7 e1bd
00000220: ec88 6abd 6879 ee3d 1872 7fbd c006 123d
00000230: 74a6 82bd 3808 203d 8478 f43d 288b 62bd
00000240: 1cc6 0c3d 1088 e33c 68dd d33d a805 6bbd
00000250: 8074 dd3a 8ada ebbd d899 6dbd c88c 07bd
00000260: 420f 9b3d f8b1 fdbc 46c7 833d b827 1cbd
00000270: 6214 cc3d 6856 4e3d e439 9f3d d463 6b3d
00000280: c2e5 d53d 4842 80bc 4cfe 463d 1828 d03d
00000290: 0052 9abd 2235 f3bd 687e f13d 56ae d9bd
000002a0: 6a28 89bd 20c0 f13d 060f d43d d04c 9b3c
000002b0: 24ed be3d 80e5 e2bc 549c 2dbd c440 82bd
000002c0: 125b e33d d0a0 8d3d f025 203d 86e1 c33d
000002d0: 18a9 c83d 80fd 36bb 809c babc 6e6a 93bd
000002e0: c8be 043d d85b 173d d0ab c6bd 208a 92bb
000002f0: b201 9cbd 4c5f 21bd 406d a1bc f019 0e3c
00000300: a4ba 0c3d 8c02 40bd b063 8e3d 9ee8 d73d
00000310: 0c3c 603d 802f 48bb 74b2 6bbd e0f8 fb3c
00000320: 6035 acbc 1e26 d9bd 607d 9f3d a0af 883c
00000330: d200 f43d 88de 723d 56a6 bcbd d8c2 f1bd
00000340: 3482 1abd 4657 ef3d c8c9 d5bc 34d4 e23d
00000350: 36f3 fc3d 30b9 ef3c 7e7a c9bd 4468 e4bd
00000360: ccb1 50bd 1ed2 a83d 54de 6e3d 0a6e ebbd
00000370: 786a 303d 8c4e aebd b0d5 47bd b0ab 1d3d
00000380: 1e7c c63d ca39 9bbd ccbd 75bd 38f4 df3c
00000390: c652 ccbd 266f 8b3d 2ca0 ff3d 92d4 c1bd
000003a0: 604e 9f3c fea6 ffbd 8a87 bf3d a09a f13c
000003b0: d8d5 d6bd 3042 53bc e032 513d 3c07 073d
000003c0: eabc 98bd 145c 233d ec34 003d 8291 c53d
000003d0: d4ce 4bbd 9256 8b3d 609a e33c 000a 81b9
000003e0: 0ccf 5b3d 8cdf a3bd ac75 67bd 5a87 f0bd
000003f0: 28e4 a33c 46a0 c9bd e46e 0e3d 5000 d6bd
0.086187005 -0.024593338 0.12447609 -0.004455611 -0.029374152 -0.043909848 -0.12106736 0.008600816
0.123543546 0.06876947 -0.09255439 -0.025399685 -0.00786747 0.048883393 -0.11796413 0.07955183
-0.051370084 0.050087377 -0.055833116 0.035547465 -0.06578015 0.0844069 -0.081360966 0.08824983
-0.031670988 0.00065527856 -0.039595604 0.11897747 0.06926113 0.12024748 -0.10227418 0.02597721
-0.07647544 -0.12359892 -0.11487791 0.07633509 -0.087982014 -0.0025734752 0.012792125 -0.030551687
0.11802846 -0.03878349 -0.04601893 0.048003048 0.04056956 -0.06274974 0.08422646 0.10481016
0.08877279 -0.0016029924 -0.089579955 0.08808468 -0.029849187 -0.061282754 0.002635166 -0.094587386
-0.015116721 -0.015936002 0.06447098 0.05942306 0.11044046 -0.021435127 0.043187156 0.042437494
0.10006592 0.103334144 0.095344946 0.0020578057 0.027173236 0.009777799 0.10442552 -0.07563843
-0.09578042 0.030258164 0.063731 -0.03613004 0.033030063 -0.044987828 -0.040416732 -0.045922652
0.005377233 -0.111880735 0.08013323 -0.11121228 -0.034313694 -0.06181392 -0.07777466 0.09698559
0.11094467 0.107084945 0.030749202 -0.046080038 -0.050376818 -0.03483522 0.12266551 -0.056301326
0.08896841 -0.011917263 -0.014535278 -0.06847879 -0.060410917 -0.11910929 0.0054317266 0.0500198
-0.11590633 0.09470558 -0.12239109 -0.07037163 -0.01177448 0.11735718 -0.098219186 0.10060884
0.047134876 0.080661386 -0.07479212 -0.06419659 0.047575787 -0.017700776 -0.08056164 0.06586158
0.1027032 -0.04940349 -0.07366973 0.0549708 -0.08180648 0.0929776 0.025478408 0.11001068
0.02056551 0.020269513 0.1109824 -0.07785076 -0.12327771 -0.038090438 -0.037588134 -0.11021407
-0.057259485 0.1164425 -0.062364668 0.03565097 -0.06379405 0.039070338 0.11937049 -0.05530849
0.03436862 0.02777484 0.10344964 -0.05737844 0.0016895682 -0.115162924 -0.058008045 -0.033093244
0.075712696 -0.030968651 0.06434493 -0.038123816 0.09964825 0.050375372 0.07774714 0.05746825
0.104442134 -0.015656605 0.04858236 0.10163897 -0.075351715 -0.11875369 0.11791688 -0.10628955
-0.066971615 0.11804223 0.10354428 0.018957525 0.09322575 -0.027697325 -0.042385414 -0.06360009
0.11101355 0.06915438 0.03909868 0.095644996 0.09797877 -0.0027922094 -0.022779703 -0.07198034
0.032408506 0.036952823 -0.097007394 -0.004472032 -0.07617511 -0.039397523 -0.019705415 0.008673176
0.034357682 -0.04687743 0.06952608 0.10542415 0.054744765 -0.003054589 -0.057543233 0.030758321
-0.021021545 -0.106029734 0.07787585 0.016685307 0.11914219 0.059294254 -0.092114136 -0.118047416
-0.037721828 0.11686568 -0.026097193 0.11075631 0.12351076 0.029263109 -0.09837817 -0.111526996
-0.05095081 0.08243202 0.058317497 -0.11495598 0.043070287 -0.085110754 -0.048787773 0.038493812
0.09691642 -0.07579382 -0.059995458 0.027338132 -0.09976725 0.06808309 0.12481722 -0.09464373
0.019446552 -0.12483023 0.09352024 0.029492676 -0.10490006 -0.012894198 0.05107391 0.032965884
-0.074579075 0.039882734 0.03130047 0.09646894 -0.049757794 0.06803621 0.027783573 -0.00024612248
0.053664252 -0.080016226 -0.056508705 -0.11744566 0.020006254 -0.09845023 0.034773722 -0.10449278

fc1.bias f4 [32]
00000000: 4ad3 fd3d 346d 803d c0d9 babd 1266 bfbd
00000010: 0080 cfb9 4880 dc3c 9642 c0bd 8871 883d
00000020: 8c68 33bd b24c e23d b82c 313d 6083 f1bd
00000030: c8a7 4bbd 085d 91bd 4047 df3b 2458 283d
00000040: 909c 673c 92b8 bdbd c03b e23d 08ae 543d
00000050: 980e 17bd 5c10 133d 02f4 d9bd 008f e83c
00000060: b033 053d a655 ce3d ea7c ee3d 7074 8b3c
00000070: 4063 f13c 16d9 dabd 8cca 47bd 68e1 34bd
0.12393816 0.06270829 -0.09123564 -0.0934564 -0.00039577484 0.026916638 -0.093877 0.06662279
-0.043800876 0.11049785 0.043255538 -0.11792636 -0.049720556 -0.070978224 0.0068139136 0.041099682
0.0141364485 -0.092637196 0.11046553 0.05192378 -0.036879152 0.035904273 -0.10642244 0.0283885
0.032519996 0.1007493 0.11644919 0.017023295 0.029466271 -0.10685937 -0.048777148 -0.044160277

fc2.weight f4 [1, 32]
00000000: 77ac be3b 9cc6 103e 108d 25bd 70c3 0fbe
00000010: b251 2f3e c44e f2bd 0a01 aa3d cc5e 0b3d
00000020: e2c7 fcbd dc41 33bd b13a 11be d9f4 ddbd
00000030: 7081 32be ee8a 2f3e a4cb 113e bce9 503d
00000040: e26a b9bc 9ca6 e4bd 2084 0ebd af52 7d3d
00000050: e1f6 ff3b 44bb 433d a6c7 f6bd 83f3 283d
00000060: 20ee debd 0a53 c6bd 669a f9bd 3722 81bd
00000070: aa50 9c3d 814e 4bbc 8b02 acbd 430a 30be
0.0058188993 0.14138263 -0.04041773 -0.14039397 0.17121008 -0.118314296 0.083009794 0.034025952
-0.12342812 -0.04376398 -0.14182545 -0.108377166 -0.17432189 0.17142841 0.14237839 0.051004156
-0.022633974 -0.11164591 -0.034793973 0.06184643 0.0078114127 0.047786012 -0.12049799 0.041247856
-0.108852625 -0.09683807 -0.12187652 -0.06305354 0.07632573 -0.0124088535 -0.083989225 -0.17191415
