output/out_models/dqn_models/irl/dlt_208.pth (torch, 9887 bytes, 3 tensors)

fc1.weight f4 [32, 64]
000000 30 62 df bd ae 96 f6 bd 9c 37 93 bd 50 1c 51 bc
       -0.109074 -0.120404586 -0.07188341 -0.012763098
000010 56 65 f3 3d e8 ff ab 3d 40 01 93 bb f4 b1 fc bd
       0.11884563 0.083984196 -0.004486233 -0.12338629
000020 ec 4d a9 3d b0 d4 c7 bc 68 ec 82 bd 78 39 95 bc
       0.082668155 -0.02439341 -0.06392747 -0.01821588
000030 d4 34 c1 bd 10 12 0c 3d f0 98 42 3d d4 cb 36 3d
       -0.09433904 0.034196913 0.047509134 0.04462798
000040 a4 c1 df bd e0 ea 01 bd 0a 6f 92 3d c0 22 3a bd
       -0.10925606 -0.031718135 0.07150085 -0.045443296
000050 ea e3 8e bd b8 55 bd bc 5e 9c af 3d d8 81 08 3d
       -0.06977065 -0.023112163 0.085747465 0.033326954
000060 5c 16 9a bd 94 d2 34 3d 78 8e cc bd 0c 1c 1c 3d
       -0.07523796 0.044146135 -0.09988111 0.038112685
000070 20 89 ec 3c d0 e0 1b bc 40 38 c6 3b e0 a4 a0 3c
       0.02887398 -0.009514049 0.006049186 0.019609869
000080 e8 93 27 3d ac 56 ad bd 56 94 c5 bd b8 69 d6 3c
       0.04091254 -0.08463797 -0.096474335 0.026173458
000090 36 d8 a5 bd c8 d0 c8 3d 34 c9 7a 3d 58 9f 81 3d
       -0.080978796 0.09805447 0.06122704 0.063292205
0000a0 be 51 c0 bd 6c 74 bc 3d e2 5c 99 bd 50 28 44 bd
       -0.09390591 0.09201893 -0.07488419 -0.047890007
0000b0 28 18 7c bd 00 29 5c bd 8c 3c a4 3d f8 90 9e 3d
       -0.061546475 -0.05375004 0.08019361 0.07742494
0000c0 dc cf 15 3d a0 bd c0 bd 2e 3f a4 bd 80 1c 52 bc
       0.036575183 -0.09411168 -0.08019863 -0.012824178
0000d0 c8 67 80 bd b8 b1 a6 bd 00 51 52 bb fe 72 93 bd
       -0.06269795 -0.08139366 -0.0032091737 -0.071996674
0000e0 10 49 3f bd 00 5d b5 ba a8 93 ec 3c 52 34 bd 3d
       -0.046700537 -0.001383692 0.028879002 0.09238495
0000f0 68 01 f2 bc aa 6f db bd 5a a8 b7 3d d4 bc df bd
       -0.029541686 -0.107146576 0.089676574 -0.10924688
000100 48 e0 eb bd 28 56 c7 3d ba 7d c5 3d 46 90 8d bd
       -0.11517388 0.0973323 0.09643121 -0.069122836
000110 06 43 94 3d ba 32 89 bd c4 e5 47 bd 7a 11 eb bd
       0.07239346 -0.066991284 -0.048803106 -0.11477943
000120 70 8b a8 bd 1c 4f 05 bd 8e e7 a1 bd 2c 90 43 bd
       -0.082297206 -0.032546148 -0.07905494 -0.047744915
000130 f6 b4 a0 bd 20 ed fc 3d 30 61 af bd 78 c5 a2 3c
       -0.078470156 0.123499155 -0.08563459 0.019869551
000140 70 66 fe 3d 58 6d 9f bd 9e 7d f3 3d e0 cf 25 3c
       0.12421882 -0.077845275 0.11889194 0.010120362
000150 6c e7 06 bd 28 d1 f6 bd 9c 52 c1 3d c0 7a 09 3d
       -0.032935545 -0.12051612 0.094395846 0.03356433
000160 b0 a5 18 bd 3c e3 45 3d 00 6d f9 3a fa ed 93 bd
       -0.037267387 0.04831241 0.0019029677 -0.07223125
000170 40 10 11 3b f4 56 85 bd f2 a7 a4 3d 60 4e dd bd
       0.002213493 -0.065107256 0.080398455 -0.108059645
000180 42 6b 8c bd e2 9f f7 3d fa d4 80 3d ac f4 89 3d
       -0.06856395 0.12091042 0.06290622 0.067361206
000190 50 94 54 bd 46 2a a2 3d 18 21 08 bd 08 cc 88 bd
       -0.051899254 0.07918219 -0.033234686 -0.06679541
0001a0 d4 13 71 3d 38 d5 f4 3c ca de 8f 3d a0 4d d7 3c
       0.0588568 0.029886827 0.070249155 0.026282132
0001b0 70 2f 54 bd f0 b8 56 bc 40 0a 3a 3d 20 33 6e 3c
       -0.051803052 -0.013105616 0.04541993 0.014538556
0001c0 e4 55 0b 3d 14 df 83 3d 20 d7 fb bd ac 9e 02 bd
       0.03401746 0.06439033 -0.12296891 -0.031889603
0001d0 cc 2d ca bd 82 bb cb bd bc 86 69 3d f0 c5 9d bc
       -0.09872016 -0.09947874 0.05701326 -0.019259423
0001e0 d8 58 ff 3c 50 3e 56 3c fc 00 4b bd ee 66 8f 3d
       0.031170294 0.01307638 -0.049561486 0.07002054
0001f0 f8 a1 d5 3d c0 ff 0c 3b f0 74 6e bd 18 f7 84 bc
       0.10431284 0.0021514744 -0.05821699 -0.016231105
000200 50 65 b0 3d 7c 59 65 3d e8 bc f4 3d fa 1b 8f bd
       0.08613074 0.055993542 0.119500935 -0.06987758
000210 94 73 8e bd 6e 64 d6 bd 60 93 f0 3b a8 ba f6 3d
       -0.069556385 -0.10468374 0.007341787 0.120473206
000220 02 28 d5 3d 00 1a 58 ba 10 bb 56 bd f4 ab 6a 3d
       0.104080215 -0.00082436204 -0.05242449 0.057292894
000230 e0 e9 cd 3c 08 aa ff 3d 3a 96 ad 3d ac c8 41 bd
       0.025135934 0.12483603 0.08475919 -0.047310516
000240 74 4e 06 bd c8 ab bd bd 44 46 87 3d 92 2a 8e 3d
       -0.032789662 -0.0926128 0.06605199 0.069417134
000250 c8 db f4 3c 38 d5 ee bd 40 11 0a bb ce 4a c4 3d
       0.029889956 -0.11661762 -0.002106741 0.0958458
000260 42 eb d0 bd 26 eb d7 3d 30 11 69 3c 50 f9 d1 3c
       -0.10201122 0.10542898 0.014225289 0.025631577
000270 60 dc 7f 3c e0 f5 83 3b 20 b4 ac 3c 86 c4 f2 3d
       0.015616506 0.0040271133 0.021081984 0.1185389
000280 a8 9c a2 bc ba 8f df bd 80 6a 55 bb 44 9c e2 bd
       -0.01985009 -0.109160855 -0.00325647 -0.110649616
000290 60 e5 f4 bc cc 69 28 bd 54 6a 3a 3d 12 1d 8c bd
       -0.02989453 -0.04111652 0.04551156 -0.06841482
0002a0 38 78 6c bd c0 3d 2f 3d 64 2e 63 bd 30 18 f1 3d
       -0.057731837 0.0427835 -0.055464163 0.117721915
0002b0 aa 2e 93 3d a6 c0 e8 bd 4c 7b 8b bd d8 af c3 bc
       0.07186635 -0.1136487 -0.068106264 -0.02388756
0002c0 22 05 cb 3d d4 0e f0 bd f8 3d 92 bc 68 e0 bf bc
       0.099130884 -0.11721578 -0.017851815 -0.023422435
0002d0 e0 25 ee 3c fc 7b e5 3d 64 00 2f bd c0 6c 1d 3d
       0.029070795 0.11205289 -0.042724982 0.03843379
0002e0 58 04 96 bc 10 0b 08 bd 9e db bd bd 20 c0 cb bd
       -0.018312618 -0.033213675 -0.09270404 -0.09948754
0002f0 dc fb 8e 3d 00 9d 27 3b 68 93 c2 3c f6 d6 ce bd
       0.06981632 0.0025575757 0.02375193 -0.10099594
000300 c8 3a 23 bd 0a aa fa bd 90 de 87 3d 74 1e fa 3d
       -0.03985098 -0.122394636 0.06634247 0.1221284
000310 c6 c6 db 3d 34 c4 a1 3d 4c b1 68 3d 30 53 d3 bd
       0.107312724 0.07898751 0.05680971 -0.10318601
000320 60 66 3a 3c 4c 32 10 bd ca 8a 83 3d ee ce c8 3d
       0.011376947 -0.035204217 0.06422956 0.09805094
000330 8e aa a7 3d 0a b1 e2 3d e6 50 c6 3d 80 d9 bd 3a
       0.081868276 0.11068924 0.09683399 0.0014484376
000340 70 89 17 bc d8 6e 86 bd a0 2c 2e 3d c0 7d 8e 3d
       -0.009249076 -0.065641105 0.042523026 0.06957579
000350 9a d6 dc bd 1c e5 bf 3d 04 fa 95 3d c8 49 bc 3d
       -0.107831195 0.09369871 0.07323077 0.0919376
000360 b4 7b 70 3d 98 85 a3 bd 10 24 d2 bd 00 38 e2 3a
       0.058711722 -0.07984465 -0.102607846 0.0017259121
000370 62 48 d9 bd 00 40 de 3b dc 2f ed bd 4c 65 f0 bd
       -0.10609509 0.0067825317 -0.11581394 -0.11738071
000380 20 dc ae bc 66 9a fa bd 7e 94 ec 3d 30 1a 29 3d
       -0.021345198 -0.122364804 0.1155176 0.04128474
000390 68 e2 5c 3d 7c 24 5e bd f0 4c 6b bd d4 9f 56 3d
       0.053926855 -0.054234013 -0.05744642 0.052398518
0003a0 e4 bb d9 3d 78 d2 7f bd 50 71 34 3d 4c b3 a3 3d
       0.106315404 -0.062456578 0.044053376 0.079931825
0003b0 3c f7 21 bd f0 ec f9 bd 80 c7 c2 3a 16 66 ad bd
       -0.03954242 -0.12203395 0.0014860481 -0.08466737
0003c0 20 ae 0b 3d 68 3c c0 bd 44 db 71 bd 80 f7 69 3b
       0.034101605 -0.093865216 -0.059047 0.00357005
0003d0 58 91 bf bc a0 57 e5 3d 64 98 16 bd 6a 68 ee bd
       -0.023384735 0.11198354 -0.036766425 -0.11641009
0003e0 1e 70 bf 3d 34 53 6b 3d 1c 0d 73 3d a8 86 35 3d
       0.093475565 0.057452396 0.059338674 0.04431787
0003f0 48 79 9a 3d c0 8c 4d 3d fc 89 df bd 7c a9 2e bd
       0.07542664 0.050183058 -0.1091499 -0.0426421

fc1.bias f4 [32]
000000 e0 c5 f5 bd d8 ff 13 bd 7e 13 a2 bd 5e 4e 97 3d
       -0.12000632 -0.036132663 -0.07913874 0.07387994
000010 70 3e 92 3d d0 74 af bd c0 c5 eb bb 0c 18 77 bd
       0.07140815 -0.08567202 -0.0071952045 -0.060325667
000020 50 f6 60 3c e4 ed a9 bd 50 b0 f8 3d 80 a8 e0 3b
       0.0137306005 -0.08297327 0.12143004 0.0068560243
000030 40 88 f2 3c 50 ff a8 3d 70 32 78 3d e4 d5 23 3d
       0.029605985 0.08251822 0.060594976 0.039998904
000040 00 0d a9 3a 80 04 ab 3b 48 8a 93 bc 48 4a b2 bc
       0.0012897551 0.0052190423 -0.018010274 -0.021763936
000050 18 d3 4f 3d 50 fb 36 bc 26 3b 95 bd 28 cc db bc
       0.050738424 -0.011168316 -0.07286672 -0.026830748
000060 bc b1 76 bd f8 1e 5c 3d b8 2a f2 3d e2 bd e8 3d
       -0.060228094 0.05374047 0.11824554 0.11364342
000070 3e f6 86 bd b0 b0 2e bc f0 c3 d8 bc 28 2c 39 bd
       -0.06589936 -0.010662243 -0.026460618 -0.045208126

fc2.weight f4 [1, 32]
000000 0e 70 29 3e 04 8c 07 be fc 8b 07 bd 24 f6 28 3e
       0.16546652 -0.13237005 -0.033092484 0.16500145
000010 41 1f 0c be 1a 1c dc 3d 22 d1 00 be 8f 19 32 3e
       -0.13683797 0.107475474 -0.12579778 0.17392562
000020 1e 6e bc ba 22 80 00 be 11 24 fe 3d 46 40 b6 bd
       -0.0014376079 -0.12548879 0.12409223 -0.08898978
000030 8c 9b 5e bd 80 85 34 be 1a a1 c7 3d 72 29 07 3e
       -0.05434756 -0.17629051 0.097475246 0.13199404
000040 08 f2 ac bc ed c4 4f 3c 03 3e 11 be 77 82 0a be
       -0.021111503 0.012681228 -0.14183812 -0.13526331
000050 35 71 84 bd 64 d4 71 bd 45 4c bf bc b2 d0 05 3e
       -0.06466905 -0.059040442 -0.023351798 0.13067892
000060 c8 f6 d2 bd 95 5d dd 3d a3 dd 06 bc 1e f9 fb 3d
       -0.10300976 0.10808865 -0.008231553 0.12303375
000070 93 39 fa bd 95 b3 08 3e 59 f4 15 3e 66 6c 37 bc
       -0.12218013 0.13349755 0.14643992 -0.011195278
