output/out_models/dqn_models/irl/dlt_210.pth (torch, 9887 bytes, 3 tensors)

fc1.weight f4 [32, 64]
0	0xbd930992	-0.0717956
1	0x3d14e4c8	0.036350995
2	0xbdc67c40	-0.096916676
3	0xbdf3b4fc	-0.118997544
4	0xbdda3a56	-0.10655658
5	0x3d638024	0.055542126
6	0xbc847ce8	-0.016172841
7	0x3da103e0	0.07862067
8	0x3dec81d6	0.11548202
9	0x3d90117c	0.07034585
10	0xbcacb9e8	-0.02108474
11	0xbd83b494	-0.06430927
12	0xbbac0a00	-0.0052502155
13	0xbdb159b2	-0.08659686
14	0xbdd0f01e	-0.10202049
15	0x3d6536ec	0.05596058
16	0x3cb82258	0.022477314
17	0xbdab4f72	-0.08364762
18	0x3d2fcffc	0.04292296
19	0xbcd8f858	-0.026485607
20	0x3bdfbfe0	0.006828293
21	0x3d0d0328	0.03442684
22	0x3d27d674	0.040976003
23	0x3d16aa04	0.036783233
24	0xbd976cde	-0.07393812
25	0x3a844980	0.0010092705
26	0x3dacf908	0.084459364
27	0x3d8efae4	0.06981447
28	0xbde9bec8	-0.11413342
29	0xbd026c50	-0.031841576
30	0xbddf2fc8	-0.108977854
31	0xbdbd7766	-0.09251289
32	0xbd89cb40	-0.0672822
33	0xbd0f72d0	-0.035021603
34	0x3d949c42	0.07256366
35	0xbcc483e8	-0.023988679
36	0x3d049a20	0.032373548
37	0x3da25d06	0.07927899
38	0x3d49f6ac	0.04930751
39	0x3decbca0	0.11559415
40	0xbd974306	-0.073858306
41	0x3dbaecdc	0.091272086
42	0x3d1b2d94	0.037885264
43	0xbda80d84	-0.08205703
44	0xbdab1be4	-0.08354929
45	0x3da324ba	0.079659894
46	0x3b629ac0	0.0034577101
47	0xbdffab1a	-0.12483807
48	0xbdfe202a	-0.124084786
49	0xbdd83b98	-0.105582416
50	0xbd47a5f0	-0.048742235
51	0xbd8a0b46	-0.067404315
52	0x3daf1a94	0.08549991
53	0x3d908006	0.070556685
54	0x3db0e61a	0.086376384
55	0x3d2cf8a0	0.042229295
56	0x3ca90d40	0.0206362
57	0x3d5b279c	0.05350457
58	0xbdff9b70	-0.12480819
59	0xbc9851e8	-0.018593743
60	0x3ced4bf0	0.028966874
61	0xbdc03118	-0.09384364
62	0x3df3e046	0.11908011
63	0x3dc308ba	0.09523149
64	0x3d113f50	0.03546077
65	0xbd8821e4	-0.06647089
66	0x3bec2000	0.007205963
67	0xbd5c9f60	-0.05386293
68	0x3d1713b0	0.03688401
69	0xbd5bd5d4	-0.05367072
70	0x3dfb9b66	0.12285499
71	0x3de4cbd0	0.11171687
72	0xbd89f782	-0.067366615
73	0x3d51ddf0	0.051237047
74	0xbcada228	-0.021195486
75	0x3de48c74	0.11159602
76	0x3dcf7bfc	0.1013107
77	0x3da51d44	0.080622226
78	0x3d23ecc4	0.04002072
79	0xbdabf442	-0.08396198
80	0x3de45918	0.11149806
81	0x3d94bfb4	0.07263127
82	0xbcc8ec58	-0.02452676
83	0xbd965720	-0.073408365
84	0x3c214700	0.009843588
85	0xbd68c6c8	-0.056830198
86	0xbdbb73f6	-0.09152977
87	0x3d746d98	0.05967483
88	0x3d77f5d4	0.060537174
89	0xbc657350	-0.014004543
90	0x3cce6050	0.02519241
91	0xbd36b07c	-0.044601902
92	0x3dd8dc1e	0.10588859
93	0x3daa5b1a	0.083181575
94	0x3c60b6e0	0.013715476
95	0x3d8ecad4	0.0697228
96	0xbd93ce26	-0.07217054
97	0xbc997810	-0.018734008
98	0x3dec69a6	0.11543588
99	0xbc9c7c28	-0.019102171
100	0xbdf76d78	-0.120814264
101	0x3b0b19c0	0.0021225065
102	0x3de5a7e4	0.11213663
103	0xbc8aa300	-0.016923428
104	0xbdfc8fd4	-0.123321205
105	0xbd53dd9c	-0.051725015
106	0x3d15f47c	0.03661011
107	0xbde80a62	-0.11330105
108	0xbda17cba	-0.07885118
109	0xbd785bb8	-0.060634345
110	0xbddc66cc	-0.107617944
111	0x3dfbb536	0.122904226
112	0xbd81b540	-0.06333399
113	0xbce416d0	-0.02784291
114	0x3dbd6ba4	0.092490464
115	0x3d99bc18	0.07506579
116	0xbdfc8bb8	-0.12331337
117	0x3c9d2c48	0.019186154
118	0xbdad6496	-0.08466451
119	0xbde23ac6	-0.110463664
120	0xbd66f494	-0.05638559
121	0xbc282900	-0.010263681
122	0x3cd16528	0.02556093
123	0x3dc36ed0	0.0954262
124	0xbbcce3e0	-0.0062527508
125	0x3df6c9a2	0.12050177
126	0x3de1ca70	0.1102494
127	0x3d5201a4	0.051271096
128	0xbded2842	-0.11579944
129	0xbdf95f5e	-0.12176393
130	0xbdc205a2	-0.094737306
131	0xbdec67a4	-0.115432054
132	0xbd9eeb2c	-0.07759699
133	0x3d7e6064	0.062103644
134	0xbdacde82	-0.084408775
135	0xbd3db458	-0.046314567
136	0xbdc88c82	-0.09792425
137	0x3d8fe338	0.070257604
138	0x3d863382	0.06552793
139	0xbd617344	-0.055041566
140	0xbda21316	-0.079137966
141	0x3d8b1e70	0.06792915
142	0xbc02f640	-0.007993281
143	0xbda7bf1c	-0.08190748
144	0x3da19610	0.0788995
145	0x3ce53068	0.027977183
146	0xbda714ae	-0.08158241
147	0xbcc9a910	-0.024616748
148	0xbd43e0f8	-0.04782197
149	0xbd79036c	-0.06079428
150	0x3b9444c0	0.004524797
151	0x3d540048	0.05175808
152	0x3da4bb58	0.080435455
153	0x3d9b3110	0.07577717
154	0x3da78488	0.08179575
155	0xbd9df7d2	-0.077132836
156	0x3d39e7b0	0.04538697
157	0x3dcc27be	0.09968518
158	0x3d48c958	0.04902014
159	0xbdb9fce4	-0.09081438
160	0xbdf9b2e2	-0.12192322
161	0xbdaad4e6	-0.083413884
162	0x3dda705c	0.10665962
163	0x39c77600	0.00038044155
164	0xbdfc95d2	-0.123332635
165	0x3dec2f42	0.11532451
166	0x3ded3cfa	0.11583896
167	0xbd0b495c	-0.034005508
168	0xbd88f8c4	-0.06688073
169	0x3d8deb14	0.06929603
170	0x3d90a1d6	0.07062118
171	0xbd784ba0	-0.060618997
172	0x3d24ed94	0.040265635
173	0x3c944e18	0.018103644
174	0xbb11a200	-0.0022221804
175	0xbc802708	-0.015643612
176	0xbdc8013a	-0.09765859
177	0xbd88308c	-0.066498846
178	0xbd08d660	-0.03340757
179	0x3b662940	0.0035119802
180	0xbdd4869c	-0.10377237
181	0xbbb392c0	-0.0054801404
182	0xbdbfd1d6	-0.09366195
183	0xbdd7e2fe	-0.10541342
184	0xbd9269da	-0.07149096
185	0x3d7fe8c4	0.062477842
186	0x3dca0e08	0.098659575
187	0xbcba6840	-0.022754788
188	0x3d0040e0	0.03131187
189	0x3d63bbd4	0.05559905
190	0xbd93729a	-0.07199593
191	0xbc03bdd0	-0.00804086
192	0x3df124aa	0.11774571
193	0x3b85a840	0.004078895
194	0x3c309260	0.010777086
195	0x3c528aa0	0.012850434
196	0x3dfd102a	0.12356599
197	0x3ddd80ec	0.108156055
198	0x3d8c3352	0.06845726
199	0x3b6421c0	0.0034810156
200	0x3d7de0cc	0.06198196
201	0xbd501d4c	-0.05080919
202	0xbdcc9aea	-0.09990485
203	0x3d93de86	0.07220177
204	0xbda3ff62	-0.08007695
205	0xbde4207e	-0.1113901
206	0x3af14800	0.0018408298
207	0xba6bd600	-0.0008996427
208	0x3df9a440	0.12189531
209	0x3dbe4374	0.092902094
210	0x3c2c6830	0.010522887
211	0xbb430740	-0.002975896
212	0xbdce180a	-0.10063179
213	0x3d648bec	0.055797502
214	0x3ccd44b0	0.025057167
215	0xbdcdc0ec	-0.100465626
216	0xbd3b98c4	-0.045799986
217	0xbd75d0d4	-0.060013607
218	0x3dc2bb04	0.09508327
219	0x3dea4a94	0.11440006
220	0x3d573604	0.052541748
221	0x3d2c1bc8	0.04201868
222	0x3c489b20	0.012244016
223	0x3dd78ffa	0.10525508
224	0xbd40431c	-0.046939
225	0x3dba4fa0	0.090972185
226	0x3d314620	0.043279767
227	0xbafc0580	-0.0019227713
228	0xbc2f1340	-0.010685742
229	0x3da1fa46	0.07909064
230	0xbdbf0a42	-0.093281284
231	0xbdb0629e	-0.0861256
232	0x3bcd8020	0.006271377
233	0x3da3f160	0.08005023
234	0xbcb90820	-0.022586882
235	0xbd4fa444	-0.050693765
236	0xbc80f358	-0.015741035
237	0x3d99edb2	0.0751604
238	0x3daaeb0e	0.083456144
239	0xbd4f0f54	-0.050551727
240	0x3dd791a2	0.10525824
241	0xbdb68b9e	-0.089133486
242	0xbdad8af4	-0.08473769
243	0x3d947f6c	0.07250866
244	0x3bc23f40	0.00592795
245	0xbdc49458	-0.09598607
246	0x3d29198c	0.04128413
247	0x3d0d4958	0.034493774
248	0x3da05a1c	0.07829687
249	0x3de479f0	0.1115607
250	0xbd1c9c18	-0.0382348
251	0xbdab02aa	-0.083501175
252	0xbd1af7d0	-0.03783399
253	0xbddd2516	-0.10798089
254	0x3deb0a52	0.11476578
255	0xbd82bfae	-0.06384216

fc1.bias f4 [32]
0	0x3defd706	0.11710934
1	0x3de87878	0.113511026
2	0x3dda6f38	0.106657445
3	0x3cd263a0	0.02568227
4	0xbd5767ac	-0.052589104
5	0xbde08382	-0.10962583
6	0x3db38846	0.087662265
7	0xbcef18e0	-0.029186666
8	0xbc465210	-0.012104526
9	0x3dcec75e	0.1009662
10	0x3dd9d540	0.10636377
11	0xbdeae7b0	-0.11469972
12	0xbd8968b4	-0.06709424
13	0x3d2e3194	0.04252775
14	0xbcc9d2f0	-0.024636716
15	0x3d91fe7c	0.07128617
16	0xbb9f3ca0	-0.004859522
17	0xbd89cf3c	-0.0672898
18	0xbd2bf540	-0.041981936
19	0xbd16ff4c	-0.036864564
20	0x3deec796	0.11659162
21	0x3d9216e0	0.07133269
22	0x3d81234c	0.063055605
23	0x3def06ec	0.11671242
24	0x3bd4dd00	0.006496072
25	0x3dd15790	0.10221779
26	0x3d89b396	0.067237064
27	0x3dc9ba72	0.09850015
28	0x3df64e66	0.12026672
29	0xbda08b84	-0.078391105
30	0xbd91f576	-0.07126896
31	0xbd3a5b98	-0.045497507

fc2.weight f4 [1, 32]
0	0xbdcbd7e8	-0.0995329
1	0x3dea54c3	0.11441948
2	0x3dce4fa6	0.100737855
3	0xbde9539b	-0.113928996
4	0xbd2ffa26	-0.04296317
5	0x3d943006	0.07235722
6	0x3e0aba00	0.13547516
7	0x3e17de4e	0.14830896
8	0x3e1e3012	0.15448025
9	0xbd2fde76	-0.042936765
10	0x3e0417aa	0.12899652
11	0xbc9f5640	-0.019450307
12	0xbe11846b	-0.1421067
13	0x3e3308a8	0.17483771
14	0xbe15fd1e	-0.14647338
15	0xbd8b40d8	-0.06799477
16	0xbbfc01f2	-0.0076906616
17	0xbda45e8e	-0.080258474
18	0x3c9e9b9e	0.019361313
19	0x3e0d1f81	0.13781549
20	0xba95221c	-0.0011377963
21	0x3b193627	0.0023378225
22	0xbe264e7d	-0.16240878
23	0xbdc804ba	-0.097665265
24	0xbc0a45c4	-0.008439485
25	0xbdabc1ca	-0.08386572
26	0x3dedc2ae	0.11609398
27	0x3d1c01d5	0.038087685
28	0x3e2b4648	0.16726029
29	0xbdf1630e	-0.11786471
30	0xbd9e5581	-0.07731152
31	0x3da5fb68	0.081045926
