output/out_models/dqn_models/irl/dlt_200.pth (torch, 9887 bytes, 3 tensors)

fc1.weight f4 [32, 64]
000000 80 76 44 3d 28 e3 f7 3c 00 b4 a8 3b 1e 52 d2 3d
       0.047964573 0.030259684 0.005148411 0.10269569
000010 c4 28 6e 3d 84 e3 28 bd 44 a4 78 3d 08 b0 be 3d
       0.058144346 -0.0412326 0.06070353 0.09310919
000020 5c dc 5f 3d a0 42 10 bc 30 f4 45 bc 58 b5 81 3c
       0.05465351 -0.008804947 -0.012082145 0.015833542
000030 94 9b eb 3d 46 6f ba bd b0 5f d6 3c 2e b0 b6 bd
       0.115042835 -0.09103255 0.026168674 -0.08920322
000040 48 c0 2c bd 40 2a 8e 3c b6 e3 cc 3d 9c f3 f2 bd
       -0.04217556 0.01735413 0.1000437 -0.11862871
000050 d0 fe 94 3d d8 09 cb 3d 20 ff b2 3d 96 8b c7 3d
       0.07275164 0.09913987 0.087400675 0.09743421
000060 80 c9 ed 3d 4c ad 81 3d a0 9e d4 bd 18 96 a5 3c
       0.11610699 0.06331882 -0.10381818 0.020213172
000070 14 1a ea bd dc 86 a2 bd f4 82 16 bd d8 43 c4 bc
       -0.11430755 -0.07935879 -0.03674598 -0.023958132
000080 a4 82 f3 3d 9a e6 cd 3d 40 79 03 bd a8 c5 80 bd
       0.11890152 0.100537494 -0.032098055 -0.062877
000090 b8 6f b5 bc 58 bb f3 3d 8c 74 46 3d cc 89 90 3d
       -0.022147998 0.11900967 0.04845099 0.07057533
0000a0 78 94 e2 3d 34 0e 25 3d 38 b7 1d bd 9c 52 8c 3d
       0.110634744 0.04029675 -0.03850481 0.06851694
0000b0 5a 8f 98 3d 40 25 40 3d c4 80 16 3d 64 6e e6 bd
       0.07449217 0.046910524 0.036743894 -0.11251524
0000c0 d8 01 85 3d a8 0a f4 bc e8 d8 d7 3d f0 d2 2b 3d
       0.06494492 -0.029790238 0.105394185 0.041949213
0000d0 36 9a dc bd d4 0f aa bd 50 19 67 3c 14 7d 7c 3d
       -0.10771601 -0.083038 0.014105156 0.06164272
0000e0 0a d3 9f bd 96 e9 da bd a4 36 36 bd 80 71 e9 3c
       -0.078039244 -0.10689084 -0.044485703 0.028496504
0000f0 60 02 dc bb 00 6b a3 3d f2 4d f7 bd 2c 56 8e bd
       -0.0067141503 0.07979393 -0.12075414 -0.0695003
000100 3a 2d d8 3d fe cb 8a 3d 64 37 8d bd 74 6e dc bd
       0.10555501 0.0677719 -0.068953305 -0.10763255
000110 a0 d9 e6 3c 0c 35 34 3d 72 bb e4 3d 5c 74 12 3d
       0.028179944 0.043995902 0.11168565 0.0357555
000120 44 3e 6b 3d 74 df d2 bd cc 49 d5 3d 10 4a d1 3d
       0.057432428 -0.102965266 0.10414466 0.102192044
000130 c4 6f 64 3d d4 93 ab 3d 58 6a 61 3d e0 c0 a5 bc
       0.05577065 0.08377805 0.055033058 -0.020233572
000140 94 27 79 3d 98 81 25 3d d8 34 12 3d 2e a2 c2 bd
       0.06082876 0.040406793 0.035694927 -0.095035896
000150 78 3c 3a 3d d0 c2 96 bd 54 53 57 bd 50 ed 04 3d
       0.045467824 -0.07361376 -0.052569702 0.03245288
000160 a4 78 b7 3d cc ba 4c 3d 52 88 91 bd 98 7a a8 bd
       0.08958557 0.04998283 -0.07106079 -0.08226508
000170 08 e8 1e 3d e6 41 a3 3d 0a a4 b6 3d b8 ad 7f 3d
       0.0387955 0.079715535 0.08918007 0.06242153
000180 30 a6 ca 3c 4c ed ea 3d 8e 0f cd 3d 08 6f 5e bd
       0.024737448 0.11471042 0.100127324 -0.054305106
000190 74 53 af 3d 9c dc 54 3d cc ce 04 3d b4 aa 47 3d
       0.08560839 0.051968202 0.03242378 0.04874678
0001a0 e4 ae 14 3d 30 a2 8b 3c c0 e8 3a 3b 1e 34 b6 3d
       0.0362996 0.01704511 0.0028520077 0.08896659
0001b0 54 39 ad 3d 22 5c b5 3d 18 a4 7d 3d 08 fe e4 3c
       0.084582 0.088554636 0.06192407 0.027953163
0001c0 e0 af 93 bb 1e 49 bc bd ec 30 f9 3d a8 d6 1b bd
       -0.00450705 -0.091936335 0.12167534 -0.03804651
0001d0 e0 98 17 bd e0 4c 3d 3c 08 48 ea 3c cc cb 39 3d
       -0.037011027 0.011553973 0.0285988 0.04536037
0001e0 94 58 a6 3d 44 7b 86 bd 86 98 93 3d c0 f1 57 bb
       0.08122364 -0.0656648 0.07206826 -0.003295049
0001f0 80 d7 aa bb 20 ea 98 bb bc 3a 96 bd e2 e9 8a bd
       -0.005213678 -0.0046665817 -0.073354214 -0.06782891
000200 3a fc da 3d 60 e6 80 3b c0 35 70 bb c0 70 71 bb
       0.1069264 0.003933713 -0.0036653131 -0.0036840886
000210 4e 05 db 3d c0 db a0 bd 82 b7 dc 3d 8c 99 7d bd
       0.10694371 -0.07854414 0.10777189 -0.06191401
000220 d0 4b bf bd 6c 7a 6c bd b0 cf 7c 3c 00 b0 90 bc
       -0.09340632 -0.057733938 0.015430376 -0.017662048
000230 94 5a 82 bd 20 7b c4 3c 20 d9 58 3c 76 04 de 3d
       -0.06364933 0.023984492 0.01323536 0.108406946
000240 90 b4 64 3c 20 15 d7 3c 54 21 94 3d 30 72 79 bc
       0.013959065 0.02625519 0.07232919 -0.015224978
000250 2e b5 f3 3d 40 5c 20 3d 36 5a aa bd 00 fa 27 ba
       0.11899792 0.039150476 -0.083179876 -0.00064077973
000260 6c b5 03 3d 8e 15 ad bd 94 bf e5 3d 44 a1 d8 bd
       0.03215544 -0.08451377 0.11218181 -0.10577634
000270 c0 a4 95 bd 3c 1e b4 bd a0 0f 36 bd 5c 96 5e bd
       -0.07306814 -0.08794829 -0.044448495 -0.054342613
000280 30 cc 2c 3d ea ba 8a bd 90 22 7e bd 78 ee bc bd
       0.042186916 -0.06773932 -0.06204468 -0.09225172
000290 20 33 ef bb 64 c6 37 bd 48 eb 25 3d b4 a5 26 bd
       -0.0072997957 -0.044866934 0.040507585 -0.04068537
0002a0 b8 ff b0 bc a0 d4 d5 bd 78 d5 1f bd b8 c7 01 bd
       -0.021606311 -0.104409456 -0.03902194 -0.031684607
0002b0 ec b1 2d 3d 18 c2 9c bc c2 f0 e5 3d b0 c9 65 bd
       0.042406008 -0.01913552 0.112275615 -0.056100547
0002c0 a4 6e 5c bd ee f1 b6 3d 1a 3e 8b bd c4 4f 17 bd
       -0.053816453 0.08932863 -0.06798954 -0.036941305
0002d0 5e 08 f0 bd b0 13 b1 3d 60 cc 61 bd 1c 31 fd 3d
       -0.11720346 0.08646333 -0.055126548 0.123628825
0002e0 fa 66 c1 3d d2 18 cd 3d f8 46 06 3d 40 38 20 3c
       0.09443469 0.100145 0.032782525 0.009779036
0002f0 00 b1 95 3b 50 d6 2a bd 0e cb c4 3d 50 d2 3d bd
       0.004568219 -0.04170829 0.09609042 -0.046343148
000300 40 02 19 bd cc 97 6f 3d 6e 06 87 3d 50 d2 fd bc
       -0.03735566 0.058494374 0.06593023 -0.030984074
000310 c6 95 cd 3d 88 04 bb 3d de e2 d5 bd dc 0e a1 3d
       0.10038333 0.09131724 -0.10443662 0.07864162
000320 b4 a8 56 3d ca 85 c9 3d fe 56 e2 bd ac 17 70 bd
       0.05240698 0.09839971 -0.11051749 -0.058616325
000330 a6 04 dd bd 80 77 68 bb bc 79 39 bd 98 0d e2 3c
       -0.10791902 -0.0035471618 -0.04528211 0.027594373
000340 10 ed 9c bd 8c 6b 5c 3d 98 7a 54 3d 80 6a 93 3c
       -0.076624036 0.053813502 0.051874727 0.01799512
000350 98 c3 92 bd ac e2 86 bd e2 36 f4 3d 80 4b 7f bb
       -0.07166213 -0.06586203 0.119245306 -0.0038954914
000360 f8 d1 12 bd 58 4f b9 3c 0e 41 d1 bd cc 6e 7a bd
       -0.035844773 0.022620842 -0.10217486 -0.06114082
000370 04 56 25 3d c2 ab 86 3d d4 80 8d 3d 30 db 6d bc
       0.040365234 0.06575729 0.06909338 -0.01451759
000380 9e 76 9b 3d 00 85 ee bb e4 32 f1 bd 00 3b 5b 3b
       0.07590984 -0.0072790384 -0.11777285 0.0033451915
000390 8c c0 75 3d 90 95 4d 3c a2 fb ea 3d 96 59 81 3d
       0.05999808 0.0125478655 0.114737764 0.06315915
0003a0 f2 08 d3 3d a2 84 ae bd 94 45 5b bd b6 4f 93 3d
       0.103044406 -0.085213915 -0.05353315 0.07192938
0003b0 00 74 2e b9 b8 4d e4 bd dc 61 ba 3d 00 cd d2 bc
       -0.00016637146 -0.11147636 0.091006964 -0.025732517
0003c0 30 d9 ef bd bc 46 cc bd 4a 62 f7 bd 80 7c e1 3d
       -0.11711347 -0.09974429 -0.12079294 0.110100746
0003d0 08 60 17 bd 00 04 4e 3b 68 1c ae 3c 60 2c c2 3d
       -0.036956817 0.003143549 0.02125378 0.0948112
0003e0 80 0a f8 3d e4 f0 d7 3d 1e 38 cb 3d 68 47 50 bd
       0.12111378 0.10543993 0.09922813 -0.05084935
0003f0 8c d8 a6 bd e6 c7 94 bd 0c fa 0e bd f0 1d 1a 3c
       -0.08146772 -0.0726469 -0.034906432 0.009406552

fc1.bias f4 [32]
000000 fa ee fa bd ce fd e5 bd 90 47 e9 bc b2 82 c3 3d
       -0.122526124 -0.1123005 -0.028476506 0.095464125
000010 fc 1b 1e bd a8 47 5d 3d 5e 01 9e bd ac 61 c3 3d
       -0.038600907 0.054023415 -0.077151045 0.09540114
000020 30 c3 be bc 74 b9 24 bd 3e 5c fd 3d 72 4d 93 3d
       -0.023286432 -0.040215924 0.123711094 0.07192506
000030 c0 d0 ee 3c c0 10 cf bb ce 44 8b 3d 78 45 95 3d
       0.029152274 -0.0063191354 0.06800233 0.07288641
000040 90 03 63 bc 36 47 90 3d 42 e6 90 bd 64 dd f0 bd
       -0.01385583 0.070448324 -0.07075168 -0.11760977
000050 f8 0f b9 bc f0 ac c8 3d e6 c4 a7 3d a4 e9 3a bd
       -0.022590622 0.0979861 0.08191852 -0.045632973
000060 24 87 62 3d 40 e1 27 3d 10 1f 6c 3d 38 e7 78 bd
       0.05530466 0.0409863 0.05764681 -0.060767382
000070 b8 98 50 3d 24 cf 95 bd e0 d8 ca bd fc 0f 64 3d
       0.050926894 -0.073148996 -0.09904647 0.055679306

fc2.weight f4 [1, 32]
000000 94 54 1b be 64 73 f4 bc 89 50 17 be 62 db fc ba
       -0.15168983 -0.029840179 -0.14776815 -0.0019291455
000010 72 b2 8d bc eb 7a 30 3e cf c8 c1 3d fe fa 8a 3d
       -0.017297003 0.1723439 0.09462129 0.06786154
000020 76 f5 8e bc 96 85 1b be b1 f2 4e 3d a2 47 ba 3c
       -0.01745103 -0.15187678 0.050524417 0.022739235
000030 d4 a0 b8 bd 53 73 91 3d c6 ab d4 3d ad c2 16 be
       -0.090150505 0.071020745 0.10384326 -0.147227
000040 f0 5c 1c 3e 5d 77 9d bd f8 30 2d 3e 43 3b 31 bd
       0.15269828 -0.07688782 0.16913211 -0.043269407
000050 65 39 e4 3d b4 13 29 be 37 82 b1 3b 09 1d b1 bd
       0.1114376 -0.16511422 0.005417134 -0.08648116
000060 da 34 98 3c 26 51 25 be 7a b2 0a be cc ea 1d 3e
       0.01857989 -0.16144237 -0.13544646 0.15421599
000070 32 6e 2e 3e 3b 7f 71 bc 59 56 d8 bd d6 d2 ab bd
       0.17034224 -0.014739807 -0.105633445 -0.08389823
