output/out_models/dqn_models/irl/dlt_293.pth (torch, 9887 bytes, 3 tensors)

fc1.weight f4 [32, 64]
0.1125647 -0.11845353 0.039920256 -0.048477814 0.015425324 -0.027347997 0.074318215 -0.11386205
0.09634903 0.016079247 -0.124669 -0.015267521 -0.022040844 0.081415415 -0.11470848 0.008856714
0.054159045 0.10890129 0.11413579 0.003489837 0.080385745 -0.05116032 0.091666594 0.11627416
0.10722397 0.046795875 0.10630034 0.12206836 0.07257584 -0.11504729 0.10855879 -0.086038455
-0.097708866 0.11436218 -0.030895472 -0.08734791 0.07101603 0.08921902 0.05498828 0.077326134
0.07216823 0.009952575 -0.0045340955 0.079458594 -0.019604892 -0.025435403 -0.10805513 -0.11627892
-0.08342084 0.05996029 0.07840894 0.06962976 0.0613676 -0.07217935 0.107040435 -0.08542991
0.07700005 -0.07944788 0.09076479 0.015599966 0.062227383 -0.03336142 -0.12466808 0.005692199
0.07190418 0.040887177 -0.06938435 0.0059443414 0.10968843 0.0048000664 -0.00979735 -0.047301665
-0.083991855 0.093556866 -0.01827915 -0.06031269 -0.008194923 0.09511556 -0.07972239 0.0391151
-0.0042072386 -0.07046169 -0.12328148 -0.08197978 0.050102055 0.10564697 0.097840175 0.011781514
-0.0016784817 -0.035549954 -0.043966502 0.017405659 0.06771578 -0.09599863 0.1107911 -0.04602456
0.010695666 -0.039332494 0.039209113 0.012735426 -0.07225178 0.0961435 -0.09825584 -0.123893216
-0.08996226 -0.05926241 0.0074819922 0.046414673 0.017568097 -0.07082857 0.10701895 0.04017912
-0.050080612 -0.06789841 -0.0006351471 -0.024732754 -0.036914438 -0.120633915 0.035113394 0.121943235
-0.02555728 -0.054632723 -0.05619125 -0.0043982714 0.049170494 0.07042064 -0.03998594 -0.03522466
-0.08899672 -0.08976354 -0.046448812 -0.09424755 0.091903314 0.048901543 -0.093825474 -0.09365025
-0.008457899 -0.047801346 0.00029084086 -0.123719335 0.0117548555 -0.04047586 0.026808068 0.061004356
0.100645274 -0.06723383 0.033223763 0.044192284 -0.120856285 0.009545818 -0.11293751 -0.04299651
-0.051894024 0.09295021 -0.051606774 -0.024121225 0.0993043 -0.023622468 -0.11684577 0.11536835
-0.036765933 -0.0038197786 -0.05292906 -0.015925124 -0.10854231 0.04994394 0.085776255 -0.073558554
0.03135176 0.06955509 0.031708494 0.024809062 0.11103417 0.002234891 0.041622058 -0.050740138
0.085205436 -0.06371912 -0.08007854 0.081227526 0.06828341 -0.073541075 0.12478936 0.063982114
-0.093265 0.0656587 -0.05814524 -0.0148849785 0.11925128 -0.02930431 -0.044143766 -0.009306997
-0.015592873 0.00653027 0.02656892 -0.05638045 -0.031782836 0.06632562 -0.0882861 0.055283368
0.029410228 -0.122930855 0.07189089 -0.04880625 -0.014217377 -0.030170545 0.08422731 -0.032400146
-0.020831257 -0.039299324 0.01466389 -0.057551593 0.014469281 0.018422589 0.038527086 -0.06591399
0.060894594 0.010982916 -0.11608724 0.049283147 0.058802903 0.028382242 0.10081756 -0.09581077
-0.0052780956 0.0024297237 -0.11503191 0.088186845 -0.08007483 -0.073182344 -0.05400452 -0.050788984
9.803474e-05 0.09362215 0.11204378 0.095801204 -0.05888085 0.12009692 -0.12143095 0.11489719
0.0018042773 0.057555616 0.051943675 -0.06962243 -0.04401207 -0.01252687 0.121917516 -0.038220286
-0.007166669 0.07055731 -0.1229911 -0.08293833 0.06533238 0.10995701 -0.057462767 -0.10582417
00000000: 5288 e63d c497 f2bd 6c83 233d ac90 46bd
00000010: 80ba 7c3c e808 e0bc 2634 983d 8230 e9bd
00000020: a452 c53d a0b8 833c 7652 ffbd a024 7abc
00000030: 008f b4bc 20bd a63d 48ec eabd c01b 113c
00000040: e0d5 5d3d a407 df3d 06c0 e93d c0b5 643b
00000050: 48a1 a43d 7c8d 51bd b2bb bb3d 2621 ee3d
00000060: 3e98 db3d 08ad 3f3d feb3 d93d fafe f93d
00000070: a4a2 943d ea9d ebbd 1254 de3d ee34 b0bd
00000080: 961b c8bd b836 ea3d 8018 fdbc 76e3 b2bd
00000090: da70 913d 76b8 b63d 643b 613d 2a5d 9e3d
000000a0: f0cc 933d 2010 233c c092 94bb 30bb a23d
000000b0: 709a a0bc e85d d0bc 024c ddbd a423 eebd
000000c0: 8cd8 aabd ec98 753d de94 a03d 0c9a 8e3d
000000d0: 985c 7b3d c4d2 93bd 0438 db3d e0f5 aebd
000000e0: 34b2 9d3d 92b5 a2bd e4e2 b93d 0097 7f3c
000000f0: 24e2 7e3d fca5 08bd fa51 ffbd a085 ba3b
00000100: 8042 933d 5079 273d 6219 8ebd c0c8 c23b
00000110: 54a4 e03d e049 9d3b 1085 20bc 64bf 41bd
00000120: ec03 acbd be9a bf3d 28be 95bc 700a 77bd
00000130: 0044 06bc f2cb c23d 7e45 a3bd 2837 203d
00000140: e0dc 89bb 384e 90bd 007b fcbd 04e5 a7bd
00000150: d037 4d3d 705d d83d 6e60 c83d 4007 413c
00000160: 8000 dcba d49c 11bd 3816 34bd 5096 8e3c
00000170: 92ae 8a3d ee9a c4bd 72e6 e23d 4084 3cbd
00000180: e03c 2f3c 1c1b 21bd bc99 203d 40a8 503c
00000190: bef8 93bd e2e6 c43d 5c3a c9bd babb fdbd
000001a0: 223e b8bd 24bd 72bd 802b f53b 501d 3e3d
000001b0: f8ea 8f3c 920e 91bd c02c db3d dc92 243d
000001c0: 5421 4dbd 520e 8bbd 0080 26ba 589c cabc
000001d0: 9833 17bd ea0e f7bd 10d3 0f3d 60bd f93d
000001e0: 805d d1bc 90c6 5fbd cc28 66bd 601f 90bb
000001f0: 0067 493d b238 903d 4cc8 23bd bc47 10bd
00000200: ea43 b6bd f2d5 b7bd 1c41 3ebd dc04 c1bd
00000210: ce37 bc3d fc4c 483d 9227 c0bd b4cb bfbd
00000220: 0093 0abc 58cb 43bd 007c 9839 9060 fdbd
00000230: 7097 403c 04ca 25bd 989c db3c b4df 793d
00000240: 1c1f ce3d e4b1 89bd a415 083d f802 353d
00000250: 8083 f7bd 1066 1c3c c84b e7bd 1c1d 30bd
00000260: d48e 54bd ae5c be3d a061 53bd e099 c5bc
00000270: 0e60 cb3d e883 c1bc d64c efbd 3e46 ec3d
00000280: e097 16bd 4055 7abb 24cc 58bd 6875 82bc
00000290: 6e4b debd 0492 4c3d 76ab af3d dea5 96bd
000002a0: b46a 003d e672 8e3d c4e0 013d 603c cb3c
000002b0: e265 e33d 4077 123b e47b 2a3d e4d4 4fbd
000002c0: 3080 ae3d 2c7f 82bd 3800 a4bd 9e5a a63d
000002d0: 2cd8 8b3d b49c 96bd 9091 ff3d 0e09 833d
000002e0: b801 bfbd 1278 863d b429 6ebd 20e0 73bc
000002f0: 043a f43d 980f f0bc 18d0 34bd 607c 18bc
00000300: 4079 7fbc e0fb d53b 10a7 d93c 30ef 66bd
00000310: b82e 02bd bad5 873d 58cf b4bd d070 623d
00000320: b8ed f03c 2cc3 fbbd 883b 933d 10e9 47bd
00000330: 00f0 68bc 3828 f7bc 5e7f ac3d 04b6 04bd
00000340: 50a6 aabc 54f8 20bd d040 703c 38bb 6bbd
00000350: 9010 6d3c f8ea 963c 94ce 1d3d eafd 86bd
00000360: 9c6c 793d b0f1 333c 26bf edbd 20dd 493d
00000370: 50db 703d e081 e83c 7079 ce3d 7038 c4bd
00000380: e0f3 acbb 003c 1f3b da95 ebbd 4e9b b43d
00000390: 46fe a3bd a0e0 95bd d833 5dbd 1c08 50bd
000003a0: 0098 cd38 f8bc bf3d 3677 e53d 6c33 c43d
000003b0: 0c2d 71bd 60f5 f53d cab0 f8bd 384f eb3d
000003c0: 807d ec3a 70bf 6b3d e4c2 543d 3496 8ebd
000003d0: 0046 34bd 803d 4dbc e4af f93d e08c 1cbd
000003e0: 60d6 eabb 5a80 903d c2e2 fbbd 92db a9bd
000003f0: fccc 853d 2431 e13d 145e 6bbd 58ba d8bd

fc1.bias f4 [32]
-0.0035416782 0.0791782 0.0007878989 -0.05665885 -0.07445666 0.040462732 0.12213433 0.0053899586
0.026976988 0.050202295 -0.030838802 -0.024778187 -0.017406061 -0.05719018 -0.099380895 -0.04248129
0.10676567 0.038409173 0.0902314 0.01674804 0.019581303 0.06511021 0.086346835 0.11184724
-0.11408973 -0.07468249 -0.05996947 -0.09037091 -0.08695103 -0.012839347 -0.024616927 0.08685373
00000000: 801b 68bb 2e28 a23d 008b 4e3a 1c13 68bd
00000010: bc7c 98bd 40bc 253d 9021 fa3d 409e b03b
00000020: d8fe dc3c eca0 4d3d a8a1 fcbc a0fb cabc
00000030: 2897 8ebc 4040 6abd 3688 cbbd dc00 2ebd
00000040: f6a7 da3d f052 1d3d 3ecb b83d 3033 893c
00000050: f868 a03c 8058 853d 9cd6 b03d 2a10 e53d
00000060: e0a7 e9bd 22f3 98bd 8ca2 75bd 6214 b9bd
00000070: 6213 b2bd 205c 52bc 70a9 c9bc 5ee0 b13d

fc2.weight f4 [1, 32]
0.11002875 0.064984515 0.020356085 -0.019714821 0.15660919 -0.055179812 0.09526589 0.14138082
0.15999411 -0.028692668 0.019731257 -0.10019404 -0.12645158 -0.03844473 -0.035795677 0.08147909
-0.06698114 -0.099090695 0.014769099 0.008624594 0.16909182 0.15335028 0.15777591 0.035470072
-0.17142105 -0.09125168 -0.1193734 0.007746443 -0.00156938 -0.10344474 0.0054719676 0.08874992
00000000: c156 e13d 9a16 853d cec1 a63c fa80 a1bc
00000010: 295e 203e 3a04 62bd c31a c33d 22c6 103e
00000020: 7fd5 233e e30c ebbc 72a3 a13c 8832 cdbd
00000030: 867c 01be 3978 1dbd 7d9e 12bd 82de a63d
00000040: 682d 89bd 10f0 cabd 17fa 713c 2b4e 0d3c
00000050: 6826 2d3e db07 1d3e 0290 213e 1149 113d
00000060: 0089 2fbe 29e2 babd 0b7a f4bd e0d5 fd3b
00000070: a8b3 cdba d6da d3bd 314e b33b 85c2 b53d
