output/out_models/dqn_models/irl/dlt_87.pth (torch, 9887 bytes, 3 tensors)

fc1.weight f4 [32, 64]
00000000: 1cd8 acbd 9c95 e93d c084 08bb 04fe 9fbd
00000010: a26c d2bd 585a 913d 6a92 aabd 7ef2 df3d
00000020: 78f1 f43c e0a8 ca3d 38f6 f43c 6c28 43bd
00000030: 70dd 023d 988c 84bc 0ecd c83d 18b3 d9bc
00000040: c0ac 663c 201d a3bd 4093 f1bd 7872 0e3d
00000050: d4d3 c0bd 04f1 133d 8085 42bc fc94 9bbd
00000060: 6072 aebd 2033 b43d a0a2 ccbc 00b1 be3c
00000070: 5e0d c3bd 8aff ad3d 608f cdbb a06b cebc
00000080: 2646 fa3d dca0 97bd 0c28 a13d f825 a03c
00000090: f4c9 70bd 847f 58bd 9411 33bd 9094 a9bd
000000a0: 24cc d83d 1aee f9bd 6e89 9d3d aabf a73d
000000b0: 72be 8bbd 5447 20bd 9087 08bd d0e4 5f3c
000000c0: 4069 b5bb 708e 3a3d 32c1 f23d 904d b9bc
000000d0: b28f 88bd 8c6e 77bd 468e ed3d 2464 d6bd
000000e0: 5214 dc3d e0fc ff3b 30cd f9bd 50d2 b9bc
000000f0: 88a3 983c 5e81 d7bd 54f9 aebd acb0 273d
00000100: f042 2b3c 0c8f 7ebd ec82 c8bd dcf0 3e3d
00000110: 58ab d9bd 7ae3 a6bd 76bf 9dbd 8032 92bb
00000120: b096 54bd e095 9abc c821 5cbd 58b5 52bd
00000130: bc48 52bd d6e2 dc3d e05d dcbc 7c57 b1bd
00000140: 0af3 fabd 989e a53c b4e6 043d 48ce f5bd
00000150: 90fa f9bd 80b1 e8bd ce19 c03d 5814 683d
00000160: 7050 b9bc f408 00bd 6c95 c2bd 4cd7 c33d
00000170: dcf7 ecbd 767a eabd f0ba 65bc 0088 c23d
00000180: e032 8ebb 8a01 babd 0690 e13d f044 793d
00000190: acac 32bd c085 2abc ae03 803d 88c8 acbd
000001a0: 1629 dabd 5068 19bd 6eb5 cbbd 9824 80bd
000001b0: 2633 c6bd dcc0 a2bd 3ac6 cf3d 501b be3c
000001c0: a85d 9d3c 54c1 49bd 5421 89bd b86c 823d
000001d0: f03f c5bc e8dd f13d 38be 0a3d ac7d d23d
000001e0: 3ce8 e13d ae76 f3bd 2212 9a3d 24ce 173d
000001f0: 6e8c 863d 609b 98bc 1016 eb3c 685d fcbd
00000200: f628 dc3d 389b dcbd 5a68 f73d 0868 d6bd
00000210: 20d3 dd3b 5c97 c03d 4c37 0ebd 7cf9 e7bd
00000220: 707c e33c c458 84bd 0058 23bd 0c73 82bd
00000230: b095 a83d 8a5e cb3d 5000 00bc 342b 3e3d
00000240: 68a1 86bd 2640 9a3d 3c16 83bd 266c 853d
00000250: 0a97 b13d 80e1 573c 200d 81bd 0c88 90bd
00000260: e4af 803d 78f1 753d c4cd abbd f20e de3d
00000270: 4c27 8abd b876 3b3d 087a 46bd da28 b8bd
00000280: 2232 dc3d d0b0 d63d 38b8 ed3d da4f d83d
00000290: f0ef 9b3c 6290 bf3d b20a e0bd fa7e c4bd
000002a0: 7883 8c3c 2442 453d f070 143d 0ce2 853d
000002b0: c85c 69bd 8040 953d 889a d13d 64a9 a53d
000002c0: aca9 38bd 4050 6c3d c45e 103d 5441 7a3d
000002d0: 909c 6c3c baaa c1bd 60bd ff3d f0c8 e93d
000002e0: 18e8 debc 242b fa3d 08e3 053d 00f8 cd38
000002f0: c685 813d bc6d 6e3d 3447 5e3d 4685 f3bd
00000300: f49a 97bd a06b ec3c ea84 df3d 90bd 1abd
00000310: b86a bfbc 0e92 9bbd e258 c0bd 4842 86bd
00000320: 281a ef3c b859 c83d 9414 cd3d b4c6 3dbd
00000330: d076 583d b86e fbbc 006c c339 9413 963d
00000340: cca9 c43d ca5d 86bd 4c92 31bd a208 fdbd
00000350: ae6d e5bd d6c4 af3d f071 e63d ec82 5e3d
00000360: e23a 863d 826e 93bd 401a edbb 44f8 71bd
00000370: dcce b8bd 3243 8d3d 889a 49bd 30ea 71bc
00000380: 94f2 cabd 8043 35bb 5af7 e6bd e05f e1bb
00000390: 0c3e 62bd d04e 52bd f0a8 213d 6c90 f1bd
000003a0: f81d 54bd 9ce9 bdbd 0a0d ac3d 9c6e 6bbd
000003b0: e034 593c 9c58 ba3d a878 bfbd 66eb 893d
000003c0: d07c 4d3c 2a4d f3bd 38c9 b0bc 581e 5ebd
000003d0: 3028 88bc ac24 393d 92d2 b7bd f06c a9bc
000003e0: 4641 ce3d 78ab 6bbd c048 253c 78b2 b8bd
000003f0: 4078 7fbb bcf5 f2bd 746a e3bd b8bb 8ebd
-0.08439657 0.11405489 -0.0020831078 -0.078121215 -0.10274626 0.0709731 -0.083287075 0.109349236
0.029900298 0.098954916 0.029902562 -0.04764597 0.03194946 -0.016180322 0.09804736 -0.026574656
0.014079273 -0.079645395 -0.11795664 0.034777135 -0.09415403 0.036118522 -0.011872649 -0.07596776
-0.08517909 0.08798814 -0.02497989 0.02327776 -0.09524034 0.08496006 -0.006273195 -0.025197804
0.12220411 -0.07403728 0.078689665 0.019549355 -0.058786348 -0.052855983 -0.043717936 -0.08280289
0.10585812 -0.122036174 0.07692228 0.08190854 -0.06823434 -0.039130524 -0.033332407 0.013665393
-0.0055362284 0.045545995 0.11853255 -0.022619992 -0.06668033 -0.06040816 0.11599402 -0.10468319
0.10746063 0.0078121275 -0.121973395 -0.022683293 0.018632665 -0.10522722 -0.08543649 0.04093997
0.010452971 -0.06214814 -0.09790596 0.04661642 -0.10628384 -0.081488565 -0.07702534 -0.0044615865
-0.05190152 -0.018870294 -0.053743154 -0.051442474 -0.051338896 0.10785453 -0.026900232 -0.086592644
-0.12253387 0.020217225 0.03244658 -0.12002236 -0.12205994 -0.113619804 0.09379922 0.056660026
-0.022621363 -0.03125854 -0.09501156 0.09562549 -0.11570713 -0.11449139 -0.01402162 0.09498596
-0.004339561 -0.09082325 0.110137984 0.06085676 -0.043621704 -0.010407865 0.06250702 -0.08436686
-0.10652368 -0.037452996 -0.09946714 -0.0625698 -0.096777245 -0.07946941 0.101452306 0.023206383
0.019209698 -0.049256638 -0.0669581 0.06368393 -0.02407834 0.118099034 0.033872813 0.10277876
0.11030623 -0.11887871 0.0752299 0.037061825 0.065697536 -0.018628776 0.028697044 -0.12322503
0.1075 -0.10771793 0.1208045 -0.10469061 0.006769553 0.094038695 -0.034720704 -0.11326882
0.027769297 -0.06462243 -0.039878845 -0.063696 0.082316756 0.09930141 -0.0078125745 0.04642792
-0.065737545 0.075317666 -0.06400725 0.06514768 0.086713865 0.013176322 -0.063013315 -0.07057199
0.062835485 0.060044736 -0.08388856 0.10842694 -0.067457765 0.045767516 -0.04845622 -0.08992167
0.107517496 0.10482943 0.116074026 0.105621055 0.01903531 0.09353711 -0.1093954 -0.09594531
0.017152533 0.04815878 0.036240518 0.06537256 -0.05697325 0.07287693 0.102345526 0.08088949
-0.045083687 0.05769372 0.035246626 0.061097458 0.014441624 -0.09456392 0.12487292 0.11415279
-0.02721028 0.1221526 0.032687217 9.821355e-05 0.063243434 0.05821012 0.054267123 -0.11890654
-0.07402602 0.028859913 0.10914023 -0.037778437 -0.023366317 -0.07596217 -0.09391953 -0.06555611
0.029187277 0.097827375 0.100136906 -0.046332076 0.052847683 -0.030692443 0.00037273765 0.07327953
0.09602699 -0.065608576 -0.04335241 -0.12355162 -0.1120256 0.08582465 0.112522006 0.054324076
0.065542 -0.07198812 -0.0072357953 -0.059074655 -0.0902383 0.06897582 -0.049219638 -0.014765307
-0.09909549 -0.0027658641 -0.11277647 -0.0068778843 -0.055234954 -0.051344693 0.039467752 -0.117951244
-0.051786393 -0.09273073 0.084009245 -0.057478532 0.013257235 0.09098932 -0.09349185 0.06734352
0.012541965 -0.11879952 -0.021580324 -0.054228157 -0.016620725 0.04520099 -0.0897571 -0.020681828
0.10071044 -0.057536572 0.010088146 -0.09018415 -0.0038981587 -0.11863276 -0.11104289 -0.06969398

fc1.bias f4 [32]
00000000: 9859 81bc 82c9 cebd 3840 ecbd 141a 9abd
00000010: a0ac 6abc 86a8 d03d ae08 c93d c057 a8bb
00000020: 90ac 08bc 403a ec3d 46c8 f9bd f0e5 743c
00000030: 5497 793d c8d2 703d f041 f53c 845d 73bd
00000040: c075 e0bc 3817 d33c 9034 f5bd ec40 6cbd
00000050: 0e13 893d f0de 21bc d40d e3bd 40bd fa3d
00000060: 24d2 d0bd e895 f8bc a09d bc3d 9021 9bbd
00000070: cee8 bfbd d2ae d5bd 3405 debd 704a 56bd
-0.015789792 -0.10097028 -0.11535686 -0.07524505 -0.014323384 0.10188393 0.09816109 -0.0051374137
-0.008341923 0.11534548 -0.12196402 0.0149473995 0.060935333 0.058794767 0.029938668 -0.059415355
-0.027399898 0.025767908 -0.11972916 -0.0576791 0.066930875 -0.009879813 -0.11086622 0.12243128
-0.10196331 -0.030344918 0.09209752 -0.07574761 -0.09370576 -0.10433735 -0.10840836 -0.052317083

fc2.weight f4 [1, 32]
00000000: e831 fabb 280b f93d aeba ed3d 55be b7bc
00000010: 961a 823c da1c 1c3e 7d12 30be 7aa5 2a3d
00000020: d960 7dbd fb72 dfbd a5f0 f53d 92d3 04bd
00000030: 965e 483b 6832 c3bd cf50 0f3d b184 2f3e
00000040: 6efb 853d cf2c 98bc 801f 34be c087 98bd
00000050: ed1b 0cbe cefa 18be 0d58 073e abb8 fc3d
00000060: c890 a03c a561 1bbe 6e0e ee3d 45f2 85bd
00000070: 519f 18be a3f3 2f3e 5b77 9abd 1b54 323e
-0.007635344 0.12160331 0.11607872 -0.022429625 0.015881818 0.15245381 -0.17194553 0.041661717
-0.06185994 -0.10910603 0.1200879 -0.03242833 0.0030573956 -0.095310986 0.034989174 0.17140462
0.06542097 -0.018576054 -0.17590141 -0.07447767 -0.13682528 -0.14939424 0.13217182 0.1233991
0.019600287 -0.15173967 0.11623846 -0.0654035 -0.14904524 0.17182784 -0.075422965 0.17414896
