output/out_models/dqn_models/irl/dlt_51.pth (torch, 9887 bytes, 3 tensors)

fc1.weight f4 [32, 64]
000000 ce 0b f7 bd d8 85 c6 bd 12 0c d9 3d a0 54 4d 3c
       -0.120627984 -0.096934974 0.10598005 0.012532383
000010 66 e0 cd bd 40 b0 a8 bd bc f0 a9 bd 20 55 19 3d
       -0.10052566 -0.08236742 -0.082978696 0.037434697
000020 40 48 83 bb 88 8f d1 bd 76 ca b2 bd b6 bf e5 3d
       -0.0040064156 -0.102324545 -0.087300226 0.112182066
000030 60 8f 6c 3c d4 fb ea bd 32 c6 80 3d 54 b6 58 3d
       0.01443848 -0.11473814 0.06287803 0.052908257
000040 9c 1f d3 3d 7e 57 bb 3d d8 e4 61 bd a0 b0 e0 3b
       0.103087634 0.09147547 -0.055149883 0.006856993
000050 64 34 03 3d a0 8e 62 bc 48 76 e6 3c f8 c9 c3 bd
       0.032032385 -0.01382795 0.028132573 -0.09560007
000060 9c 2d 55 bd 00 ae df 3d 16 bd bf bd 68 3c e0 3d
       -0.05204545 0.1092186 -0.09362237 0.109490216
000070 78 28 82 bd 32 08 80 3d e8 57 fb 3d e8 71 ce bd
       -0.06355375 0.06251563 0.12272626 -0.1008032
000080 b8 ad be 3c b4 b2 42 3d 76 8e ff 3d 48 93 11 bd
       0.023276195 0.047533706 0.12478344 -0.03554085
000090 ec d2 fa 3d 60 4b f1 3b 00 3a f6 ba 78 45 ae bd
       0.122472614 0.0073637217 -0.0018785596 -0.08509344
0000a0 d2 a8 f9 bd 50 f6 bb bd f4 bf 1b 3d 78 bd 72 3d
       -0.12190403 -0.0917784 0.038024858 0.059262723
0000b0 70 d4 49 bc 56 95 b2 3d a8 5f 03 bd cc 9f fa bd
       -0.012318715 0.0871989 -0.032073647 -0.1223751
0000c0 80 ac 6b bc 48 56 b5 3c 28 b6 e9 bd 00 a0 48 3c
       -0.014384389 0.022135869 -0.11411697 0.012245178
0000d0 a4 91 49 3d 50 82 bb 3c c8 03 be 3d 3c f1 d5 bd
       0.04921116 0.022889286 0.09278065 -0.104464024
0000e0 c0 69 90 bc b0 0b be 3c bc 56 0e 3d a8 22 d0 bd
       -0.01762855 0.023198932 0.034750685 -0.1016286
0000f0 40 48 8f bd 00 ae 61 bc c0 ac d5 3c cc 36 c1 bd
       -0.069962025 -0.013774395 0.02608335 -0.0943428
000100 10 8a 35 bd b8 dc f5 3d 18 a9 8c bd da e0 d1 bd
       -0.04432112 0.120049894 -0.068681896 -0.10247965
000110 3c d4 b0 3d fc d1 cc bd 80 97 76 bd 58 df bf bc
       0.086342305 -0.10000989 -0.060203075 -0.023421928
000120 54 97 e9 bd 54 3a 4b 3d fc 7f 35 3d 54 a5 9a bd
       -0.11405817 0.049616173 0.04431151 -0.07551065
000130 00 7c b6 39 c8 85 bf bc f2 a0 db bd 48 00 28 bd
       0.00034806132 -0.023379222 -0.10724057 -0.041015893
000140 d6 63 d4 bd d4 28 c0 bd ba aa f3 bd c0 5b 5c 3c
       -0.10370605 -0.09382787 -0.11897798 0.013449609
000150 66 58 8b bd 38 7d d0 bc 04 ae 0f 3d 70 6c f3 3c
       -0.0680397 -0.025450334 0.035078064 0.029714793
000160 84 ce 84 3d 7c c4 26 3d 70 e6 8b 3d 82 b6 d3 3d
       0.06484702 0.040714726 0.06831062 0.10337545
000170 80 58 78 3c 18 8e b6 bd 80 2c 7a 3b a0 68 28 bc
       0.015157819 -0.08913821 0.0038173497 -0.010278851
000180 80 c7 5c 3b de a3 b2 bd 10 dd b0 bc 18 ec 83 bc
       0.0033688247 -0.087226614 -0.021589786 -0.01610379
000190 9c c4 24 bd 28 92 dd 3c a0 5c a5 3b fc 0b 42 bd
       -0.040226564 0.027047232 0.005046442 -0.04737471
0001a0 e8 e0 a9 bd 50 61 ac 3c 88 6e 77 3d a6 dd 93 bd
       -0.082948506 0.021042496 0.060408145 -0.072200105
0001b0 ce 66 c1 bd 30 f8 e4 3d 00 cb bd 3a 88 d9 2c 3d
       -0.094434366 0.111801505 0.0014480054 0.04219964
0001c0 3c 16 48 3d 18 a3 a5 bc ac 81 27 3d 86 8b ed bd
       0.04884933 -0.02021937 0.04089515 -0.115988776
0001d0 26 29 ab bd 98 a8 ee 3d 2c 26 bc 3d 3a 6e ae bd
       -0.08357458 0.116532505 0.09186968 -0.08517118
0001e0 c4 de fd 3d c6 5d 97 bd 4a eb 87 3d b8 bd e8 bd
       0.12396005 -0.07390933 0.06636675 -0.11364311
0001f0 58 6a 7d 3d e2 14 c1 3d d2 59 ca bd 38 df f6 3d
       0.061868995 0.09427811 -0.09880413 0.12054294
000200 2c 3d 8f bd 0c 13 18 3d 92 e8 c2 bd 1e c2 b1 3d
       -0.069940895 0.03712754 -0.095170155 0.08679603
000210 90 e5 d4 bd 74 b5 7f 3d 30 f4 20 bc fc 7e 7f bd
       -0.10395348 0.062428907 -0.009823844 -0.06237696
000220 08 11 a3 3c dc 53 02 3d a4 98 9d bd 84 80 57 3d
       0.019905582 0.031818256 -0.076951295 0.052612796
000230 f4 54 12 bd b4 8d dd bd e8 ff 4e 3d 44 1c 80 bd
       -0.03572555 -0.10818043 0.05053702 -0.06255391
000240 2c 6a a6 bd 1c 14 62 bd d8 db e8 bc 3c 6c 6e 3d
       -0.081257194 -0.05519496 -0.028425142 0.05820869
000250 20 56 d9 3b f6 8d f7 3d 48 3b c0 bd 84 bb 13 bd
       0.0066325814 0.12087624 -0.09386307 -0.0360675
000260 52 e9 d6 bd 6e 1c 85 3d ae 68 94 3d e8 ae 65 3d
       -0.10493721 0.06499563 0.072465286 0.056075007
000270 3c 5d 9a bd ae 13 9a bd 20 3c 43 bd 9c 1f 80 3d
       -0.07537314 -0.07523285 -0.04766476 0.06256029
000280 2c f7 98 bd fc 41 ef 3d 74 60 7e bd 64 22 2f 3d
       -0.07469019 0.116825074 -0.062103704 0.042757407
000290 78 b1 92 bc 22 75 b0 3d b6 31 c6 3d dc e4 19 bd
       -0.01790689 0.08616091 0.0967745 -0.037571773
0002a0 0e 5b d0 3d 48 29 ca bc d8 41 9e bc 42 de 99 bd
       0.10173617 -0.024677888 -0.019318506 -0.075130954
0002b0 1a 46 ee bd 50 32 15 bc ec 36 cb bd 58 03 a8 bc
       -0.116344646 -0.009106234 -0.09922585 -0.020509407
0002c0 d0 73 ec bd 0a 46 b1 3d 00 12 e8 bd 20 3c 65 3c
       -0.11545527 0.08655937 -0.11331558 0.013991386
0002d0 80 4c d2 bd e0 fd 0c 3d 80 68 7e bd 80 ee a0 3b
       -0.102684975 0.0344218 -0.062111378 0.004911244
0002e0 b8 bb 50 bd f6 37 bc 3d ca 4f 8b 3d 90 7d 65 3c
       -0.050960273 0.09190361 0.06802328 0.014006987
0002f0 08 ad ac 3d 64 0d b3 bd f4 a2 3a bd 78 5b 8a 3c
       0.084314406 -0.087427884 -0.04556556 0.016889319
000300 7c 83 12 bd 00 12 f8 ba 44 f7 7e 3d 3a 1e b0 3d
       -0.035769925 -0.0018926263 0.06224753 0.08599515
000310 28 35 26 3d 88 d2 f1 3d 80 c9 49 3d 14 10 7d bd
       0.040578038 0.11807734 0.04926443 -0.06178291
000320 f0 1a e8 3d f8 1f a3 bd bc 45 04 bd 78 43 0b bd
       0.11333263 -0.07965082 -0.032293066 -0.03399989
000330 80 53 78 3b 90 01 7a bd c8 22 0b bd 28 4d ac bd
       0.0037891567 -0.061036646 -0.033968717 -0.08413154
000340 b4 9d d1 3d c4 2a eb 3d 48 9b fd bc ac a0 e7 bd
       0.102351576 0.11482766 -0.030957833 -0.113099426
000350 58 94 a8 3c c0 78 b5 bb 66 52 cb bd 80 2e 23 bc
       0.020578548 -0.005538076 -0.09927826 -0.009959817
000360 ac 94 bf bd dc 5d 56 3d 1c 80 f7 3d 0c 7c ea bd
       -0.09354529 0.052335605 0.12084982 -0.11449441
000370 f8 5d 9b bc 72 dc dd 3d 8c b8 c2 3d e0 68 37 bc
       -0.018965706 0.10833062 0.09507856 -0.011194438
000380 a8 3d 84 3c 0c e3 c2 bd 58 8d 25 bd 68 2d f6 bd
       0.016142681 -0.09515962 -0.040418 -0.12020379
000390 ac 00 ef bd 9a 70 d2 3d e8 14 c6 3c 00 09 c7 3b
       -0.1167005 0.10275383 0.02417989 0.006074071
0003a0 80 a9 c6 3c e0 ca ae 3d 2c 5a 07 bd 90 a0 55 bc
       0.024250746 0.08534789 -0.03304498 -0.013038769
0003b0 24 e3 38 3d c0 b8 e0 bb ce 38 b3 3d b2 b2 ae bd
       0.045138493 -0.0068579614 0.08751069 -0.08530177
0003c0 40 1d 92 bc 8a 35 fb 3d 2a fb d7 3d 88 48 60 bd
       -0.017836213 0.12266071 0.105459526 -0.05475667
0003d0 60 3e c1 3b 22 3d bb 3d 20 9a dd bd fc 7a a3 bd
       0.0058973283 0.091425195 -0.10820413 -0.07982442
0003e0 ec 46 a5 3d e0 90 67 3d a0 d6 b9 bc 48 3c 13 3d
       0.08070168 0.056534648 -0.022685349 0.03594616
0003f0 8e bf f2 bd 88 55 aa bc 92 4e 86 3d ac 67 e1 bd
       -0.118529424 -0.020792738 0.06557955 -0.11006102

fc1.bias f4 [32]
000000 08 cb 19 bd 96 f8 b3 3d ae ed f5 bd 40 25 2c 3b
       -0.03754714 0.087876484 -0.120082244 0.002626732
000010 18 76 a5 bd 8c 66 e2 bd 08 2c 22 bd 38 89 8a 3d
       -0.08079165 -0.110547155 -0.039592773 0.06764454
000020 b8 81 54 3d ee fa 88 bd 10 a9 e7 bc a8 8b e2 3d
       0.051881522 -0.06688486 -0.028278857 0.110617936
000030 b0 01 94 bc cc 15 3d 3d 54 de e8 3d 3c 34 0c 3d
       -0.01806721 0.046163365 0.11370531 0.034229502
000040 bc 19 2c bd 5c 17 40 bd 18 d6 fc 3c c2 4a 96 3d
       -0.04201673 -0.046897277 0.030863807 0.07338478
000050 40 a9 dc bc 40 9d 39 3b 46 d1 f8 bd 74 f8 3b bd
       -0.026936173 0.0028322488 -0.12149291 -0.04589124
000060 80 d3 7a 3c 6a 65 b3 3d 90 47 a4 bd b6 0e df 3d
       0.015309215 0.087595776 -0.08021462 0.10891478
000070 c6 73 e9 3d 56 05 fd 3d f0 eb c0 bd 20 06 cd bb
       0.11399035 0.123545334 -0.094200015 -0.0062568337

fc2.weight f4 [1, 32]
000000 36 13 44 3d 75 a8 89 bd 75 b9 e4 bd 9d e5 0a bd
       0.047869883 -0.06721584 -0.111681856 -0.033910383
000010 9b 48 f7 bd ee 6f 66 bd 6d 40 e7 bd 83 eb 03 3e
       -0.12074395 -0.05625909 -0.11291585 0.1288281
000020 1a d4 b0 3d 09 ed e3 bb e0 1b 6e bc 5e c4 0f 3e
       0.08634205 -0.006955747 -0.014533013 0.14039752
000030 2c 49 55 3d 4b 3a 22 be bb 97 f8 3d d3 3e d8 bd
       0.052071735 -0.1584255 0.12138315 -0.10558858
000040 11 a5 67 3c 66 f4 cd 3c 71 51 3f bd cb 90 00 bd
       0.014138476 0.025140952 -0.046708528 -0.031388085
000050 b6 92 8b 3d 40 d6 06 be a3 7c 59 3d 98 e4 cc bd
       0.06815092 -0.13167667 0.05309738 -0.10004538
000060 49 9c 29 3e 46 4a b0 bd f1 7a f5 3d 21 80 f2 bd
       0.16563524 -0.086079165 0.1198634 -0.11840845
000070 f1 44 35 3d 17 6c 93 3d 30 6e 26 3c 29 53 9a 3c
       0.0442552 0.07198351 0.010158107 0.018838482
